class inner_f(torch.nn.Module):
    def forward(
        self,
        primals,
        tangents,
    ):
        primals_1: "bf16[514, 256][256, 1]cuda:0"  # PlainAOTInput(idx=0)
        primals_2: "bf16[514, 256][256, 1]cuda:0"  # PlainAOTInput(idx=1)
        primals_3: "f32[10, 64][64, 1]cuda:0"  # PlainAOTInput(idx=2)
        primals_4: "f32[256, 64][64, 1]cuda:0"  # PlainAOTInput(idx=3)
        primals_5: "f32[256][1]cuda:0"  # PlainAOTInput(idx=4)
        primals_6: "f32[2048, 1024][1024, 1]cuda:0"  # PlainAOTInput(idx=5)
        primals_7: "f32[10, 1024][1024, 1]cuda:0"  # PlainAOTInput(idx=6)
        primals_8: "f32[2048][1]cuda:0"  # PlainAOTInput(idx=7)
        primals_9: "f32[256, 128][128, 1]cuda:0"  # PlainAOTInput(idx=8)
        primals_10: "f32[10, 128][128, 1]cuda:0"  # PlainAOTInput(idx=9)
        primals_11: "f32[256][1]cuda:0"  # PlainAOTInput(idx=10)
        primals_12: "f32[256, 64][64, 1]cuda:0"  # PlainAOTInput(idx=11)
        primals_13: "f32[10, 64][64, 1]cuda:0"  # PlainAOTInput(idx=12)
        primals_14: "f32[256][1]cuda:0"  # PlainAOTInput(idx=13)
        primals_15: "f32[256, 100][100, 1]cuda:0"  # PlainAOTInput(idx=14)
        primals_16: "f32[10, 100][100, 1]cuda:0"  # PlainAOTInput(idx=15)
        primals_17: "f32[256][1]cuda:0"  # PlainAOTInput(idx=16)
        primals_18: "f32[256, 128][128, 1]cuda:0"  # PlainAOTInput(idx=17)
        primals_19: "f32[10, 128][128, 1]cuda:0"  # PlainAOTInput(idx=18)
        primals_20: "f32[256][1]cuda:0"  # PlainAOTInput(idx=19)
        primals_21: "f32[10, 1297][1297, 1]cuda:0"  # PlainAOTInput(idx=20)
        primals_22: "f32[88, 1304][1304, 1]cuda:0"  # PlainAOTInput(idx=21)
        primals_23: "f32[88][1]cuda:0"  # PlainAOTInput(idx=22)
        primals_24: "f32[1304, 88][88, 1]cuda:0"  # PlainAOTInput(idx=23)
        primals_25: "f32[1304][1]cuda:0"  # PlainAOTInput(idx=24)
        primals_26: "f32[2048, 1304][1304, 1]cuda:0"  # PlainAOTInput(idx=25)
        primals_27: "f32[2048][1]cuda:0"  # PlainAOTInput(idx=26)
        primals_28: "f32[4096, 2048][2048, 1]cuda:0"  # PlainAOTInput(idx=27)
        primals_29: "f32[4096][1]cuda:0"  # PlainAOTInput(idx=28)
        primals_30: "f32[2048, 4096][4096, 1]cuda:0"  # PlainAOTInput(idx=29)
        primals_31: "f32[2048][1]cuda:0"  # PlainAOTInput(idx=30)
        primals_32: "f32[4096, 2048][2048, 1]cuda:0"  # PlainAOTInput(idx=31)
        primals_33: "f32[4096][1]cuda:0"  # PlainAOTInput(idx=32)
        primals_34: "f32[1024, 4096][4096, 1]cuda:0"  # PlainAOTInput(idx=33)
        primals_35: "f32[10, 230, 256][58880, 256, 1]cuda:0"  # PlainAOTInput(idx=34)
        primals_36: "bf16[10, 4, 256][1024, 256, 1]cuda:0"  # PlainAOTInput(idx=35)
        primals_37: "f32[256][1]cuda:0"  # PlainAOTInput(idx=36)
        primals_38: "f32[256][1]cuda:0"  # PlainAOTInput(idx=37)
        primals_39: "f32[256][1]cuda:0"  # PlainAOTInput(idx=38)
        primals_40: "f32[2328][1]cuda:0"  # PlainAOTInput(idx=39)
        primals_41: "f32[144, 251][251, 1]cuda:0"  # PlainAOTInput(idx=40)
        primals_42: "f32[512, 8192][8192, 1]cuda:0"  # PlainAOTInput(idx=41)
        primals_43: "f32[512][1]cuda:0"  # PlainAOTInput(idx=42)
        primals_44: "f32[8032, 512][512, 1]cuda:0"  # PlainAOTInput(idx=43)
        primals_45: "f32[14456][1]cuda:0"  # PlainAOTInput(idx=44)
        primals_46: "f32[2048, 14456][14456, 1]cuda:0"  # PlainAOTInput(idx=45)
        primals_47: "f32[2048][1]cuda:0"  # PlainAOTInput(idx=46)
        primals_48: "f32[1024, 2048][2048, 1]cuda:0"  # PlainAOTInput(idx=47)
        primals_49: "f32[1024][1]cuda:0"  # PlainAOTInput(idx=48)
        primals_50: "f32[2048, 1024][1024, 1]cuda:0"  # PlainAOTInput(idx=49)
        primals_51: "f32[2048][1]cuda:0"  # PlainAOTInput(idx=50)
        primals_52: "f32[1024, 2048][2048, 1]cuda:0"  # PlainAOTInput(idx=51)
        primals_53: "f32[1024][1]cuda:0"  # PlainAOTInput(idx=52)
        primals_54: "f32[2048, 1024][1024, 1]cuda:0"  # PlainAOTInput(idx=53)
        primals_55: "f32[2048][1]cuda:0"  # PlainAOTInput(idx=54)
        primals_56: "f32[8192, 2048][2048, 1]cuda:0"  # PlainAOTInput(idx=55)
        primals_57: "f32[256][1]cuda:0"  # PlainAOTInput(idx=56)
        primals_58: "f32[80, 64][64, 1]cuda:0"  # PlainAOTInput(idx=57)
        primals_59: "f32[512, 8192][8192, 1]cuda:0"  # PlainAOTInput(idx=58)
        primals_60: "f32[512][1]cuda:0"  # PlainAOTInput(idx=59)
        primals_61: "f32[2048, 512][512, 1]cuda:0"  # PlainAOTInput(idx=60)
        primals_62: "f32[8472][1]cuda:0"  # PlainAOTInput(idx=61)
        primals_63: "f32[2048, 8472][8472, 1]cuda:0"  # PlainAOTInput(idx=62)
        primals_64: "f32[2048][1]cuda:0"  # PlainAOTInput(idx=63)
        primals_65: "f32[1024, 2048][2048, 1]cuda:0"  # PlainAOTInput(idx=64)
        primals_66: "f32[1024][1]cuda:0"  # PlainAOTInput(idx=65)
        primals_67: "f32[2048, 1024][1024, 1]cuda:0"  # PlainAOTInput(idx=66)
        primals_68: "f32[2048][1]cuda:0"  # PlainAOTInput(idx=67)
        primals_69: "f32[1024, 2048][2048, 1]cuda:0"  # PlainAOTInput(idx=68)
        primals_70: "f32[1024][1]cuda:0"  # PlainAOTInput(idx=69)
        primals_71: "f32[2048, 1024][1024, 1]cuda:0"  # PlainAOTInput(idx=70)
        primals_72: "f32[2048][1]cuda:0"  # PlainAOTInput(idx=71)
        primals_73: "f32[8192, 2048][2048, 1]cuda:0"  # PlainAOTInput(idx=72)
        primals_74: "f32[256][1]cuda:0"  # PlainAOTInput(idx=73)
        primals_75: "f32[80, 64][64, 1]cuda:0"  # PlainAOTInput(idx=74)
        primals_76: "f32[512, 8192][8192, 1]cuda:0"  # PlainAOTInput(idx=75)
        primals_77: "f32[512][1]cuda:0"  # PlainAOTInput(idx=76)
        primals_78: "f32[2048, 512][512, 1]cuda:0"  # PlainAOTInput(idx=77)
        primals_79: "f32[8472][1]cuda:0"  # PlainAOTInput(idx=78)
        primals_80: "f32[2048, 8472][8472, 1]cuda:0"  # PlainAOTInput(idx=79)
        primals_81: "f32[2048][1]cuda:0"  # PlainAOTInput(idx=80)
        primals_82: "f32[1024, 2048][2048, 1]cuda:0"  # PlainAOTInput(idx=81)
        primals_83: "f32[1024][1]cuda:0"  # PlainAOTInput(idx=82)
        primals_84: "f32[2048, 1024][1024, 1]cuda:0"  # PlainAOTInput(idx=83)
        primals_85: "f32[2048][1]cuda:0"  # PlainAOTInput(idx=84)
        primals_86: "f32[1024, 2048][2048, 1]cuda:0"  # PlainAOTInput(idx=85)
        primals_87: "f32[1024][1]cuda:0"  # PlainAOTInput(idx=86)
        primals_88: "f32[2048, 1024][1024, 1]cuda:0"  # PlainAOTInput(idx=87)
        primals_89: "f32[2048][1]cuda:0"  # PlainAOTInput(idx=88)
        primals_90: "f32[8192, 2048][2048, 1]cuda:0"  # PlainAOTInput(idx=89)
        primals_91: "f32[256][1]cuda:0"  # PlainAOTInput(idx=90)
        primals_92: "f32[80, 64][64, 1]cuda:0"  # PlainAOTInput(idx=91)
        primals_93: "f32[512, 8192][8192, 1]cuda:0"  # PlainAOTInput(idx=92)
        primals_94: "f32[512][1]cuda:0"  # PlainAOTInput(idx=93)
        primals_95: "f32[2048, 512][512, 1]cuda:0"  # PlainAOTInput(idx=94)
        primals_96: "f32[8472][1]cuda:0"  # PlainAOTInput(idx=95)
        primals_97: "f32[2048, 8472][8472, 1]cuda:0"  # PlainAOTInput(idx=96)
        primals_98: "f32[2048][1]cuda:0"  # PlainAOTInput(idx=97)
        primals_99: "f32[1024, 2048][2048, 1]cuda:0"  # PlainAOTInput(idx=98)
        primals_100: "f32[1024][1]cuda:0"  # PlainAOTInput(idx=99)
        primals_101: "f32[2048, 1024][1024, 1]cuda:0"  # PlainAOTInput(idx=100)
        primals_102: "f32[2048][1]cuda:0"  # PlainAOTInput(idx=101)
        primals_103: "f32[1024, 2048][2048, 1]cuda:0"  # PlainAOTInput(idx=102)
        primals_104: "f32[1024][1]cuda:0"  # PlainAOTInput(idx=103)
        primals_105: "f32[2048, 1024][1024, 1]cuda:0"  # PlainAOTInput(idx=104)
        primals_106: "f32[2048][1]cuda:0"  # PlainAOTInput(idx=105)
        primals_107: "f32[8192, 2048][2048, 1]cuda:0"  # PlainAOTInput(idx=106)
        primals_108: "f32[256][1]cuda:0"  # PlainAOTInput(idx=107)
        primals_109: "f32[256][1]cuda:0"  # PlainAOTInput(idx=108)
        primals_110: "f32[256][1]cuda:0"  # PlainAOTInput(idx=109)
        primals_111: "f32[256, 1024][1024, 1]cuda:0"  # PlainAOTInput(idx=110)
        primals_112: "f32[1024][1]cuda:0"  # PlainAOTInput(idx=111)
        primals_113: "i64[3][1]cuda:0"  # PlainAOTInput(idx=112)
        primals_114: "f32[256][1]cuda:0"  # PlainAOTInput(idx=113)
        primals_115: "f32[256][1]cuda:0"  # PlainAOTInput(idx=114)
        primals_116: "f32[768, 256][256, 1]cuda:0"  # PlainAOTInput(idx=115)
        primals_117: "i64[][]cpu"  # PlainAOTInput(idx=116)
        primals_118: "f32[256][1]cuda:0"  # PlainAOTInput(idx=117)
        primals_119: "f32[256][1]cuda:0"  # PlainAOTInput(idx=118)
        primals_120: "f32[256, 1024][1024, 1]cuda:0"  # PlainAOTInput(idx=119)
        primals_121: "f32[1024][1]cuda:0"  # PlainAOTInput(idx=120)
        primals_122: "i64[3][1]cuda:0"  # PlainAOTInput(idx=121)
        primals_123: "f32[256][1]cuda:0"  # PlainAOTInput(idx=122)
        primals_124: "f32[256][1]cuda:0"  # PlainAOTInput(idx=123)
        primals_125: "f32[768, 256][256, 1]cuda:0"  # PlainAOTInput(idx=124)
        primals_126: "i64[][]cpu"  # PlainAOTInput(idx=125)
        primals_127: "f32[16, 64][64, 1]cuda:0"  # PlainAOTInput(idx=126)
        primals_128: "i64[3][1]cuda:0"  # PlainAOTInput(idx=127)
        primals_129: "f32[256][1]cuda:0"  # PlainAOTInput(idx=128)
        primals_130: "f32[256, 256][256, 1]cuda:0"  # PlainAOTInput(idx=129)
        primals_131: "f32[256][1]cuda:0"  # PlainAOTInput(idx=130)
        primals_132: "f32[256][1]cuda:0"  # PlainAOTInput(idx=131)
        primals_133: "f32[8192, 4096][4096, 1]cuda:0"  # PlainAOTInput(idx=132)
        primals_134: "f32[8192, 4096][4096, 1]cuda:0"  # PlainAOTInput(idx=133)
        primals_135: "f32[4096, 8192][8192, 1]cuda:0"  # PlainAOTInput(idx=134)
        primals_136: "f32[256][1]cuda:0"  # PlainAOTInput(idx=135)
        primals_137: "f32[16, 64][64, 1]cuda:0"  # PlainAOTInput(idx=136)
        primals_138: "f32[256][1]cuda:0"  # PlainAOTInput(idx=137)
        primals_139: "f32[256, 256][256, 1]cuda:0"  # PlainAOTInput(idx=138)
        primals_140: "f32[256][1]cuda:0"  # PlainAOTInput(idx=139)
        primals_141: "f32[256][1]cuda:0"  # PlainAOTInput(idx=140)
        primals_142: "f32[8192, 4096][4096, 1]cuda:0"  # PlainAOTInput(idx=141)
        primals_143: "f32[8192, 4096][4096, 1]cuda:0"  # PlainAOTInput(idx=142)
        primals_144: "f32[4096, 8192][8192, 1]cuda:0"  # PlainAOTInput(idx=143)
        primals_145: "f32[256][1]cuda:0"  # PlainAOTInput(idx=144)
        primals_146: "f32[64, 112][112, 1]cuda:0"  # PlainAOTInput(idx=145)
        primals_147: "f32[80, 64][64, 1]cuda:0"  # PlainAOTInput(idx=146)
        primals_148: "f32[512, 8192][8192, 1]cuda:0"  # PlainAOTInput(idx=147)
        primals_149: "f32[512][1]cuda:0"  # PlainAOTInput(idx=148)
        primals_150: "f32[2048, 512][512, 1]cuda:0"  # PlainAOTInput(idx=149)
        primals_151: "f32[8472][1]cuda:0"  # PlainAOTInput(idx=150)
        primals_152: "f32[2048, 8472][8472, 1]cuda:0"  # PlainAOTInput(idx=151)
        primals_153: "f32[2048][1]cuda:0"  # PlainAOTInput(idx=152)
        primals_154: "f32[1024, 2048][2048, 1]cuda:0"  # PlainAOTInput(idx=153)
        primals_155: "f32[1024][1]cuda:0"  # PlainAOTInput(idx=154)
        primals_156: "f32[2048, 1024][1024, 1]cuda:0"  # PlainAOTInput(idx=155)
        primals_157: "f32[2048][1]cuda:0"  # PlainAOTInput(idx=156)
        primals_158: "f32[1024, 2048][2048, 1]cuda:0"  # PlainAOTInput(idx=157)
        primals_159: "f32[1024][1]cuda:0"  # PlainAOTInput(idx=158)
        primals_160: "f32[2048, 1024][1024, 1]cuda:0"  # PlainAOTInput(idx=159)
        primals_161: "f32[2048][1]cuda:0"  # PlainAOTInput(idx=160)
        primals_162: "f32[8192, 2048][2048, 1]cuda:0"  # PlainAOTInput(idx=161)
        primals_163: "f32[256][1]cuda:0"  # PlainAOTInput(idx=162)
        primals_164: "f32[256][1]cuda:0"  # PlainAOTInput(idx=163)
        primals_165: "f32[256][1]cuda:0"  # PlainAOTInput(idx=164)
        primals_166: "f32[256, 1024][1024, 1]cuda:0"  # PlainAOTInput(idx=165)
        primals_167: "f32[1024][1]cuda:0"  # PlainAOTInput(idx=166)
        primals_168: "f32[256][1]cuda:0"  # PlainAOTInput(idx=167)
        primals_169: "f32[256][1]cuda:0"  # PlainAOTInput(idx=168)
        primals_170: "f32[768, 256][256, 1]cuda:0"  # PlainAOTInput(idx=169)
        primals_171: "i64[][]cpu"  # PlainAOTInput(idx=170)
        primals_172: "f32[256][1]cuda:0"  # PlainAOTInput(idx=171)
        primals_173: "f32[256][1]cuda:0"  # PlainAOTInput(idx=172)
        primals_174: "f32[256, 1024][1024, 1]cuda:0"  # PlainAOTInput(idx=173)
        primals_175: "f32[1024][1]cuda:0"  # PlainAOTInput(idx=174)
        primals_176: "f32[256][1]cuda:0"  # PlainAOTInput(idx=175)
        primals_177: "f32[256][1]cuda:0"  # PlainAOTInput(idx=176)
        primals_178: "f32[768, 256][256, 1]cuda:0"  # PlainAOTInput(idx=177)
        primals_179: "i64[][]cpu"  # PlainAOTInput(idx=178)
        primals_180: "f32[16, 64][64, 1]cuda:0"  # PlainAOTInput(idx=179)
        primals_181: "f32[256][1]cuda:0"  # PlainAOTInput(idx=180)
        primals_182: "f32[256, 256][256, 1]cuda:0"  # PlainAOTInput(idx=181)
        primals_183: "f32[256][1]cuda:0"  # PlainAOTInput(idx=182)
        primals_184: "f32[256][1]cuda:0"  # PlainAOTInput(idx=183)
        primals_185: "f32[8192, 4096][4096, 1]cuda:0"  # PlainAOTInput(idx=184)
        primals_186: "f32[8192, 4096][4096, 1]cuda:0"  # PlainAOTInput(idx=185)
        primals_187: "f32[4096, 8192][8192, 1]cuda:0"  # PlainAOTInput(idx=186)
        primals_188: "f32[256][1]cuda:0"  # PlainAOTInput(idx=187)
        primals_189: "f32[16, 64][64, 1]cuda:0"  # PlainAOTInput(idx=188)
        primals_190: "f32[256][1]cuda:0"  # PlainAOTInput(idx=189)
        primals_191: "f32[256, 256][256, 1]cuda:0"  # PlainAOTInput(idx=190)
        primals_192: "f32[256][1]cuda:0"  # PlainAOTInput(idx=191)
        primals_193: "f32[256][1]cuda:0"  # PlainAOTInput(idx=192)
        primals_194: "f32[8192, 4096][4096, 1]cuda:0"  # PlainAOTInput(idx=193)
        primals_195: "f32[8192, 4096][4096, 1]cuda:0"  # PlainAOTInput(idx=194)
        primals_196: "f32[4096, 8192][8192, 1]cuda:0"  # PlainAOTInput(idx=195)
        primals_197: "f32[256][1]cuda:0"  # PlainAOTInput(idx=196)
        primals_198: "f32[64, 112][112, 1]cuda:0"  # PlainAOTInput(idx=197)
        primals_199: "f32[80, 64][64, 1]cuda:0"  # PlainAOTInput(idx=198)
        primals_200: "f32[512, 8192][8192, 1]cuda:0"  # PlainAOTInput(idx=199)
        primals_201: "f32[512][1]cuda:0"  # PlainAOTInput(idx=200)
        primals_202: "f32[2048, 512][512, 1]cuda:0"  # PlainAOTInput(idx=201)
        primals_203: "f32[8472][1]cuda:0"  # PlainAOTInput(idx=202)
        primals_204: "f32[2048, 8472][8472, 1]cuda:0"  # PlainAOTInput(idx=203)
        primals_205: "f32[2048][1]cuda:0"  # PlainAOTInput(idx=204)
        primals_206: "f32[1024, 2048][2048, 1]cuda:0"  # PlainAOTInput(idx=205)
        primals_207: "f32[1024][1]cuda:0"  # PlainAOTInput(idx=206)
        primals_208: "f32[2048, 1024][1024, 1]cuda:0"  # PlainAOTInput(idx=207)
        primals_209: "f32[2048][1]cuda:0"  # PlainAOTInput(idx=208)
        primals_210: "f32[1024, 2048][2048, 1]cuda:0"  # PlainAOTInput(idx=209)
        primals_211: "f32[1024][1]cuda:0"  # PlainAOTInput(idx=210)
        primals_212: "f32[2048, 1024][1024, 1]cuda:0"  # PlainAOTInput(idx=211)
        primals_213: "f32[2048][1]cuda:0"  # PlainAOTInput(idx=212)
        primals_214: "f32[8192, 2048][2048, 1]cuda:0"  # PlainAOTInput(idx=213)
        primals_215: "f32[256][1]cuda:0"  # PlainAOTInput(idx=214)
        primals_216: "f32[256][1]cuda:0"  # PlainAOTInput(idx=215)
        primals_217: "f32[256][1]cuda:0"  # PlainAOTInput(idx=216)
        primals_218: "f32[256, 1024][1024, 1]cuda:0"  # PlainAOTInput(idx=217)
        primals_219: "f32[1024][1]cuda:0"  # PlainAOTInput(idx=218)
        primals_220: "f32[256][1]cuda:0"  # PlainAOTInput(idx=219)
        primals_221: "f32[256][1]cuda:0"  # PlainAOTInput(idx=220)
        primals_222: "f32[768, 256][256, 1]cuda:0"  # PlainAOTInput(idx=221)
        primals_223: "i64[][]cpu"  # PlainAOTInput(idx=222)
        primals_224: "f32[256][1]cuda:0"  # PlainAOTInput(idx=223)
        primals_225: "f32[256][1]cuda:0"  # PlainAOTInput(idx=224)
        primals_226: "f32[256, 1024][1024, 1]cuda:0"  # PlainAOTInput(idx=225)
        primals_227: "f32[1024][1]cuda:0"  # PlainAOTInput(idx=226)
        primals_228: "f32[256][1]cuda:0"  # PlainAOTInput(idx=227)
        primals_229: "f32[256][1]cuda:0"  # PlainAOTInput(idx=228)
        primals_230: "f32[768, 256][256, 1]cuda:0"  # PlainAOTInput(idx=229)
        primals_231: "i64[][]cpu"  # PlainAOTInput(idx=230)
        primals_232: "f32[16, 64][64, 1]cuda:0"  # PlainAOTInput(idx=231)
        primals_233: "f32[256][1]cuda:0"  # PlainAOTInput(idx=232)
        primals_234: "f32[256, 256][256, 1]cuda:0"  # PlainAOTInput(idx=233)
        primals_235: "f32[256][1]cuda:0"  # PlainAOTInput(idx=234)
        primals_236: "f32[256][1]cuda:0"  # PlainAOTInput(idx=235)
        primals_237: "f32[8192, 4096][4096, 1]cuda:0"  # PlainAOTInput(idx=236)
        primals_238: "f32[8192, 4096][4096, 1]cuda:0"  # PlainAOTInput(idx=237)
        primals_239: "f32[4096, 8192][8192, 1]cuda:0"  # PlainAOTInput(idx=238)
        primals_240: "f32[256][1]cuda:0"  # PlainAOTInput(idx=239)
        primals_241: "f32[16, 64][64, 1]cuda:0"  # PlainAOTInput(idx=240)
        primals_242: "f32[256][1]cuda:0"  # PlainAOTInput(idx=241)
        primals_243: "f32[256, 256][256, 1]cuda:0"  # PlainAOTInput(idx=242)
        primals_244: "f32[256][1]cuda:0"  # PlainAOTInput(idx=243)
        primals_245: "f32[256][1]cuda:0"  # PlainAOTInput(idx=244)
        primals_246: "f32[8192, 4096][4096, 1]cuda:0"  # PlainAOTInput(idx=245)
        primals_247: "f32[8192, 4096][4096, 1]cuda:0"  # PlainAOTInput(idx=246)
        primals_248: "f32[4096, 8192][8192, 1]cuda:0"  # PlainAOTInput(idx=247)
        primals_249: "f32[256][1]cuda:0"  # PlainAOTInput(idx=248)
        primals_250: "f32[64, 112][112, 1]cuda:0"  # PlainAOTInput(idx=249)
        primals_251: "f32[80, 64][64, 1]cuda:0"  # PlainAOTInput(idx=250)
        primals_252: "f32[512, 8192][8192, 1]cuda:0"  # PlainAOTInput(idx=251)
        primals_253: "f32[512][1]cuda:0"  # PlainAOTInput(idx=252)
        primals_254: "f32[2048, 512][512, 1]cuda:0"  # PlainAOTInput(idx=253)
        primals_255: "f32[8472][1]cuda:0"  # PlainAOTInput(idx=254)
        primals_256: "f32[2048, 8472][8472, 1]cuda:0"  # PlainAOTInput(idx=255)
        primals_257: "f32[2048][1]cuda:0"  # PlainAOTInput(idx=256)
        primals_258: "f32[1024, 2048][2048, 1]cuda:0"  # PlainAOTInput(idx=257)
        primals_259: "f32[1024][1]cuda:0"  # PlainAOTInput(idx=258)
        primals_260: "f32[2048, 1024][1024, 1]cuda:0"  # PlainAOTInput(idx=259)
        primals_261: "f32[2048][1]cuda:0"  # PlainAOTInput(idx=260)
        primals_262: "f32[1024, 2048][2048, 1]cuda:0"  # PlainAOTInput(idx=261)
        primals_263: "f32[1024][1]cuda:0"  # PlainAOTInput(idx=262)
        primals_264: "f32[2048, 1024][1024, 1]cuda:0"  # PlainAOTInput(idx=263)
        primals_265: "f32[2048][1]cuda:0"  # PlainAOTInput(idx=264)
        primals_266: "f32[8192, 2048][2048, 1]cuda:0"  # PlainAOTInput(idx=265)
        primals_267: "f32[256][1]cuda:0"  # PlainAOTInput(idx=266)
        primals_268: "f32[256][1]cuda:0"  # PlainAOTInput(idx=267)
        primals_269: "f32[256][1]cuda:0"  # PlainAOTInput(idx=268)
        primals_270: "f32[256, 1024][1024, 1]cuda:0"  # PlainAOTInput(idx=269)
        primals_271: "f32[1024][1]cuda:0"  # PlainAOTInput(idx=270)
        primals_272: "f32[256][1]cuda:0"  # PlainAOTInput(idx=271)
        primals_273: "f32[256][1]cuda:0"  # PlainAOTInput(idx=272)
        primals_274: "f32[768, 256][256, 1]cuda:0"  # PlainAOTInput(idx=273)
        primals_275: "i64[][]cpu"  # PlainAOTInput(idx=274)
        primals_276: "f32[256][1]cuda:0"  # PlainAOTInput(idx=275)
        primals_277: "f32[256][1]cuda:0"  # PlainAOTInput(idx=276)
        primals_278: "f32[256, 1024][1024, 1]cuda:0"  # PlainAOTInput(idx=277)
        primals_279: "f32[1024][1]cuda:0"  # PlainAOTInput(idx=278)
        primals_280: "f32[256][1]cuda:0"  # PlainAOTInput(idx=279)
        primals_281: "f32[256][1]cuda:0"  # PlainAOTInput(idx=280)
        primals_282: "f32[768, 256][256, 1]cuda:0"  # PlainAOTInput(idx=281)
        primals_283: "i64[][]cpu"  # PlainAOTInput(idx=282)
        primals_284: "f32[16, 64][64, 1]cuda:0"  # PlainAOTInput(idx=283)
        primals_285: "f32[256][1]cuda:0"  # PlainAOTInput(idx=284)
        primals_286: "f32[256, 256][256, 1]cuda:0"  # PlainAOTInput(idx=285)
        primals_287: "f32[256][1]cuda:0"  # PlainAOTInput(idx=286)
        primals_288: "f32[256][1]cuda:0"  # PlainAOTInput(idx=287)
        primals_289: "f32[8192, 4096][4096, 1]cuda:0"  # PlainAOTInput(idx=288)
        primals_290: "f32[8192, 4096][4096, 1]cuda:0"  # PlainAOTInput(idx=289)
        primals_291: "f32[4096, 8192][8192, 1]cuda:0"  # PlainAOTInput(idx=290)
        primals_292: "f32[256][1]cuda:0"  # PlainAOTInput(idx=291)
        primals_293: "f32[16, 64][64, 1]cuda:0"  # PlainAOTInput(idx=292)
        primals_294: "f32[256][1]cuda:0"  # PlainAOTInput(idx=293)
        primals_295: "f32[256, 256][256, 1]cuda:0"  # PlainAOTInput(idx=294)
        primals_296: "f32[256][1]cuda:0"  # PlainAOTInput(idx=295)
        primals_297: "f32[256][1]cuda:0"  # PlainAOTInput(idx=296)
        primals_298: "f32[8192, 4096][4096, 1]cuda:0"  # PlainAOTInput(idx=297)
        primals_299: "f32[8192, 4096][4096, 1]cuda:0"  # PlainAOTInput(idx=298)
        primals_300: "f32[4096, 8192][8192, 1]cuda:0"  # PlainAOTInput(idx=299)
        primals_301: "f32[256][1]cuda:0"  # PlainAOTInput(idx=300)
        primals_302: "f32[64, 112][112, 1]cuda:0"  # PlainAOTInput(idx=301)
        primals_303: "f32[48, 64][64, 1]cuda:0"  # PlainAOTInput(idx=302)
        primals_304: "f32[512, 8192][8192, 1]cuda:0"  # PlainAOTInput(idx=303)
        primals_305: "f32[512][1]cuda:0"  # PlainAOTInput(idx=304)
        primals_306: "f32[2048, 512][512, 1]cuda:0"  # PlainAOTInput(idx=305)
        primals_307: "f32[8472][1]cuda:0"  # PlainAOTInput(idx=306)
        primals_308: "f32[2048, 8472][8472, 1]cuda:0"  # PlainAOTInput(idx=307)
        primals_309: "f32[2048][1]cuda:0"  # PlainAOTInput(idx=308)
        primals_310: "f32[1024, 2048][2048, 1]cuda:0"  # PlainAOTInput(idx=309)
        primals_311: "f32[1024][1]cuda:0"  # PlainAOTInput(idx=310)
        primals_312: "f32[2048, 1024][1024, 1]cuda:0"  # PlainAOTInput(idx=311)
        primals_313: "f32[2048][1]cuda:0"  # PlainAOTInput(idx=312)
        primals_314: "f32[1024, 2048][2048, 1]cuda:0"  # PlainAOTInput(idx=313)
        primals_315: "f32[1024][1]cuda:0"  # PlainAOTInput(idx=314)
        primals_316: "f32[2048, 1024][1024, 1]cuda:0"  # PlainAOTInput(idx=315)
        primals_317: "f32[2048][1]cuda:0"  # PlainAOTInput(idx=316)
        primals_318: "f32[2048][1]cuda:0"  # PlainAOTInput(idx=317)
        primals_319: "f32[18, 2048, 1024][2097152, 1024, 1]cuda:0"  # PlainAOTInput(idx=318)
        primals_320: "f32[18, 1024][1024, 1]cuda:0"  # PlainAOTInput(idx=319)
        primals_321: "f32[18, 1024][1024, 1]cuda:0"  # PlainAOTInput(idx=320)
        primals_322: "f32[18, 1024, 1024][1048576, 1024, 1]cuda:0"  # PlainAOTInput(idx=321)
        primals_323: "f32[18, 1024][1024, 1]cuda:0"  # PlainAOTInput(idx=322)
        primals_324: "f32[18, 1024][1024, 1]cuda:0"  # PlainAOTInput(idx=323)
        primals_325: "f32[18, 1024, 1024][1048576, 1024, 1]cuda:0"  # PlainAOTInput(idx=324)
        primals_326: "f32[18, 1024][1024, 1]cuda:0"  # PlainAOTInput(idx=325)
        primals_327: "f32[18, 1024][1024, 1]cuda:0"  # PlainAOTInput(idx=326)
        primals_328: "f32[18, 1024, 1024][1048576, 1024, 1]cuda:0"  # PlainAOTInput(idx=327)
        primals_329: "f32[18, 1024][1024, 1]cuda:0"  # PlainAOTInput(idx=328)
        primals_330: "f32[18, 1024][1024, 1]cuda:0"  # PlainAOTInput(idx=329)
        primals_331: "f32[18, 1024, 1][1024, 1, 1]cuda:0"  # PlainAOTInput(idx=330)
        tangents_1: "bf16[u31, 256][256, 1]cuda:0"  # TangentAOTInput(output=PlainAOTOutput(idx=18))
        tangents_2: "bf16[u23, 256][256, 1]cuda:0"  # TangentAOTInput(output=PlainAOTOutput(idx=19))
        tangents_3: "f32[18, 10, 1][10, 1, 1]cuda:0"  # TangentAOTInput(output=IntermediateBaseAOTOutput(base_of=PlainAOTOutput(idx=0)))
        primals_1, primals_2, primals_3, primals_4, primals_5, primals_6, primals_7, primals_8, primals_9, primals_10, primals_11, primals_12, primals_13, primals_14, primals_15, primals_16, primals_17, primals_18, primals_19, primals_20, primals_21, primals_22, primals_23, primals_24, primals_25, primals_26, primals_27, primals_28, primals_29, primals_30, primals_31, primals_32, primals_33, primals_34, primals_35, primals_36, primals_37, primals_38, primals_39, primals_40, primals_41, primals_42, primals_43, primals_44, primals_45, primals_46, primals_47, primals_48, primals_49, primals_50, primals_51, primals_52, primals_53, primals_54, primals_55, primals_56, primals_57, primals_58, primals_59, primals_60, primals_61, primals_62, primals_63, primals_64, primals_65, primals_66, primals_67, primals_68, primals_69, primals_70, primals_71, primals_72, primals_73, primals_74, primals_75, primals_76, primals_77, primals_78, primals_79, primals_80, primals_81, primals_82, primals_83, primals_84, primals_85, primals_86, primals_87, primals_88, primals_89, primals_90, primals_91, primals_92, primals_93, primals_94, primals_95, primals_96, primals_97, primals_98, primals_99, primals_100, primals_101, primals_102, primals_103, primals_104, primals_105, primals_106, primals_107, primals_108, primals_109, primals_110, primals_111, primals_112, primals_113, primals_114, primals_115, primals_116, primals_117, primals_118, primals_119, primals_120, primals_121, primals_122, primals_123, primals_124, primals_125, primals_126, primals_127, primals_128, primals_129, primals_130, primals_131, primals_132, primals_133, primals_134, primals_135, primals_136, primals_137, primals_138, primals_139, primals_140, primals_141, primals_142, primals_143, primals_144, primals_145, primals_146, primals_147, primals_148, primals_149, primals_150, primals_151, primals_152, primals_153, primals_154, primals_155, primals_156, primals_157, primals_158, primals_159, primals_160, primals_161, primals_162, primals_163, primals_164, primals_165, primals_166, primals_167, primals_168, primals_169, primals_170, primals_171, primals_172, primals_173, primals_174, primals_175, primals_176, primals_177, primals_178, primals_179, primals_180, primals_181, primals_182, primals_183, primals_184, primals_185, primals_186, primals_187, primals_188, primals_189, primals_190, primals_191, primals_192, primals_193, primals_194, primals_195, primals_196, primals_197, primals_198, primals_199, primals_200, primals_201, primals_202, primals_203, primals_204, primals_205, primals_206, primals_207, primals_208, primals_209, primals_210, primals_211, primals_212, primals_213, primals_214, primals_215, primals_216, primals_217, primals_218, primals_219, primals_220, primals_221, primals_222, primals_223, primals_224, primals_225, primals_226, primals_227, primals_228, primals_229, primals_230, primals_231, primals_232, primals_233, primals_234, primals_235, primals_236, primals_237, primals_238, primals_239, primals_240, primals_241, primals_242, primals_243, primals_244, primals_245, primals_246, primals_247, primals_248, primals_249, primals_250, primals_251, primals_252, primals_253, primals_254, primals_255, primals_256, primals_257, primals_258, primals_259, primals_260, primals_261, primals_262, primals_263, primals_264, primals_265, primals_266, primals_267, primals_268, primals_269, primals_270, primals_271, primals_272, primals_273, primals_274, primals_275, primals_276, primals_277, primals_278, primals_279, primals_280, primals_281, primals_282, primals_283, primals_284, primals_285, primals_286, primals_287, primals_288, primals_289, primals_290, primals_291, primals_292, primals_293, primals_294, primals_295, primals_296, primals_297, primals_298, primals_299, primals_300, primals_301, primals_302, primals_303, primals_304, primals_305, primals_306, primals_307, primals_308, primals_309, primals_310, primals_311, primals_312, primals_313, primals_314, primals_315, primals_316, primals_317, primals_318, primals_319, primals_320, primals_321, primals_322, primals_323, primals_324, primals_325, primals_326, primals_327, primals_328, primals_329, primals_330, primals_331, tangents_1, tangents_2, tangents_3, = fx_pytree.tree_flatten_spec([primals, tangents], self._in_spec)
        # File: /mnt/xarfuse/uid-168871/0c2e5a73-seed-nspid4026531836_cgpid310632649-ns-4026531841/hammer/v2/modules/simple_mlps.py:809 in <listcomp>, code: self._embedding_proj[i](embedding_features[i])
        convert_element_type: "bf16[10, 64][64, 1]cuda:0" = torch.ops.prims.convert_element_type.default(primals_3, torch.bfloat16);  primals_3 = None
        convert_element_type_1: "bf16[256, 64][64, 1]cuda:0" = torch.ops.prims.convert_element_type.default(primals_4, torch.bfloat16);  primals_4 = None
        permute: "bf16[64, 256][1, 64]cuda:0" = torch.ops.aten.permute.default(convert_element_type_1, [1, 0]);  convert_element_type_1 = None
        mm: "bf16[10, 256][256, 1]cuda:0" = torch.ops.aten.mm.default(convert_element_type, permute);  permute = None
        
        # File: /mnt/xarfuse/uid-168871/0c2e5a73-seed-nspid4026531836_cgpid310632649-ns-4026531841/hammer/ops/layer_norm.py:163 in forward, code: x = x.view(-1, shape[-1])
        view: "bf16[10, 256][256, 1]cuda:0" = torch.ops.aten.view.default(mm, [-1, 256]);  mm = None
        
        # File: /mnt/xarfuse/uid-168871/0c2e5a73-seed-nspid4026531836_cgpid310632649-ns-4026531841/generative_recommenders/ops/pytorch/pt_layer_norm.py:49 in pytorch_rms_norm, code: x_float = x.to(torch.float32)
        convert_element_type_4: "f32[10, 256][256, 1]cuda:0" = torch.ops.prims.convert_element_type.default(view, torch.float32);  view = None
        
        # File: /mnt/xarfuse/uid-168871/0c2e5a73-seed-nspid4026531836_cgpid310632649-ns-4026531841/torch/nn/functional.py:2954 in rms_norm, code: return torch.rms_norm(input, normalized_shape, weight, eps)
        pow_1: "f32[10, 256][256, 1]cuda:0" = torch.ops.aten.pow.Tensor_Scalar(convert_element_type_4, 2)
        mean: "f32[10, 1][1, 1]cuda:0" = torch.ops.aten.mean.dim(pow_1, [1], True);  pow_1 = None
        add: "f32[10, 1][1, 1]cuda:0" = torch.ops.aten.add.Scalar(mean, 1e-05);  mean = None
        rsqrt: "f32[10, 1][1, 1]cuda:0" = torch.ops.aten.rsqrt.default(add);  add = None
        mul: "f32[10, 256][256, 1]cuda:0" = torch.ops.aten.mul.Tensor(convert_element_type_4, rsqrt)
        mul_1: "f32[10, 256][256, 1]cuda:0" = torch.ops.aten.mul.Tensor(mul, primals_5);  mul = None
        alias: "f32[10, 1][1, 1]cuda:0" = torch.ops.aten.alias.default(rsqrt);  rsqrt = None
        
        # File: /mnt/xarfuse/uid-168871/0c2e5a73-seed-nspid4026531836_cgpid310632649-ns-4026531841/generative_recommenders/ops/pytorch/pt_layer_norm.py:58 in pytorch_rms_norm, code: return normalized.to(dtype)
        convert_element_type_5: "bf16[10, 256][256, 1]cuda:0" = torch.ops.prims.convert_element_type.default(mul_1, torch.bfloat16);  mul_1 = None
        
        # File: /mnt/xarfuse/uid-168871/0c2e5a73-seed-nspid4026531836_cgpid310632649-ns-4026531841/hammer/ops/layer_norm.py:166 in forward, code: ).view(shape)
        view_1: "bf16[10, 256][256, 1]cuda:0" = torch.ops.aten.view.default(convert_element_type_5, [10, 256]);  convert_element_type_5 = None
        
        # File: /mnt/xarfuse/uid-168871/0c2e5a73-seed-nspid4026531836_cgpid310632649-ns-4026531841/hammer/v2/modules/simple_mlps.py:809 in <listcomp>, code: self._embedding_proj[i](embedding_features[i])
        convert_element_type_6: "bf16[10, 1024][1024, 1]cuda:0" = torch.ops.prims.convert_element_type.default(primals_7, torch.bfloat16);  primals_7 = None
        convert_element_type_7: "bf16[2048, 1024][1024, 1]cuda:0" = torch.ops.prims.convert_element_type.default(primals_6, torch.bfloat16);  primals_6 = None
        permute_1: "bf16[1024, 2048][1, 1024]cuda:0" = torch.ops.aten.permute.default(convert_element_type_7, [1, 0]);  convert_element_type_7 = None
        mm_1: "bf16[10, 2048][2048, 1]cuda:0" = torch.ops.aten.mm.default(convert_element_type_6, permute_1);  permute_1 = None
        
        # File: /mnt/xarfuse/uid-168871/0c2e5a73-seed-nspid4026531836_cgpid310632649-ns-4026531841/hammer/ops/layer_norm.py:163 in forward, code: x = x.view(-1, shape[-1])
        view_2: "bf16[10, 2048][2048, 1]cuda:0" = torch.ops.aten.view.default(mm_1, [-1, 2048]);  mm_1 = None
        
        # File: /mnt/xarfuse/uid-168871/0c2e5a73-seed-nspid4026531836_cgpid310632649-ns-4026531841/generative_recommenders/ops/pytorch/pt_layer_norm.py:49 in pytorch_rms_norm, code: x_float = x.to(torch.float32)
        convert_element_type_10: "f32[10, 2048][2048, 1]cuda:0" = torch.ops.prims.convert_element_type.default(view_2, torch.float32);  view_2 = None
        
        # File: /mnt/xarfuse/uid-168871/0c2e5a73-seed-nspid4026531836_cgpid310632649-ns-4026531841/torch/nn/functional.py:2954 in rms_norm, code: return torch.rms_norm(input, normalized_shape, weight, eps)
        pow_2: "f32[10, 2048][2048, 1]cuda:0" = torch.ops.aten.pow.Tensor_Scalar(convert_element_type_10, 2)
        mean_1: "f32[10, 1][1, 1]cuda:0" = torch.ops.aten.mean.dim(pow_2, [1], True);  pow_2 = None
        add_1: "f32[10, 1][1, 1]cuda:0" = torch.ops.aten.add.Scalar(mean_1, 1e-05);  mean_1 = None
        rsqrt_1: "f32[10, 1][1, 1]cuda:0" = torch.ops.aten.rsqrt.default(add_1);  add_1 = None
        mul_2: "f32[10, 2048][2048, 1]cuda:0" = torch.ops.aten.mul.Tensor(convert_element_type_10, rsqrt_1)
        mul_3: "f32[10, 2048][2048, 1]cuda:0" = torch.ops.aten.mul.Tensor(mul_2, primals_8);  mul_2 = None
        alias_1: "f32[10, 1][1, 1]cuda:0" = torch.ops.aten.alias.default(rsqrt_1);  rsqrt_1 = None
        
        # File: /mnt/xarfuse/uid-168871/0c2e5a73-seed-nspid4026531836_cgpid310632649-ns-4026531841/generative_recommenders/ops/pytorch/pt_layer_norm.py:58 in pytorch_rms_norm, code: return normalized.to(dtype)
        convert_element_type_11: "bf16[10, 2048][2048, 1]cuda:0" = torch.ops.prims.convert_element_type.default(mul_3, torch.bfloat16);  mul_3 = None
        
        # File: /mnt/xarfuse/uid-168871/0c2e5a73-seed-nspid4026531836_cgpid310632649-ns-4026531841/hammer/ops/layer_norm.py:166 in forward, code: ).view(shape)
        view_3: "bf16[10, 2048][2048, 1]cuda:0" = torch.ops.aten.view.default(convert_element_type_11, [10, 2048]);  convert_element_type_11 = None
        
        # File: /mnt/xarfuse/uid-168871/0c2e5a73-seed-nspid4026531836_cgpid310632649-ns-4026531841/hammer/v2/modules/simple_mlps.py:809 in <listcomp>, code: self._embedding_proj[i](embedding_features[i])
        convert_element_type_12: "bf16[10, 128][128, 1]cuda:0" = torch.ops.prims.convert_element_type.default(primals_10, torch.bfloat16);  primals_10 = None
        convert_element_type_13: "bf16[256, 128][128, 1]cuda:0" = torch.ops.prims.convert_element_type.default(primals_9, torch.bfloat16);  primals_9 = None
        permute_2: "bf16[128, 256][1, 128]cuda:0" = torch.ops.aten.permute.default(convert_element_type_13, [1, 0]);  convert_element_type_13 = None
        mm_2: "bf16[10, 256][256, 1]cuda:0" = torch.ops.aten.mm.default(convert_element_type_12, permute_2);  permute_2 = None
        
        # File: /mnt/xarfuse/uid-168871/0c2e5a73-seed-nspid4026531836_cgpid310632649-ns-4026531841/hammer/ops/layer_norm.py:163 in forward, code: x = x.view(-1, shape[-1])
        view_4: "bf16[10, 256][256, 1]cuda:0" = torch.ops.aten.view.default(mm_2, [-1, 256]);  mm_2 = None
        
        # File: /mnt/xarfuse/uid-168871/0c2e5a73-seed-nspid4026531836_cgpid310632649-ns-4026531841/generative_recommenders/ops/pytorch/pt_layer_norm.py:49 in pytorch_rms_norm, code: x_float = x.to(torch.float32)
        convert_element_type_16: "f32[10, 256][256, 1]cuda:0" = torch.ops.prims.convert_element_type.default(view_4, torch.float32);  view_4 = None
        
        # File: /mnt/xarfuse/uid-168871/0c2e5a73-seed-nspid4026531836_cgpid310632649-ns-4026531841/torch/nn/functional.py:2954 in rms_norm, code: return torch.rms_norm(input, normalized_shape, weight, eps)
        pow_3: "f32[10, 256][256, 1]cuda:0" = torch.ops.aten.pow.Tensor_Scalar(convert_element_type_16, 2)
        mean_2: "f32[10, 1][1, 1]cuda:0" = torch.ops.aten.mean.dim(pow_3, [1], True);  pow_3 = None
        add_2: "f32[10, 1][1, 1]cuda:0" = torch.ops.aten.add.Scalar(mean_2, 1e-05);  mean_2 = None
        rsqrt_2: "f32[10, 1][1, 1]cuda:0" = torch.ops.aten.rsqrt.default(add_2);  add_2 = None
        mul_4: "f32[10, 256][256, 1]cuda:0" = torch.ops.aten.mul.Tensor(convert_element_type_16, rsqrt_2)
        mul_5: "f32[10, 256][256, 1]cuda:0" = torch.ops.aten.mul.Tensor(mul_4, primals_11);  mul_4 = None
        alias_2: "f32[10, 1][1, 1]cuda:0" = torch.ops.aten.alias.default(rsqrt_2);  rsqrt_2 = None
        
        # File: /mnt/xarfuse/uid-168871/0c2e5a73-seed-nspid4026531836_cgpid310632649-ns-4026531841/generative_recommenders/ops/pytorch/pt_layer_norm.py:58 in pytorch_rms_norm, code: return normalized.to(dtype)
        convert_element_type_17: "bf16[10, 256][256, 1]cuda:0" = torch.ops.prims.convert_element_type.default(mul_5, torch.bfloat16);  mul_5 = None
        
        # File: /mnt/xarfuse/uid-168871/0c2e5a73-seed-nspid4026531836_cgpid310632649-ns-4026531841/hammer/ops/layer_norm.py:166 in forward, code: ).view(shape)
        view_5: "bf16[10, 256][256, 1]cuda:0" = torch.ops.aten.view.default(convert_element_type_17, [10, 256]);  convert_element_type_17 = None
        
        # File: /mnt/xarfuse/uid-168871/0c2e5a73-seed-nspid4026531836_cgpid310632649-ns-4026531841/hammer/v2/modules/simple_mlps.py:809 in <listcomp>, code: self._embedding_proj[i](embedding_features[i])
        convert_element_type_18: "bf16[10, 64][64, 1]cuda:0" = torch.ops.prims.convert_element_type.default(primals_13, torch.bfloat16);  primals_13 = None
        convert_element_type_19: "bf16[256, 64][64, 1]cuda:0" = torch.ops.prims.convert_element_type.default(primals_12, torch.bfloat16);  primals_12 = None
        permute_3: "bf16[64, 256][1, 64]cuda:0" = torch.ops.aten.permute.default(convert_element_type_19, [1, 0]);  convert_element_type_19 = None
        mm_3: "bf16[10, 256][256, 1]cuda:0" = torch.ops.aten.mm.default(convert_element_type_18, permute_3);  permute_3 = None
        
        # File: /mnt/xarfuse/uid-168871/0c2e5a73-seed-nspid4026531836_cgpid310632649-ns-4026531841/hammer/ops/layer_norm.py:163 in forward, code: x = x.view(-1, shape[-1])
        view_6: "bf16[10, 256][256, 1]cuda:0" = torch.ops.aten.view.default(mm_3, [-1, 256]);  mm_3 = None
        
        # File: /mnt/xarfuse/uid-168871/0c2e5a73-seed-nspid4026531836_cgpid310632649-ns-4026531841/generative_recommenders/ops/pytorch/pt_layer_norm.py:49 in pytorch_rms_norm, code: x_float = x.to(torch.float32)
        convert_element_type_22: "f32[10, 256][256, 1]cuda:0" = torch.ops.prims.convert_element_type.default(view_6, torch.float32);  view_6 = None
        
        # File: /mnt/xarfuse/uid-168871/0c2e5a73-seed-nspid4026531836_cgpid310632649-ns-4026531841/torch/nn/functional.py:2954 in rms_norm, code: return torch.rms_norm(input, normalized_shape, weight, eps)
        pow_4: "f32[10, 256][256, 1]cuda:0" = torch.ops.aten.pow.Tensor_Scalar(convert_element_type_22, 2)
        mean_3: "f32[10, 1][1, 1]cuda:0" = torch.ops.aten.mean.dim(pow_4, [1], True);  pow_4 = None
        add_3: "f32[10, 1][1, 1]cuda:0" = torch.ops.aten.add.Scalar(mean_3, 1e-05);  mean_3 = None
        rsqrt_3: "f32[10, 1][1, 1]cuda:0" = torch.ops.aten.rsqrt.default(add_3);  add_3 = None
        mul_6: "f32[10, 256][256, 1]cuda:0" = torch.ops.aten.mul.Tensor(convert_element_type_22, rsqrt_3)
        mul_7: "f32[10, 256][256, 1]cuda:0" = torch.ops.aten.mul.Tensor(mul_6, primals_14);  mul_6 = None
        alias_3: "f32[10, 1][1, 1]cuda:0" = torch.ops.aten.alias.default(rsqrt_3);  rsqrt_3 = None
        
        # File: /mnt/xarfuse/uid-168871/0c2e5a73-seed-nspid4026531836_cgpid310632649-ns-4026531841/generative_recommenders/ops/pytorch/pt_layer_norm.py:58 in pytorch_rms_norm, code: return normalized.to(dtype)
        convert_element_type_23: "bf16[10, 256][256, 1]cuda:0" = torch.ops.prims.convert_element_type.default(mul_7, torch.bfloat16);  mul_7 = None
        
        # File: /mnt/xarfuse/uid-168871/0c2e5a73-seed-nspid4026531836_cgpid310632649-ns-4026531841/hammer/ops/layer_norm.py:166 in forward, code: ).view(shape)
        view_7: "bf16[10, 256][256, 1]cuda:0" = torch.ops.aten.view.default(convert_element_type_23, [10, 256]);  convert_element_type_23 = None
        
        # File: /mnt/xarfuse/uid-168871/0c2e5a73-seed-nspid4026531836_cgpid310632649-ns-4026531841/hammer/v2/modules/simple_mlps.py:809 in <listcomp>, code: self._embedding_proj[i](embedding_features[i])
        convert_element_type_24: "bf16[10, 100][100, 1]cuda:0" = torch.ops.prims.convert_element_type.default(primals_16, torch.bfloat16);  primals_16 = None
        convert_element_type_25: "bf16[256, 100][100, 1]cuda:0" = torch.ops.prims.convert_element_type.default(primals_15, torch.bfloat16);  primals_15 = None
        permute_4: "bf16[100, 256][1, 100]cuda:0" = torch.ops.aten.permute.default(convert_element_type_25, [1, 0]);  convert_element_type_25 = None
        mm_4: "bf16[10, 256][256, 1]cuda:0" = torch.ops.aten.mm.default(convert_element_type_24, permute_4);  permute_4 = None
        
        # File: /mnt/xarfuse/uid-168871/0c2e5a73-seed-nspid4026531836_cgpid310632649-ns-4026531841/hammer/ops/layer_norm.py:163 in forward, code: x = x.view(-1, shape[-1])
        view_8: "bf16[10, 256][256, 1]cuda:0" = torch.ops.aten.view.default(mm_4, [-1, 256]);  mm_4 = None
        
        # File: /mnt/xarfuse/uid-168871/0c2e5a73-seed-nspid4026531836_cgpid310632649-ns-4026531841/generative_recommenders/ops/pytorch/pt_layer_norm.py:49 in pytorch_rms_norm, code: x_float = x.to(torch.float32)
        convert_element_type_28: "f32[10, 256][256, 1]cuda:0" = torch.ops.prims.convert_element_type.default(view_8, torch.float32);  view_8 = None
        
        # File: /mnt/xarfuse/uid-168871/0c2e5a73-seed-nspid4026531836_cgpid310632649-ns-4026531841/torch/nn/functional.py:2954 in rms_norm, code: return torch.rms_norm(input, normalized_shape, weight, eps)
        pow_5: "f32[10, 256][256, 1]cuda:0" = torch.ops.aten.pow.Tensor_Scalar(convert_element_type_28, 2)
        mean_4: "f32[10, 1][1, 1]cuda:0" = torch.ops.aten.mean.dim(pow_5, [1], True);  pow_5 = None
        add_4: "f32[10, 1][1, 1]cuda:0" = torch.ops.aten.add.Scalar(mean_4, 1e-05);  mean_4 = None
        rsqrt_4: "f32[10, 1][1, 1]cuda:0" = torch.ops.aten.rsqrt.default(add_4);  add_4 = None
        mul_8: "f32[10, 256][256, 1]cuda:0" = torch.ops.aten.mul.Tensor(convert_element_type_28, rsqrt_4)
        mul_9: "f32[10, 256][256, 1]cuda:0" = torch.ops.aten.mul.Tensor(mul_8, primals_17);  mul_8 = None
        alias_4: "f32[10, 1][1, 1]cuda:0" = torch.ops.aten.alias.default(rsqrt_4);  rsqrt_4 = None
        
        # File: /mnt/xarfuse/uid-168871/0c2e5a73-seed-nspid4026531836_cgpid310632649-ns-4026531841/generative_recommenders/ops/pytorch/pt_layer_norm.py:58 in pytorch_rms_norm, code: return normalized.to(dtype)
        convert_element_type_29: "bf16[10, 256][256, 1]cuda:0" = torch.ops.prims.convert_element_type.default(mul_9, torch.bfloat16);  mul_9 = None
        
        # File: /mnt/xarfuse/uid-168871/0c2e5a73-seed-nspid4026531836_cgpid310632649-ns-4026531841/hammer/ops/layer_norm.py:166 in forward, code: ).view(shape)
        view_9: "bf16[10, 256][256, 1]cuda:0" = torch.ops.aten.view.default(convert_element_type_29, [10, 256]);  convert_element_type_29 = None
        
        # File: /mnt/xarfuse/uid-168871/0c2e5a73-seed-nspid4026531836_cgpid310632649-ns-4026531841/hammer/v2/modules/simple_mlps.py:809 in <listcomp>, code: self._embedding_proj[i](embedding_features[i])
        convert_element_type_30: "bf16[10, 128][128, 1]cuda:0" = torch.ops.prims.convert_element_type.default(primals_19, torch.bfloat16);  primals_19 = None
        convert_element_type_31: "bf16[256, 128][128, 1]cuda:0" = torch.ops.prims.convert_element_type.default(primals_18, torch.bfloat16);  primals_18 = None
        permute_5: "bf16[128, 256][1, 128]cuda:0" = torch.ops.aten.permute.default(convert_element_type_31, [1, 0]);  convert_element_type_31 = None
        mm_5: "bf16[10, 256][256, 1]cuda:0" = torch.ops.aten.mm.default(convert_element_type_30, permute_5);  permute_5 = None
        
        # File: /mnt/xarfuse/uid-168871/0c2e5a73-seed-nspid4026531836_cgpid310632649-ns-4026531841/hammer/ops/layer_norm.py:163 in forward, code: x = x.view(-1, shape[-1])
        view_10: "bf16[10, 256][256, 1]cuda:0" = torch.ops.aten.view.default(mm_5, [-1, 256]);  mm_5 = None
        
        # File: /mnt/xarfuse/uid-168871/0c2e5a73-seed-nspid4026531836_cgpid310632649-ns-4026531841/generative_recommenders/ops/pytorch/pt_layer_norm.py:49 in pytorch_rms_norm, code: x_float = x.to(torch.float32)
        convert_element_type_34: "f32[10, 256][256, 1]cuda:0" = torch.ops.prims.convert_element_type.default(view_10, torch.float32);  view_10 = None
        
        # File: /mnt/xarfuse/uid-168871/0c2e5a73-seed-nspid4026531836_cgpid310632649-ns-4026531841/torch/nn/functional.py:2954 in rms_norm, code: return torch.rms_norm(input, normalized_shape, weight, eps)
        pow_6: "f32[10, 256][256, 1]cuda:0" = torch.ops.aten.pow.Tensor_Scalar(convert_element_type_34, 2)
        mean_5: "f32[10, 1][1, 1]cuda:0" = torch.ops.aten.mean.dim(pow_6, [1], True);  pow_6 = None
        add_5: "f32[10, 1][1, 1]cuda:0" = torch.ops.aten.add.Scalar(mean_5, 1e-05);  mean_5 = None
        rsqrt_5: "f32[10, 1][1, 1]cuda:0" = torch.ops.aten.rsqrt.default(add_5);  add_5 = None
        mul_10: "f32[10, 256][256, 1]cuda:0" = torch.ops.aten.mul.Tensor(convert_element_type_34, rsqrt_5)
        mul_11: "f32[10, 256][256, 1]cuda:0" = torch.ops.aten.mul.Tensor(mul_10, primals_20);  mul_10 = None
        alias_5: "f32[10, 1][1, 1]cuda:0" = torch.ops.aten.alias.default(rsqrt_5);  rsqrt_5 = None
        
        # File: /mnt/xarfuse/uid-168871/0c2e5a73-seed-nspid4026531836_cgpid310632649-ns-4026531841/generative_recommenders/ops/pytorch/pt_layer_norm.py:58 in pytorch_rms_norm, code: return normalized.to(dtype)
        convert_element_type_35: "bf16[10, 256][256, 1]cuda:0" = torch.ops.prims.convert_element_type.default(mul_11, torch.bfloat16);  mul_11 = None
        
        # File: /mnt/xarfuse/uid-168871/0c2e5a73-seed-nspid4026531836_cgpid310632649-ns-4026531841/hammer/ops/layer_norm.py:166 in forward, code: ).view(shape)
        view_11: "bf16[10, 256][256, 1]cuda:0" = torch.ops.aten.view.default(convert_element_type_35, [10, 256]);  convert_element_type_35 = None
        
        # File: /mnt/xarfuse/uid-168871/0c2e5a73-seed-nspid4026531836_cgpid310632649-ns-4026531841/hammer/v2/modules/simple_mlps.py:807 in forward, code: output = torch.cat(
        cat: "bf16[10, 3328][3328, 1]cuda:0" = torch.ops.aten.cat.default([view_1, view_3, view_5, view_7, view_9, view_11], 1);  view_1 = view_3 = view_5 = view_7 = view_9 = view_11 = None
        
        # File: /mnt/xarfuse/uid-168871/0c2e5a73-seed-nspid4026531836_cgpid310632649-ns-4026531841/hammer/v2/modules/simple_mlps.py:813 in forward, code: ).view(
        view_12: "bf16[10, 13, 256][3328, 256, 1]cuda:0" = torch.ops.aten.view.default(cat, [-1, 13, 256]);  cat = None
        
        # File: /mnt/xarfuse/uid-168871/0c2e5a73-seed-nspid4026531836_cgpid310632649-ns-4026531841/torch/nn/functional.py:5429 in pad, code: return torch._C._nn.pad(input, pad, mode, value)
        constant_pad_nd: "f32[10, 1304][1304, 1]cuda:0" = torch.ops.aten.constant_pad_nd.default(primals_21, [0, 7], 0.0)
        
        # File: /mnt/xarfuse/uid-168871/0c2e5a73-seed-nspid4026531836_cgpid310632649-ns-4026531841/hammer/v2/modules/simple_mlps.py:369 in forward, code: return input_tensor * self.excitation(input_tensor)
        convert_element_type_36: "bf16[10, 1304][1304, 1]cuda:0" = torch.ops.prims.convert_element_type.default(constant_pad_nd, torch.bfloat16)
        convert_element_type_37: "bf16[88, 1304][1304, 1]cuda:0" = torch.ops.prims.convert_element_type.default(primals_22, torch.bfloat16);  primals_22 = None
        convert_element_type_38: "bf16[88][1]cuda:0" = torch.ops.prims.convert_element_type.default(primals_23, torch.bfloat16);  primals_23 = None
        permute_6: "bf16[1304, 88][1, 1304]cuda:0" = torch.ops.aten.permute.default(convert_element_type_37, [1, 0]);  convert_element_type_37 = None
        addmm: "bf16[10, 88][88, 1]cuda:0" = torch.ops.aten.addmm.default(convert_element_type_38, convert_element_type_36, permute_6);  convert_element_type_38 = permute_6 = None
        relu: "bf16[10, 88][88, 1]cuda:0" = torch.ops.aten.relu.default(addmm);  addmm = None
        alias_6: "bf16[10, 88][88, 1]cuda:0" = torch.ops.aten.alias.default(relu)
        convert_element_type_42: "bf16[1304, 88][88, 1]cuda:0" = torch.ops.prims.convert_element_type.default(primals_24, torch.bfloat16);  primals_24 = None
        convert_element_type_43: "bf16[1304][1]cuda:0" = torch.ops.prims.convert_element_type.default(primals_25, torch.bfloat16);  primals_25 = None
        permute_7: "bf16[88, 1304][1, 88]cuda:0" = torch.ops.aten.permute.default(convert_element_type_42, [1, 0]);  convert_element_type_42 = None
        addmm_1: "bf16[10, 1304][1304, 1]cuda:0" = torch.ops.aten.addmm.default(convert_element_type_43, relu, permute_7);  convert_element_type_43 = None
        sigmoid: "bf16[10, 1304][1304, 1]cuda:0" = torch.ops.aten.sigmoid.default(addmm_1);  addmm_1 = None
        alias_7: "bf16[10, 1304][1304, 1]cuda:0" = torch.ops.aten.alias.default(sigmoid)
        mul_12: "f32[10, 1304][1304, 1]cuda:0" = torch.ops.aten.mul.Tensor(constant_pad_nd, sigmoid);  sigmoid = None
        
        # File: /mnt/xarfuse/uid-168871/0c2e5a73-seed-nspid4026531836_cgpid310632649-ns-4026531841/hammer/v2/modules/simple_mlps.py:168 in forward, code: output = mlp(output)
        convert_element_type_47: "bf16[10, 1304][1304, 1]cuda:0" = torch.ops.prims.convert_element_type.default(mul_12, torch.bfloat16);  mul_12 = None
        convert_element_type_48: "bf16[2048, 1304][1304, 1]cuda:0" = torch.ops.prims.convert_element_type.default(primals_26, torch.bfloat16);  primals_26 = None
        permute_8: "bf16[1304, 2048][1, 1304]cuda:0" = torch.ops.aten.permute.default(convert_element_type_48, [1, 0]);  convert_element_type_48 = None
        mm_6: "bf16[10, 2048][2048, 1]cuda:0" = torch.ops.aten.mm.default(convert_element_type_47, permute_8)
        
        # File: /mnt/xarfuse/uid-168871/0c2e5a73-seed-nspid4026531836_cgpid310632649-ns-4026531841/hammer/ops/layer_norm.py:163 in forward, code: x = x.view(-1, shape[-1])
        view_13: "bf16[10, 2048][2048, 1]cuda:0" = torch.ops.aten.view.default(mm_6, [-1, 2048]);  mm_6 = None
        
        # File: /mnt/xarfuse/uid-168871/0c2e5a73-seed-nspid4026531836_cgpid310632649-ns-4026531841/generative_recommenders/ops/pytorch/pt_layer_norm.py:49 in pytorch_rms_norm, code: x_float = x.to(torch.float32)
        convert_element_type_51: "f32[10, 2048][2048, 1]cuda:0" = torch.ops.prims.convert_element_type.default(view_13, torch.float32);  view_13 = None
        
        # File: /mnt/xarfuse/uid-168871/0c2e5a73-seed-nspid4026531836_cgpid310632649-ns-4026531841/torch/nn/functional.py:2954 in rms_norm, code: return torch.rms_norm(input, normalized_shape, weight, eps)
        pow_7: "f32[10, 2048][2048, 1]cuda:0" = torch.ops.aten.pow.Tensor_Scalar(convert_element_type_51, 2)
        mean_6: "f32[10, 1][1, 1]cuda:0" = torch.ops.aten.mean.dim(pow_7, [1], True);  pow_7 = None
        add_6: "f32[10, 1][1, 1]cuda:0" = torch.ops.aten.add.Scalar(mean_6, 1e-05);  mean_6 = None
        rsqrt_6: "f32[10, 1][1, 1]cuda:0" = torch.ops.aten.rsqrt.default(add_6);  add_6 = None
        mul_13: "f32[10, 2048][2048, 1]cuda:0" = torch.ops.aten.mul.Tensor(convert_element_type_51, rsqrt_6)
        mul_14: "f32[10, 2048][2048, 1]cuda:0" = torch.ops.aten.mul.Tensor(mul_13, primals_27);  mul_13 = None
        alias_8: "f32[10, 1][1, 1]cuda:0" = torch.ops.aten.alias.default(rsqrt_6);  rsqrt_6 = None
        
        # File: /mnt/xarfuse/uid-168871/0c2e5a73-seed-nspid4026531836_cgpid310632649-ns-4026531841/generative_recommenders/ops/pytorch/pt_layer_norm.py:58 in pytorch_rms_norm, code: return normalized.to(dtype)
        convert_element_type_52: "bf16[10, 2048][2048, 1]cuda:0" = torch.ops.prims.convert_element_type.default(mul_14, torch.bfloat16);  mul_14 = None
        
        # File: /mnt/xarfuse/uid-168871/0c2e5a73-seed-nspid4026531836_cgpid310632649-ns-4026531841/hammer/ops/layer_norm.py:166 in forward, code: ).view(shape)
        view_14: "bf16[10, 2048][2048, 1]cuda:0" = torch.ops.aten.view.default(convert_element_type_52, [10, 2048]);  convert_element_type_52 = None
        
        # File: /mnt/xarfuse/uid-168871/0c2e5a73-seed-nspid4026531836_cgpid310632649-ns-4026531841/hammer/v2/modules/simple_mlps.py:170 in forward, code: output = residual_tensor = activation(output)
        convert_element_type_53: "f32[10, 2048][2048, 1]cuda:0" = torch.ops.prims.convert_element_type.default(view_14, torch.float32)
        neg: "f32[10, 2048][2048, 1]cuda:0" = torch.ops.aten.neg.default(convert_element_type_53)
        exp: "f32[10, 2048][2048, 1]cuda:0" = torch.ops.aten.exp.default(neg);  neg = None
        add_7: "f32[10, 2048][2048, 1]cuda:0" = torch.ops.aten.add.Tensor(exp, 1);  exp = None
        div: "f32[10, 2048][2048, 1]cuda:0" = torch.ops.aten.div.Tensor(convert_element_type_53, add_7);  convert_element_type_53 = add_7 = None
        convert_element_type_54: "bf16[10, 2048][2048, 1]cuda:0" = torch.ops.prims.convert_element_type.default(div, torch.bfloat16);  div = None
        
        # File: /mnt/xarfuse/uid-168871/0c2e5a73-seed-nspid4026531836_cgpid310632649-ns-4026531841/hammer/v2/modules/simple_mlps.py:168 in forward, code: output = mlp(output)
        convert_element_type_55: "bf16[4096, 2048][2048, 1]cuda:0" = torch.ops.prims.convert_element_type.default(primals_28, torch.bfloat16);  primals_28 = None
        permute_9: "bf16[2048, 4096][1, 2048]cuda:0" = torch.ops.aten.permute.default(convert_element_type_55, [1, 0]);  convert_element_type_55 = None
        mm_7: "bf16[10, 4096][4096, 1]cuda:0" = torch.ops.aten.mm.default(convert_element_type_54, permute_9)
        
        # File: /mnt/xarfuse/uid-168871/0c2e5a73-seed-nspid4026531836_cgpid310632649-ns-4026531841/hammer/ops/layer_norm.py:163 in forward, code: x = x.view(-1, shape[-1])
        view_15: "bf16[10, 4096][4096, 1]cuda:0" = torch.ops.aten.view.default(mm_7, [-1, 4096]);  mm_7 = None
        
        # File: /mnt/xarfuse/uid-168871/0c2e5a73-seed-nspid4026531836_cgpid310632649-ns-4026531841/generative_recommenders/ops/pytorch/pt_layer_norm.py:49 in pytorch_rms_norm, code: x_float = x.to(torch.float32)
        convert_element_type_58: "f32[10, 4096][4096, 1]cuda:0" = torch.ops.prims.convert_element_type.default(view_15, torch.float32);  view_15 = None
        
        # File: /mnt/xarfuse/uid-168871/0c2e5a73-seed-nspid4026531836_cgpid310632649-ns-4026531841/torch/nn/functional.py:2954 in rms_norm, code: return torch.rms_norm(input, normalized_shape, weight, eps)
        pow_8: "f32[10, 4096][4096, 1]cuda:0" = torch.ops.aten.pow.Tensor_Scalar(convert_element_type_58, 2)
        mean_7: "f32[10, 1][1, 1]cuda:0" = torch.ops.aten.mean.dim(pow_8, [1], True);  pow_8 = None
        add_8: "f32[10, 1][1, 1]cuda:0" = torch.ops.aten.add.Scalar(mean_7, 1e-05);  mean_7 = None
        rsqrt_7: "f32[10, 1][1, 1]cuda:0" = torch.ops.aten.rsqrt.default(add_8);  add_8 = None
        mul_15: "f32[10, 4096][4096, 1]cuda:0" = torch.ops.aten.mul.Tensor(convert_element_type_58, rsqrt_7)
        mul_16: "f32[10, 4096][4096, 1]cuda:0" = torch.ops.aten.mul.Tensor(mul_15, primals_29);  mul_15 = None
        alias_9: "f32[10, 1][1, 1]cuda:0" = torch.ops.aten.alias.default(rsqrt_7);  rsqrt_7 = None
        
        # File: /mnt/xarfuse/uid-168871/0c2e5a73-seed-nspid4026531836_cgpid310632649-ns-4026531841/generative_recommenders/ops/pytorch/pt_layer_norm.py:58 in pytorch_rms_norm, code: return normalized.to(dtype)
        convert_element_type_59: "bf16[10, 4096][4096, 1]cuda:0" = torch.ops.prims.convert_element_type.default(mul_16, torch.bfloat16);  mul_16 = None
        
        # File: /mnt/xarfuse/uid-168871/0c2e5a73-seed-nspid4026531836_cgpid310632649-ns-4026531841/hammer/ops/layer_norm.py:166 in forward, code: ).view(shape)
        view_16: "bf16[10, 4096][4096, 1]cuda:0" = torch.ops.aten.view.default(convert_element_type_59, [10, 4096]);  convert_element_type_59 = None
        
        # File: /mnt/xarfuse/uid-168871/0c2e5a73-seed-nspid4026531836_cgpid310632649-ns-4026531841/hammer/v2/modules/simple_mlps.py:176 in forward, code: output = activation(output)
        convert_element_type_60: "f32[10, 4096][4096, 1]cuda:0" = torch.ops.prims.convert_element_type.default(view_16, torch.float32)
        neg_1: "f32[10, 4096][4096, 1]cuda:0" = torch.ops.aten.neg.default(convert_element_type_60)
        exp_1: "f32[10, 4096][4096, 1]cuda:0" = torch.ops.aten.exp.default(neg_1);  neg_1 = None
        add_9: "f32[10, 4096][4096, 1]cuda:0" = torch.ops.aten.add.Tensor(exp_1, 1);  exp_1 = None
        div_1: "f32[10, 4096][4096, 1]cuda:0" = torch.ops.aten.div.Tensor(convert_element_type_60, add_9);  convert_element_type_60 = add_9 = None
        convert_element_type_61: "bf16[10, 4096][4096, 1]cuda:0" = torch.ops.prims.convert_element_type.default(div_1, torch.bfloat16);  div_1 = None
        
        # File: /mnt/xarfuse/uid-168871/0c2e5a73-seed-nspid4026531836_cgpid310632649-ns-4026531841/hammer/v2/modules/simple_mlps.py:168 in forward, code: output = mlp(output)
        convert_element_type_62: "bf16[2048, 4096][4096, 1]cuda:0" = torch.ops.prims.convert_element_type.default(primals_30, torch.bfloat16);  primals_30 = None
        permute_10: "bf16[4096, 2048][1, 4096]cuda:0" = torch.ops.aten.permute.default(convert_element_type_62, [1, 0]);  convert_element_type_62 = None
        mm_8: "bf16[10, 2048][2048, 1]cuda:0" = torch.ops.aten.mm.default(convert_element_type_61, permute_10)
        
        # File: /mnt/xarfuse/uid-168871/0c2e5a73-seed-nspid4026531836_cgpid310632649-ns-4026531841/hammer/v2/modules/simple_mlps.py:172 in forward, code: residual_tensor = residual_tensor + output
        add_10: "bf16[10, 2048][2048, 1]cuda:0" = torch.ops.aten.add.Tensor(convert_element_type_54, mm_8);  mm_8 = None
        
        # File: /mnt/xarfuse/uid-168871/0c2e5a73-seed-nspid4026531836_cgpid310632649-ns-4026531841/hammer/ops/layer_norm.py:163 in forward, code: x = x.view(-1, shape[-1])
        view_17: "bf16[10, 2048][2048, 1]cuda:0" = torch.ops.aten.view.default(add_10, [-1, 2048]);  add_10 = None
        
        # File: /mnt/xarfuse/uid-168871/0c2e5a73-seed-nspid4026531836_cgpid310632649-ns-4026531841/generative_recommenders/ops/pytorch/pt_layer_norm.py:49 in pytorch_rms_norm, code: x_float = x.to(torch.float32)
        convert_element_type_65: "f32[10, 2048][2048, 1]cuda:0" = torch.ops.prims.convert_element_type.default(view_17, torch.float32);  view_17 = None
        
        # File: /mnt/xarfuse/uid-168871/0c2e5a73-seed-nspid4026531836_cgpid310632649-ns-4026531841/torch/nn/functional.py:2954 in rms_norm, code: return torch.rms_norm(input, normalized_shape, weight, eps)
        pow_9: "f32[10, 2048][2048, 1]cuda:0" = torch.ops.aten.pow.Tensor_Scalar(convert_element_type_65, 2)
        mean_8: "f32[10, 1][1, 1]cuda:0" = torch.ops.aten.mean.dim(pow_9, [1], True);  pow_9 = None
        add_11: "f32[10, 1][1, 1]cuda:0" = torch.ops.aten.add.Scalar(mean_8, 1e-05);  mean_8 = None
        rsqrt_8: "f32[10, 1][1, 1]cuda:0" = torch.ops.aten.rsqrt.default(add_11);  add_11 = None
        mul_17: "f32[10, 2048][2048, 1]cuda:0" = torch.ops.aten.mul.Tensor(convert_element_type_65, rsqrt_8)
        mul_18: "f32[10, 2048][2048, 1]cuda:0" = torch.ops.aten.mul.Tensor(mul_17, primals_31);  mul_17 = None
        alias_10: "f32[10, 1][1, 1]cuda:0" = torch.ops.aten.alias.default(rsqrt_8);  rsqrt_8 = None
        
        # File: /mnt/xarfuse/uid-168871/0c2e5a73-seed-nspid4026531836_cgpid310632649-ns-4026531841/generative_recommenders/ops/pytorch/pt_layer_norm.py:58 in pytorch_rms_norm, code: return normalized.to(dtype)
        convert_element_type_66: "bf16[10, 2048][2048, 1]cuda:0" = torch.ops.prims.convert_element_type.default(mul_18, torch.bfloat16);  mul_18 = None
        
        # File: /mnt/xarfuse/uid-168871/0c2e5a73-seed-nspid4026531836_cgpid310632649-ns-4026531841/hammer/ops/layer_norm.py:166 in forward, code: ).view(shape)
        view_18: "bf16[10, 2048][2048, 1]cuda:0" = torch.ops.aten.view.default(convert_element_type_66, [10, 2048]);  convert_element_type_66 = None
        
        # File: /mnt/xarfuse/uid-168871/0c2e5a73-seed-nspid4026531836_cgpid310632649-ns-4026531841/hammer/v2/modules/simple_mlps.py:173 in forward, code: residual_tensor = activation(residual_tensor)
        convert_element_type_67: "f32[10, 2048][2048, 1]cuda:0" = torch.ops.prims.convert_element_type.default(view_18, torch.float32)
        neg_2: "f32[10, 2048][2048, 1]cuda:0" = torch.ops.aten.neg.default(convert_element_type_67)
        exp_2: "f32[10, 2048][2048, 1]cuda:0" = torch.ops.aten.exp.default(neg_2);  neg_2 = None
        add_12: "f32[10, 2048][2048, 1]cuda:0" = torch.ops.aten.add.Tensor(exp_2, 1);  exp_2 = None
        div_2: "f32[10, 2048][2048, 1]cuda:0" = torch.ops.aten.div.Tensor(convert_element_type_67, add_12);  convert_element_type_67 = add_12 = None
        convert_element_type_68: "bf16[10, 2048][2048, 1]cuda:0" = torch.ops.prims.convert_element_type.default(div_2, torch.bfloat16);  div_2 = None
        
        # File: /mnt/xarfuse/uid-168871/0c2e5a73-seed-nspid4026531836_cgpid310632649-ns-4026531841/hammer/v2/modules/simple_mlps.py:168 in forward, code: output = mlp(output)
        convert_element_type_69: "bf16[4096, 2048][2048, 1]cuda:0" = torch.ops.prims.convert_element_type.default(primals_32, torch.bfloat16);  primals_32 = None
        permute_11: "bf16[2048, 4096][1, 2048]cuda:0" = torch.ops.aten.permute.default(convert_element_type_69, [1, 0]);  convert_element_type_69 = None
        mm_9: "bf16[10, 4096][4096, 1]cuda:0" = torch.ops.aten.mm.default(convert_element_type_68, permute_11)
        
        # File: /mnt/xarfuse/uid-168871/0c2e5a73-seed-nspid4026531836_cgpid310632649-ns-4026531841/hammer/ops/layer_norm.py:163 in forward, code: x = x.view(-1, shape[-1])
        view_19: "bf16[10, 4096][4096, 1]cuda:0" = torch.ops.aten.view.default(mm_9, [-1, 4096]);  mm_9 = None
        
        # File: /mnt/xarfuse/uid-168871/0c2e5a73-seed-nspid4026531836_cgpid310632649-ns-4026531841/generative_recommenders/ops/pytorch/pt_layer_norm.py:49 in pytorch_rms_norm, code: x_float = x.to(torch.float32)
        convert_element_type_72: "f32[10, 4096][4096, 1]cuda:0" = torch.ops.prims.convert_element_type.default(view_19, torch.float32);  view_19 = None
        
        # File: /mnt/xarfuse/uid-168871/0c2e5a73-seed-nspid4026531836_cgpid310632649-ns-4026531841/torch/nn/functional.py:2954 in rms_norm, code: return torch.rms_norm(input, normalized_shape, weight, eps)
        pow_10: "f32[10, 4096][4096, 1]cuda:0" = torch.ops.aten.pow.Tensor_Scalar(convert_element_type_72, 2)
        mean_9: "f32[10, 1][1, 1]cuda:0" = torch.ops.aten.mean.dim(pow_10, [1], True);  pow_10 = None
        add_13: "f32[10, 1][1, 1]cuda:0" = torch.ops.aten.add.Scalar(mean_9, 1e-05);  mean_9 = None
        rsqrt_9: "f32[10, 1][1, 1]cuda:0" = torch.ops.aten.rsqrt.default(add_13);  add_13 = None
        mul_19: "f32[10, 4096][4096, 1]cuda:0" = torch.ops.aten.mul.Tensor(convert_element_type_72, rsqrt_9)
        mul_20: "f32[10, 4096][4096, 1]cuda:0" = torch.ops.aten.mul.Tensor(mul_19, primals_33);  mul_19 = None
        alias_11: "f32[10, 1][1, 1]cuda:0" = torch.ops.aten.alias.default(rsqrt_9);  rsqrt_9 = None
        
        # File: /mnt/xarfuse/uid-168871/0c2e5a73-seed-nspid4026531836_cgpid310632649-ns-4026531841/generative_recommenders/ops/pytorch/pt_layer_norm.py:58 in pytorch_rms_norm, code: return normalized.to(dtype)
        convert_element_type_73: "bf16[10, 4096][4096, 1]cuda:0" = torch.ops.prims.convert_element_type.default(mul_20, torch.bfloat16);  mul_20 = None
        
        # File: /mnt/xarfuse/uid-168871/0c2e5a73-seed-nspid4026531836_cgpid310632649-ns-4026531841/hammer/ops/layer_norm.py:166 in forward, code: ).view(shape)
        view_20: "bf16[10, 4096][4096, 1]cuda:0" = torch.ops.aten.view.default(convert_element_type_73, [10, 4096]);  convert_element_type_73 = None
        
        # File: /mnt/xarfuse/uid-168871/0c2e5a73-seed-nspid4026531836_cgpid310632649-ns-4026531841/hammer/v2/modules/simple_mlps.py:176 in forward, code: output = activation(output)
        convert_element_type_74: "f32[10, 4096][4096, 1]cuda:0" = torch.ops.prims.convert_element_type.default(view_20, torch.float32)
        neg_3: "f32[10, 4096][4096, 1]cuda:0" = torch.ops.aten.neg.default(convert_element_type_74)
        exp_3: "f32[10, 4096][4096, 1]cuda:0" = torch.ops.aten.exp.default(neg_3);  neg_3 = None
        add_14: "f32[10, 4096][4096, 1]cuda:0" = torch.ops.aten.add.Tensor(exp_3, 1);  exp_3 = None
        div_3: "f32[10, 4096][4096, 1]cuda:0" = torch.ops.aten.div.Tensor(convert_element_type_74, add_14);  convert_element_type_74 = add_14 = None
        convert_element_type_75: "bf16[10, 4096][4096, 1]cuda:0" = torch.ops.prims.convert_element_type.default(div_3, torch.bfloat16);  div_3 = None
        
        # File: /mnt/xarfuse/uid-168871/0c2e5a73-seed-nspid4026531836_cgpid310632649-ns-4026531841/hammer/v2/modules/simple_mlps.py:179 in forward, code: output = self._output_proj(output)
        convert_element_type_76: "bf16[1024, 4096][4096, 1]cuda:0" = torch.ops.prims.convert_element_type.default(primals_34, torch.bfloat16);  primals_34 = None
        permute_12: "bf16[4096, 1024][1, 4096]cuda:0" = torch.ops.aten.permute.default(convert_element_type_76, [1, 0]);  convert_element_type_76 = None
        mm_10: "bf16[10, 1024][1024, 1]cuda:0" = torch.ops.aten.mm.default(convert_element_type_75, permute_12)
        
        # File: /mnt/xarfuse/uid-168871/0c2e5a73-seed-nspid4026531836_cgpid310632649-ns-4026531841/hammer/v2/modules/simple_mlps.py:544 in forward, code: output = self._mlp(gated_output).reshape(
        view_21: "bf16[10, 4, 256][1024, 256, 1]cuda:0" = torch.ops.aten.view.default(mm_10, [-1, 4, 256]);  mm_10 = None
        
        # File: /mnt/xarfuse/uid-168871/0c2e5a73-seed-nspid4026531836_cgpid310632649-ns-4026531841/minimal_viable_ai/models/ig_ranking/lsr/mb7_test_1/model_archs.py:166 in forward, code: dense_proj = dense_embedding.reshape(
        view_22: "bf16[10, 1024][1024, 1]cuda:0" = torch.ops.aten.view.default(view_21, [-1, 1024])
        
        # File: /mnt/xarfuse/uid-168871/0c2e5a73-seed-nspid4026531836_cgpid310632649-ns-4026531841/torch/nn/functional.py:5429 in pad, code: return torch._C._nn.pad(input, pad, mode, value)
        constant_pad_nd_1: "f32[10, 1304][1304, 1]cuda:0" = torch.ops.aten.constant_pad_nd.default(primals_21, [0, 7], 0.0);  primals_21 = None
        
        # File: /mnt/xarfuse/uid-168871/0c2e5a73-seed-nspid4026531836_cgpid310632649-ns-4026531841/minimal_viable_ai/models/ig_ranking/lsr/mb7_test_1/model_archs.py:458 in forward, code: dense_proj = torch.cat([dense_projection, dense_features], dim=1)
        cat_1: "f32[10, 2328][2328, 1]cuda:0" = torch.ops.aten.cat.default([view_22, constant_pad_nd_1], 1);  view_22 = constant_pad_nd_1 = None
        
        # File: /mnt/xarfuse/uid-168871/0c2e5a73-seed-nspid4026531836_cgpid310632649-ns-4026531841/minimal_viable_ai/models/ig_ranking/lsr/mb7_test_1/model_archs.py:460 in forward, code: x = torch.cat(
        cat_2: "f32[10, 251, 256][64256, 256, 1]cuda:0" = torch.ops.aten.cat.default([primals_35, view_12, primals_36, view_21], 1);  primals_35 = view_12 = primals_36 = view_21 = None
        
        # File: /mnt/xarfuse/uid-168871/0c2e5a73-seed-nspid4026531836_cgpid310632649-ns-4026531841/hammer/ops/layer_norm.py:163 in forward, code: x = x.view(-1, shape[-1])
        view_23: "bf16[514, 256][256, 1]cuda:0" = torch.ops.aten.view.default(primals_2, [-1, 256]);  primals_2 = None
        
        # File: /mnt/xarfuse/uid-168871/0c2e5a73-seed-nspid4026531836_cgpid310632649-ns-4026531841/generative_recommenders/ops/triton/triton_layer_norm.py:992 in forward, code: y = torch.empty_like(x)
        empty: "bf16[514, 256][256, 1]cuda:0" = torch.ops.aten.empty.memory_format([514, 256], dtype = torch.bfloat16, layout = torch.strided, device = device(type='cuda', index=0), pin_memory = False)
        
        # File: /mnt/xarfuse/uid-168871/0c2e5a73-seed-nspid4026531836_cgpid310632649-ns-4026531841/generative_recommenders/ops/triton/triton_layer_norm.py:993 in forward, code: rstd = torch.empty((N,), dtype=torch.float32, device=x.device)
        empty_1: "f32[514][1]cuda:0" = torch.ops.aten.empty.memory_format([514], dtype = torch.float32, device = device(type='cuda', index=0), pin_memory = False)
        
        # File: /mnt/xarfuse/uid-168871/0c2e5a73-seed-nspid4026531836_cgpid310632649-ns-4026531841/generative_recommenders/ops/triton/triton_layer_norm.py:1010 in forward, code: _weighted_rms_norm_fwd[grid](
        triton_kernel_wrapper_functional_proxy = torch.ops.higher_order.triton_kernel_wrapper_functional(kernel_idx = 4, constant_args_idx = 20, grid = [(514, 1, 1), (514, 1, 1), (129, 1, 1), (129, 1, 1), (33, 1, 1), (33, 1, 1)], tma_descriptor_metadata = {}, kwargs = {'X': view_23, 'Y': empty, 'W': primals_37, 'Rstd': empty_1}, tensors_to_clone = ['Y', 'Rstd']);  empty = empty_1 = None
        getitem: "bf16[514, 256][256, 1]cuda:0" = triton_kernel_wrapper_functional_proxy['Y']
        getitem_1: "f32[514][1]cuda:0" = triton_kernel_wrapper_functional_proxy['Rstd'];  triton_kernel_wrapper_functional_proxy = None
        
        # File: /mnt/xarfuse/uid-168871/0c2e5a73-seed-nspid4026531836_cgpid310632649-ns-4026531841/hammer/ops/layer_norm.py:163 in forward, code: x = x.view(-1, shape[-1])
        view_25: "bf16[514, 256][256, 1]cuda:0" = torch.ops.aten.view.default(primals_1, [-1, 256]);  primals_1 = None
        
        # File: /mnt/xarfuse/uid-168871/0c2e5a73-seed-nspid4026531836_cgpid310632649-ns-4026531841/generative_recommenders/ops/triton/triton_layer_norm.py:992 in forward, code: y = torch.empty_like(x)
        empty_2: "bf16[514, 256][256, 1]cuda:0" = torch.ops.aten.empty.memory_format([514, 256], dtype = torch.bfloat16, layout = torch.strided, device = device(type='cuda', index=0), pin_memory = False)
        
        # File: /mnt/xarfuse/uid-168871/0c2e5a73-seed-nspid4026531836_cgpid310632649-ns-4026531841/generative_recommenders/ops/triton/triton_layer_norm.py:993 in forward, code: rstd = torch.empty((N,), dtype=torch.float32, device=x.device)
        empty_3: "f32[514][1]cuda:0" = torch.ops.aten.empty.memory_format([514], dtype = torch.float32, device = device(type='cuda', index=0), pin_memory = False)
        
        # File: /mnt/xarfuse/uid-168871/0c2e5a73-seed-nspid4026531836_cgpid310632649-ns-4026531841/generative_recommenders/ops/triton/triton_layer_norm.py:1010 in forward, code: _weighted_rms_norm_fwd[grid](
        triton_kernel_wrapper_functional_proxy_1 = torch.ops.higher_order.triton_kernel_wrapper_functional(kernel_idx = 4, constant_args_idx = 22, grid = [(514, 1, 1), (514, 1, 1), (129, 1, 1), (129, 1, 1), (33, 1, 1), (33, 1, 1)], tma_descriptor_metadata = {}, kwargs = {'X': view_25, 'Y': empty_2, 'W': primals_38, 'Rstd': empty_3}, tensors_to_clone = ['Y', 'Rstd']);  empty_2 = empty_3 = None
        getitem_2: "bf16[514, 256][256, 1]cuda:0" = triton_kernel_wrapper_functional_proxy_1['Y']
        getitem_3: "f32[514][1]cuda:0" = triton_kernel_wrapper_functional_proxy_1['Rstd'];  triton_kernel_wrapper_functional_proxy_1 = None
        
        # File: /mnt/xarfuse/uid-168871/0c2e5a73-seed-nspid4026531836_cgpid310632649-ns-4026531841/hammer/ops/layer_norm.py:163 in forward, code: x = x.view(-1, shape[-1])
        view_27: "f32[2510, 256][256, 1]cuda:0" = torch.ops.aten.view.default(cat_2, [-1, 256]);  cat_2 = None
        
        # File: /mnt/xarfuse/uid-168871/0c2e5a73-seed-nspid4026531836_cgpid310632649-ns-4026531841/generative_recommenders/ops/triton/triton_layer_norm.py:992 in forward, code: y = torch.empty_like(x)
        empty_4: "f32[2510, 256][256, 1]cuda:0" = torch.ops.aten.empty.memory_format([2510, 256], dtype = torch.float32, layout = torch.strided, device = device(type='cuda', index=0), pin_memory = False)
        
        # File: /mnt/xarfuse/uid-168871/0c2e5a73-seed-nspid4026531836_cgpid310632649-ns-4026531841/generative_recommenders/ops/triton/triton_layer_norm.py:993 in forward, code: rstd = torch.empty((N,), dtype=torch.float32, device=x.device)
        empty_5: "f32[2510][1]cuda:0" = torch.ops.aten.empty.memory_format([2510], dtype = torch.float32, device = device(type='cuda', index=0), pin_memory = False)
        
        # File: /mnt/xarfuse/uid-168871/0c2e5a73-seed-nspid4026531836_cgpid310632649-ns-4026531841/generative_recommenders/ops/triton/triton_layer_norm.py:1010 in forward, code: _weighted_rms_norm_fwd[grid](
        triton_kernel_wrapper_functional_proxy_2 = torch.ops.higher_order.triton_kernel_wrapper_functional(kernel_idx = 4, constant_args_idx = 24, grid = [(2510, 1, 1), (2510, 1, 1), (628, 1, 1), (628, 1, 1), (157, 1, 1), (157, 1, 1)], tma_descriptor_metadata = {}, kwargs = {'X': view_27, 'Y': empty_4, 'W': primals_39, 'Rstd': empty_5}, tensors_to_clone = ['Y', 'Rstd']);  empty_4 = empty_5 = None
        getitem_4: "f32[2510, 256][256, 1]cuda:0" = triton_kernel_wrapper_functional_proxy_2['Y']
        getitem_5: "f32[2510][1]cuda:0" = triton_kernel_wrapper_functional_proxy_2['Rstd'];  triton_kernel_wrapper_functional_proxy_2 = None
        
        # File: /mnt/xarfuse/uid-168871/0c2e5a73-seed-nspid4026531836_cgpid310632649-ns-4026531841/hammer/ops/layer_norm.py:163 in forward, code: x = x.view(-1, shape[-1])
        view_29: "f32[10, 2328][2328, 1]cuda:0" = torch.ops.aten.view.default(cat_1, [-1, 2328]);  cat_1 = None
        
        # File: /mnt/xarfuse/uid-168871/0c2e5a73-seed-nspid4026531836_cgpid310632649-ns-4026531841/generative_recommenders/ops/triton/triton_layer_norm.py:992 in forward, code: y = torch.empty_like(x)
        empty_6: "f32[10, 2328][2328, 1]cuda:0" = torch.ops.aten.empty.memory_format([10, 2328], dtype = torch.float32, layout = torch.strided, device = device(type='cuda', index=0), pin_memory = False)
        
        # File: /mnt/xarfuse/uid-168871/0c2e5a73-seed-nspid4026531836_cgpid310632649-ns-4026531841/generative_recommenders/ops/triton/triton_layer_norm.py:993 in forward, code: rstd = torch.empty((N,), dtype=torch.float32, device=x.device)
        empty_7: "f32[10][1]cuda:0" = torch.ops.aten.empty.memory_format([10], dtype = torch.float32, device = device(type='cuda', index=0), pin_memory = False)
        
        # File: /mnt/xarfuse/uid-168871/0c2e5a73-seed-nspid4026531836_cgpid310632649-ns-4026531841/generative_recommenders/ops/triton/triton_layer_norm.py:1010 in forward, code: _weighted_rms_norm_fwd[grid](
        triton_kernel_wrapper_functional_proxy_3 = torch.ops.higher_order.triton_kernel_wrapper_functional(kernel_idx = 4, constant_args_idx = 26, grid = [(10, 1, 1), (10, 1, 1), (3, 1, 1), (3, 1, 1), (1, 1, 1), (1, 1, 1)], tma_descriptor_metadata = {}, kwargs = {'X': view_29, 'Y': empty_6, 'W': primals_40, 'Rstd': empty_7}, tensors_to_clone = ['Y', 'Rstd']);  empty_6 = empty_7 = None
        getitem_6: "f32[10, 2328][2328, 1]cuda:0" = triton_kernel_wrapper_functional_proxy_3['Y']
        getitem_7: "f32[10][1]cuda:0" = triton_kernel_wrapper_functional_proxy_3['Rstd'];  triton_kernel_wrapper_functional_proxy_3 = None
        
        # File: /mnt/xarfuse/uid-168871/0c2e5a73-seed-nspid4026531836_cgpid310632649-ns-4026531841/hammer/ops/layer_norm.py:166 in forward, code: ).view(shape)
        view_31: "f32[10, 251, 256][64256, 256, 1]cuda:0" = torch.ops.aten.view.default(getitem_4, [10, 251, 256])
        
        # File: /mnt/xarfuse/uid-168871/0c2e5a73-seed-nspid4026531836_cgpid310632649-ns-4026531841/hammer/v2/modules/simple_mlps.py:228 in forward, code: x = x.transpose(1, 2)  # [b, d, n]
        view_32: "f32[10, 251, 256][64256, 256, 1]cuda:0" = torch.ops.aten.view.default(getitem_4, [10, 251, 256])
        permute_14: "f32[10, 256, 251][64256, 1, 256]cuda:0" = torch.ops.aten.permute.default(view_32, [0, 2, 1]);  view_32 = None
        
        # File: /mnt/xarfuse/uid-168871/0c2e5a73-seed-nspid4026531836_cgpid310632649-ns-4026531841/hammer/v2/modules/simple_mlps.py:229 in forward, code: x = self.linear(x)  # [b, d, n']
        convert_element_type_79: "bf16[10, 256, 251][64256, 1, 256]cuda:0" = torch.ops.prims.convert_element_type.default(permute_14, torch.bfloat16);  permute_14 = None
        convert_element_type_80: "bf16[144, 251][251, 1]cuda:0" = torch.ops.prims.convert_element_type.default(primals_41, torch.bfloat16);  primals_41 = None
        permute_15: "bf16[251, 144][1, 251]cuda:0" = torch.ops.aten.permute.default(convert_element_type_80, [1, 0]);  convert_element_type_80 = None
        clone: "bf16[10, 256, 251][64256, 251, 1]cuda:0" = torch.ops.aten.clone.default(convert_element_type_79, memory_format = torch.contiguous_format);  convert_element_type_79 = None
        view_33: "bf16[2560, 251][251, 1]cuda:0" = torch.ops.aten.view.default(clone, [2560, 251]);  clone = None
        mm_11: "bf16[2560, 144][144, 1]cuda:0" = torch.ops.aten.mm.default(view_33, permute_15)
        view_34: "bf16[10, 256, 144][36864, 144, 1]cuda:0" = torch.ops.aten.view.default(mm_11, [10, 256, 144]);  mm_11 = None
        
        # File: /mnt/xarfuse/uid-168871/0c2e5a73-seed-nspid4026531836_cgpid310632649-ns-4026531841/hammer/v2/modules/simple_mlps.py:230 in forward, code: x = x.transpose(1, 2)  # [b, n', d]
        permute_16: "bf16[10, 144, 256][36864, 1, 144]cuda:0" = torch.ops.aten.permute.default(view_34, [0, 2, 1]);  view_34 = None
        
        # File: /mnt/xarfuse/uid-168871/0c2e5a73-seed-nspid4026531836_cgpid310632649-ns-4026531841/hammer/v2/modules/simple_mlps.py:292 in forward, code: lce_outputs = torch.split(y, self.lce_splits, dim=1)
        split_with_sizes = torch.ops.aten.split_with_sizes.default(permute_16, [64, 32, 32, 16], 1);  permute_16 = None
        getitem_8: "bf16[10, 64, 256][36864, 1, 144]cuda:0" = split_with_sizes[0]
        getitem_9: "bf16[10, 32, 256][36864, 1, 144]cuda:0" = split_with_sizes[1]
        getitem_10: "bf16[10, 32, 256][36864, 1, 144]cuda:0" = split_with_sizes[2]
        getitem_11: "bf16[10, 16, 256][36864, 1, 144]cuda:0" = split_with_sizes[3];  split_with_sizes = None
        
        # File: /mnt/xarfuse/uid-168871/0c2e5a73-seed-nspid4026531836_cgpid310632649-ns-4026531841/minimal_viable_ai/models/ig_ranking/lsr/nano_rl/rlnn_modules.py:808 in forward, code: v = self.v_proj(x_proj.reshape(x_proj.shape[0], -1))
        clone_1: "bf16[10, 32, 256][8192, 256, 1]cuda:0" = torch.ops.aten.clone.default(getitem_10, memory_format = torch.contiguous_format);  getitem_10 = None
        view_35: "bf16[10, 8192][8192, 1]cuda:0" = torch.ops.aten.view.default(clone_1, [10, 8192]);  clone_1 = None
        
        # File: /mnt/xarfuse/uid-168871/0c2e5a73-seed-nspid4026531836_cgpid310632649-ns-4026531841/hammer/v2/modules/simple_mlps.py:168 in forward, code: output = mlp(output)
        convert_element_type_83: "bf16[512, 8192][8192, 1]cuda:0" = torch.ops.prims.convert_element_type.default(primals_42, torch.bfloat16);  primals_42 = None
        permute_17: "bf16[8192, 512][1, 8192]cuda:0" = torch.ops.aten.permute.default(convert_element_type_83, [1, 0]);  convert_element_type_83 = None
        mm_12: "bf16[10, 512][512, 1]cuda:0" = torch.ops.aten.mm.default(view_35, permute_17)
        
        # File: /mnt/xarfuse/uid-168871/0c2e5a73-seed-nspid4026531836_cgpid310632649-ns-4026531841/hammer/ops/layer_norm.py:163 in forward, code: x = x.view(-1, shape[-1])
        view_36: "bf16[10, 512][512, 1]cuda:0" = torch.ops.aten.view.default(mm_12, [-1, 512]);  mm_12 = None
        
        # File: /mnt/xarfuse/uid-168871/0c2e5a73-seed-nspid4026531836_cgpid310632649-ns-4026531841/generative_recommenders/ops/pytorch/pt_layer_norm.py:49 in pytorch_rms_norm, code: x_float = x.to(torch.float32)
        convert_element_type_86: "f32[10, 512][512, 1]cuda:0" = torch.ops.prims.convert_element_type.default(view_36, torch.float32);  view_36 = None
        
        # File: /mnt/xarfuse/uid-168871/0c2e5a73-seed-nspid4026531836_cgpid310632649-ns-4026531841/torch/nn/functional.py:2954 in rms_norm, code: return torch.rms_norm(input, normalized_shape, weight, eps)
        pow_11: "f32[10, 512][512, 1]cuda:0" = torch.ops.aten.pow.Tensor_Scalar(convert_element_type_86, 2)
        mean_10: "f32[10, 1][1, 1]cuda:0" = torch.ops.aten.mean.dim(pow_11, [1], True);  pow_11 = None
        add_15: "f32[10, 1][1, 1]cuda:0" = torch.ops.aten.add.Scalar(mean_10, 1e-05);  mean_10 = None
        rsqrt_10: "f32[10, 1][1, 1]cuda:0" = torch.ops.aten.rsqrt.default(add_15);  add_15 = None
        mul_21: "f32[10, 512][512, 1]cuda:0" = torch.ops.aten.mul.Tensor(convert_element_type_86, rsqrt_10)
        mul_22: "f32[10, 512][512, 1]cuda:0" = torch.ops.aten.mul.Tensor(mul_21, primals_43);  mul_21 = None
        alias_12: "f32[10, 1][1, 1]cuda:0" = torch.ops.aten.alias.default(rsqrt_10);  rsqrt_10 = None
        
        # File: /mnt/xarfuse/uid-168871/0c2e5a73-seed-nspid4026531836_cgpid310632649-ns-4026531841/generative_recommenders/ops/pytorch/pt_layer_norm.py:58 in pytorch_rms_norm, code: return normalized.to(dtype)
        convert_element_type_87: "bf16[10, 512][512, 1]cuda:0" = torch.ops.prims.convert_element_type.default(mul_22, torch.bfloat16);  mul_22 = None
        
        # File: /mnt/xarfuse/uid-168871/0c2e5a73-seed-nspid4026531836_cgpid310632649-ns-4026531841/hammer/ops/layer_norm.py:166 in forward, code: ).view(shape)
        view_37: "bf16[10, 512][512, 1]cuda:0" = torch.ops.aten.view.default(convert_element_type_87, [10, 512]);  convert_element_type_87 = None
        
        # File: /mnt/xarfuse/uid-168871/0c2e5a73-seed-nspid4026531836_cgpid310632649-ns-4026531841/hammer/v2/modules/simple_mlps.py:170 in forward, code: output = residual_tensor = activation(output)
        convert_element_type_88: "f32[10, 512][512, 1]cuda:0" = torch.ops.prims.convert_element_type.default(view_37, torch.float32)
        neg_4: "f32[10, 512][512, 1]cuda:0" = torch.ops.aten.neg.default(convert_element_type_88)
        exp_4: "f32[10, 512][512, 1]cuda:0" = torch.ops.aten.exp.default(neg_4);  neg_4 = None
        add_16: "f32[10, 512][512, 1]cuda:0" = torch.ops.aten.add.Tensor(exp_4, 1);  exp_4 = None
        div_4: "f32[10, 512][512, 1]cuda:0" = torch.ops.aten.div.Tensor(convert_element_type_88, add_16);  convert_element_type_88 = add_16 = None
        convert_element_type_89: "bf16[10, 512][512, 1]cuda:0" = torch.ops.prims.convert_element_type.default(div_4, torch.bfloat16);  div_4 = None
        
        # File: /mnt/xarfuse/uid-168871/0c2e5a73-seed-nspid4026531836_cgpid310632649-ns-4026531841/hammer/v2/modules/simple_mlps.py:179 in forward, code: output = self._output_proj(output)
        convert_element_type_90: "bf16[8032, 512][512, 1]cuda:0" = torch.ops.prims.convert_element_type.default(primals_44, torch.bfloat16);  primals_44 = None
        permute_18: "bf16[512, 8032][1, 512]cuda:0" = torch.ops.aten.permute.default(convert_element_type_90, [1, 0]);  convert_element_type_90 = None
        mm_13: "bf16[10, 8032][8032, 1]cuda:0" = torch.ops.aten.mm.default(convert_element_type_89, permute_18)
        
        # File: /mnt/xarfuse/uid-168871/0c2e5a73-seed-nspid4026531836_cgpid310632649-ns-4026531841/minimal_viable_ai/models/ig_ranking/lsr/nano_rl/rlnn_modules.py:809 in forward, code: v = v.reshape(v.shape[0], -1, x.shape[1])  # [b, v, n']
        view_38: "bf16[10, 32, 251][8032, 251, 1]cuda:0" = torch.ops.aten.view.default(mm_13, [10, -1, 251]);  mm_13 = None
        
        # File: /mnt/xarfuse/uid-168871/0c2e5a73-seed-nspid4026531836_cgpid310632649-ns-4026531841/minimal_viable_ai/models/ig_ranking/lsr/nano_rl/rlnn_modules.py:811 in forward, code: vx = v @ x  # [b, v, dim]
        convert_element_type_93: "bf16[10, 251, 256][64256, 256, 1]cuda:0" = torch.ops.prims.convert_element_type.default(view_31, torch.bfloat16);  view_31 = None
        expand: "bf16[10, 32, 251][8032, 251, 1]cuda:0" = torch.ops.aten.expand.default(view_38, [10, 32, 251]);  view_38 = None
        view_39: "bf16[10, 32, 251][8032, 251, 1]cuda:0" = torch.ops.aten.view.default(expand, [10, 32, 251]);  expand = None
        expand_1: "bf16[10, 251, 256][64256, 256, 1]cuda:0" = torch.ops.aten.expand.default(convert_element_type_93, [10, 251, 256]);  convert_element_type_93 = None
        view_40: "bf16[10, 251, 256][64256, 256, 1]cuda:0" = torch.ops.aten.view.default(expand_1, [10, 251, 256]);  expand_1 = None
        bmm: "bf16[10, 32, 256][8192, 256, 1]cuda:0" = torch.ops.aten.bmm.default(view_39, view_40)
        view_41: "bf16[10, 32, 256][8192, 256, 1]cuda:0" = torch.ops.aten.view.default(bmm, [10, 32, 256]);  bmm = None
        
        # File: /mnt/xarfuse/uid-168871/0c2e5a73-seed-nspid4026531836_cgpid310632649-ns-4026531841/minimal_viable_ai/models/ig_ranking/lsr/nano_rl/rlnn_modules.py:813 in forward, code: res = vx @ x.transpose(1, 2)  # res: [b, v, n']
        view_42: "f32[10, 251, 256][64256, 256, 1]cuda:0" = torch.ops.aten.view.default(getitem_4, [10, 251, 256]);  getitem_4 = None
        permute_20: "f32[10, 256, 251][64256, 1, 256]cuda:0" = torch.ops.aten.permute.default(view_42, [0, 2, 1]);  view_42 = None
        convert_element_type_96: "bf16[10, 256, 251][64256, 1, 256]cuda:0" = torch.ops.prims.convert_element_type.default(permute_20, torch.bfloat16);  permute_20 = None
        expand_2: "bf16[10, 32, 256][8192, 256, 1]cuda:0" = torch.ops.aten.expand.default(view_41, [10, 32, 256]);  view_41 = None
        view_43: "bf16[10, 32, 256][8192, 256, 1]cuda:0" = torch.ops.aten.view.default(expand_2, [10, 32, 256]);  expand_2 = None
        expand_3: "bf16[10, 256, 251][64256, 1, 256]cuda:0" = torch.ops.aten.expand.default(convert_element_type_96, [10, 256, 251]);  convert_element_type_96 = None
        view_44: "bf16[10, 256, 251][64256, 1, 256]cuda:0" = torch.ops.aten.view.default(expand_3, [10, 256, 251]);  expand_3 = None
        bmm_1: "bf16[10, 32, 251][8032, 251, 1]cuda:0" = torch.ops.aten.bmm.default(view_43, view_44)
        view_45: "bf16[10, 32, 251][8032, 251, 1]cuda:0" = torch.ops.aten.view.default(bmm_1, [10, 32, 251]);  bmm_1 = None
        
        # File: /mnt/xarfuse/uid-168871/0c2e5a73-seed-nspid4026531836_cgpid310632649-ns-4026531841/minimal_viable_ai/models/ig_ranking/lsr/nano_rl/rlnn.py:393 in forward, code: x = x.reshape(x.shape[0], -1)
        view_46: "bf16[10, 8032][8032, 1]cuda:0" = torch.ops.aten.view.default(view_45, [10, -1]);  view_45 = None
        
        # File: /mnt/xarfuse/uid-168871/0c2e5a73-seed-nspid4026531836_cgpid310632649-ns-4026531841/minimal_viable_ai/models/ig_ranking/lsr/nano_rl/rlnn.py:395 in forward, code: x = torch.cat([x, fm_x.reshape(x.shape[0], -1)], dim=1)
        clone_2: "bf16[10, 16, 256][4096, 256, 1]cuda:0" = torch.ops.aten.clone.default(getitem_11, memory_format = torch.contiguous_format);  getitem_11 = None
        view_47: "bf16[10, 4096][4096, 1]cuda:0" = torch.ops.aten.view.default(clone_2, [10, 4096]);  clone_2 = None
        cat_3: "bf16[10, 12128][12128, 1]cuda:0" = torch.ops.aten.cat.default([view_46, view_47], 1);  view_46 = view_47 = None
        
        # File: /mnt/xarfuse/uid-168871/0c2e5a73-seed-nspid4026531836_cgpid310632649-ns-4026531841/hammer/ops/layer_norm.py:166 in forward, code: ).view(shape)
        view_48: "f32[10, 2328][2328, 1]cuda:0" = torch.ops.aten.view.default(getitem_6, [10, 2328]);  getitem_6 = None
        
        # File: /mnt/xarfuse/uid-168871/0c2e5a73-seed-nspid4026531836_cgpid310632649-ns-4026531841/minimal_viable_ai/models/ig_ranking/lsr/nano_rl/rlnn.py:398 in forward, code: x = torch.cat([x, dense_proj], dim=1)
        cat_4: "f32[10, 14456][14456, 1]cuda:0" = torch.ops.aten.cat.default([cat_3, view_48], 1);  cat_3 = None
        
        # File: /mnt/xarfuse/uid-168871/0c2e5a73-seed-nspid4026531836_cgpid310632649-ns-4026531841/hammer/ops/layer_norm.py:163 in forward, code: x = x.view(-1, shape[-1])
        view_49: "f32[10, 14456][14456, 1]cuda:0" = torch.ops.aten.view.default(cat_4, [-1, 14456]);  cat_4 = None
        
        # File: /mnt/xarfuse/uid-168871/0c2e5a73-seed-nspid4026531836_cgpid310632649-ns-4026531841/generative_recommenders/ops/triton/triton_layer_norm.py:992 in forward, code: y = torch.empty_like(x)
        empty_8: "f32[10, 14456][14456, 1]cuda:0" = torch.ops.aten.empty.memory_format([10, 14456], dtype = torch.float32, layout = torch.strided, device = device(type='cuda', index=0), pin_memory = False)
        
        # File: /mnt/xarfuse/uid-168871/0c2e5a73-seed-nspid4026531836_cgpid310632649-ns-4026531841/generative_recommenders/ops/triton/triton_layer_norm.py:993 in forward, code: rstd = torch.empty((N,), dtype=torch.float32, device=x.device)
        empty_9: "f32[10][1]cuda:0" = torch.ops.aten.empty.memory_format([10], dtype = torch.float32, device = device(type='cuda', index=0), pin_memory = False)
        
        # File: /mnt/xarfuse/uid-168871/0c2e5a73-seed-nspid4026531836_cgpid310632649-ns-4026531841/generative_recommenders/ops/triton/triton_layer_norm.py:1010 in forward, code: _weighted_rms_norm_fwd[grid](
        triton_kernel_wrapper_functional_proxy_4 = torch.ops.higher_order.triton_kernel_wrapper_functional(kernel_idx = 4, constant_args_idx = 28, grid = [(10, 1, 1), (10, 1, 1), (3, 1, 1), (3, 1, 1), (1, 1, 1), (1, 1, 1)], tma_descriptor_metadata = {}, kwargs = {'X': view_49, 'Y': empty_8, 'W': primals_45, 'Rstd': empty_9}, tensors_to_clone = ['Y', 'Rstd']);  empty_8 = empty_9 = None
        getitem_12: "f32[10, 14456][14456, 1]cuda:0" = triton_kernel_wrapper_functional_proxy_4['Y']
        getitem_13: "f32[10][1]cuda:0" = triton_kernel_wrapper_functional_proxy_4['Rstd'];  triton_kernel_wrapper_functional_proxy_4 = None
        
        # File: /mnt/xarfuse/uid-168871/0c2e5a73-seed-nspid4026531836_cgpid310632649-ns-4026531841/hammer/ops/layer_norm.py:166 in forward, code: ).view(shape)
        view_51: "f32[10, 14456][14456, 1]cuda:0" = torch.ops.aten.view.default(getitem_12, [10, 14456]);  getitem_12 = None
        
        # File: /mnt/xarfuse/uid-168871/0c2e5a73-seed-nspid4026531836_cgpid310632649-ns-4026531841/hammer/v2/modules/simple_mlps.py:168 in forward, code: output = mlp(output)
        convert_element_type_99: "bf16[10, 14456][14456, 1]cuda:0" = torch.ops.prims.convert_element_type.default(view_51, torch.bfloat16);  view_51 = None
        convert_element_type_100: "bf16[2048, 14456][14456, 1]cuda:0" = torch.ops.prims.convert_element_type.default(primals_46, torch.bfloat16);  primals_46 = None
        permute_21: "bf16[14456, 2048][1, 14456]cuda:0" = torch.ops.aten.permute.default(convert_element_type_100, [1, 0]);  convert_element_type_100 = None
        mm_14: "bf16[10, 2048][2048, 1]cuda:0" = torch.ops.aten.mm.default(convert_element_type_99, permute_21)
        
        # File: /mnt/xarfuse/uid-168871/0c2e5a73-seed-nspid4026531836_cgpid310632649-ns-4026531841/hammer/ops/layer_norm.py:163 in forward, code: x = x.view(-1, shape[-1])
        view_52: "bf16[10, 2048][2048, 1]cuda:0" = torch.ops.aten.view.default(mm_14, [-1, 2048]);  mm_14 = None
        
        # File: /mnt/xarfuse/uid-168871/0c2e5a73-seed-nspid4026531836_cgpid310632649-ns-4026531841/generative_recommenders/ops/pytorch/pt_layer_norm.py:49 in pytorch_rms_norm, code: x_float = x.to(torch.float32)
        convert_element_type_103: "f32[10, 2048][2048, 1]cuda:0" = torch.ops.prims.convert_element_type.default(view_52, torch.float32);  view_52 = None
        
        # File: /mnt/xarfuse/uid-168871/0c2e5a73-seed-nspid4026531836_cgpid310632649-ns-4026531841/torch/nn/functional.py:2954 in rms_norm, code: return torch.rms_norm(input, normalized_shape, weight, eps)
        pow_12: "f32[10, 2048][2048, 1]cuda:0" = torch.ops.aten.pow.Tensor_Scalar(convert_element_type_103, 2)
        mean_11: "f32[10, 1][1, 1]cuda:0" = torch.ops.aten.mean.dim(pow_12, [1], True);  pow_12 = None
        add_17: "f32[10, 1][1, 1]cuda:0" = torch.ops.aten.add.Scalar(mean_11, 1e-05);  mean_11 = None
        rsqrt_11: "f32[10, 1][1, 1]cuda:0" = torch.ops.aten.rsqrt.default(add_17);  add_17 = None
        mul_23: "f32[10, 2048][2048, 1]cuda:0" = torch.ops.aten.mul.Tensor(convert_element_type_103, rsqrt_11)
        mul_24: "f32[10, 2048][2048, 1]cuda:0" = torch.ops.aten.mul.Tensor(mul_23, primals_47);  mul_23 = None
        alias_13: "f32[10, 1][1, 1]cuda:0" = torch.ops.aten.alias.default(rsqrt_11);  rsqrt_11 = None
        
        # File: /mnt/xarfuse/uid-168871/0c2e5a73-seed-nspid4026531836_cgpid310632649-ns-4026531841/generative_recommenders/ops/pytorch/pt_layer_norm.py:58 in pytorch_rms_norm, code: return normalized.to(dtype)
        convert_element_type_104: "bf16[10, 2048][2048, 1]cuda:0" = torch.ops.prims.convert_element_type.default(mul_24, torch.bfloat16);  mul_24 = None
        
        # File: /mnt/xarfuse/uid-168871/0c2e5a73-seed-nspid4026531836_cgpid310632649-ns-4026531841/hammer/ops/layer_norm.py:166 in forward, code: ).view(shape)
        view_53: "bf16[10, 2048][2048, 1]cuda:0" = torch.ops.aten.view.default(convert_element_type_104, [10, 2048]);  convert_element_type_104 = None
        
        # File: /mnt/xarfuse/uid-168871/0c2e5a73-seed-nspid4026531836_cgpid310632649-ns-4026531841/hammer/v2/modules/simple_mlps.py:170 in forward, code: output = residual_tensor = activation(output)
        convert_element_type_105: "f32[10, 2048][2048, 1]cuda:0" = torch.ops.prims.convert_element_type.default(view_53, torch.float32)
        neg_5: "f32[10, 2048][2048, 1]cuda:0" = torch.ops.aten.neg.default(convert_element_type_105)
        exp_5: "f32[10, 2048][2048, 1]cuda:0" = torch.ops.aten.exp.default(neg_5);  neg_5 = None
        add_18: "f32[10, 2048][2048, 1]cuda:0" = torch.ops.aten.add.Tensor(exp_5, 1);  exp_5 = None
        div_5: "f32[10, 2048][2048, 1]cuda:0" = torch.ops.aten.div.Tensor(convert_element_type_105, add_18);  convert_element_type_105 = add_18 = None
        convert_element_type_106: "bf16[10, 2048][2048, 1]cuda:0" = torch.ops.prims.convert_element_type.default(div_5, torch.bfloat16);  div_5 = None
        
        # File: /mnt/xarfuse/uid-168871/0c2e5a73-seed-nspid4026531836_cgpid310632649-ns-4026531841/hammer/v2/modules/simple_mlps.py:168 in forward, code: output = mlp(output)
        convert_element_type_107: "bf16[1024, 2048][2048, 1]cuda:0" = torch.ops.prims.convert_element_type.default(primals_48, torch.bfloat16);  primals_48 = None
        permute_22: "bf16[2048, 1024][1, 2048]cuda:0" = torch.ops.aten.permute.default(convert_element_type_107, [1, 0]);  convert_element_type_107 = None
        mm_15: "bf16[10, 1024][1024, 1]cuda:0" = torch.ops.aten.mm.default(convert_element_type_106, permute_22)
        
        # File: /mnt/xarfuse/uid-168871/0c2e5a73-seed-nspid4026531836_cgpid310632649-ns-4026531841/hammer/ops/layer_norm.py:163 in forward, code: x = x.view(-1, shape[-1])
        view_54: "bf16[10, 1024][1024, 1]cuda:0" = torch.ops.aten.view.default(mm_15, [-1, 1024]);  mm_15 = None
        
        # File: /mnt/xarfuse/uid-168871/0c2e5a73-seed-nspid4026531836_cgpid310632649-ns-4026531841/generative_recommenders/ops/pytorch/pt_layer_norm.py:49 in pytorch_rms_norm, code: x_float = x.to(torch.float32)
        convert_element_type_110: "f32[10, 1024][1024, 1]cuda:0" = torch.ops.prims.convert_element_type.default(view_54, torch.float32);  view_54 = None
        
        # File: /mnt/xarfuse/uid-168871/0c2e5a73-seed-nspid4026531836_cgpid310632649-ns-4026531841/torch/nn/functional.py:2954 in rms_norm, code: return torch.rms_norm(input, normalized_shape, weight, eps)
        pow_13: "f32[10, 1024][1024, 1]cuda:0" = torch.ops.aten.pow.Tensor_Scalar(convert_element_type_110, 2)
        mean_12: "f32[10, 1][1, 1]cuda:0" = torch.ops.aten.mean.dim(pow_13, [1], True);  pow_13 = None
        add_19: "f32[10, 1][1, 1]cuda:0" = torch.ops.aten.add.Scalar(mean_12, 1e-05);  mean_12 = None
        rsqrt_12: "f32[10, 1][1, 1]cuda:0" = torch.ops.aten.rsqrt.default(add_19);  add_19 = None
        mul_25: "f32[10, 1024][1024, 1]cuda:0" = torch.ops.aten.mul.Tensor(convert_element_type_110, rsqrt_12)
        mul_26: "f32[10, 1024][1024, 1]cuda:0" = torch.ops.aten.mul.Tensor(mul_25, primals_49);  mul_25 = None
        alias_14: "f32[10, 1][1, 1]cuda:0" = torch.ops.aten.alias.default(rsqrt_12);  rsqrt_12 = None
        
        # File: /mnt/xarfuse/uid-168871/0c2e5a73-seed-nspid4026531836_cgpid310632649-ns-4026531841/generative_recommenders/ops/pytorch/pt_layer_norm.py:58 in pytorch_rms_norm, code: return normalized.to(dtype)
        convert_element_type_111: "bf16[10, 1024][1024, 1]cuda:0" = torch.ops.prims.convert_element_type.default(mul_26, torch.bfloat16);  mul_26 = None
        
        # File: /mnt/xarfuse/uid-168871/0c2e5a73-seed-nspid4026531836_cgpid310632649-ns-4026531841/hammer/ops/layer_norm.py:166 in forward, code: ).view(shape)
        view_55: "bf16[10, 1024][1024, 1]cuda:0" = torch.ops.aten.view.default(convert_element_type_111, [10, 1024]);  convert_element_type_111 = None
        
        # File: /mnt/xarfuse/uid-168871/0c2e5a73-seed-nspid4026531836_cgpid310632649-ns-4026531841/hammer/v2/modules/simple_mlps.py:176 in forward, code: output = activation(output)
        convert_element_type_112: "f32[10, 1024][1024, 1]cuda:0" = torch.ops.prims.convert_element_type.default(view_55, torch.float32)
        neg_6: "f32[10, 1024][1024, 1]cuda:0" = torch.ops.aten.neg.default(convert_element_type_112)
        exp_6: "f32[10, 1024][1024, 1]cuda:0" = torch.ops.aten.exp.default(neg_6);  neg_6 = None
        add_20: "f32[10, 1024][1024, 1]cuda:0" = torch.ops.aten.add.Tensor(exp_6, 1);  exp_6 = None
        div_6: "f32[10, 1024][1024, 1]cuda:0" = torch.ops.aten.div.Tensor(convert_element_type_112, add_20);  convert_element_type_112 = add_20 = None
        convert_element_type_113: "bf16[10, 1024][1024, 1]cuda:0" = torch.ops.prims.convert_element_type.default(div_6, torch.bfloat16);  div_6 = None
        
        # File: /mnt/xarfuse/uid-168871/0c2e5a73-seed-nspid4026531836_cgpid310632649-ns-4026531841/hammer/v2/modules/simple_mlps.py:168 in forward, code: output = mlp(output)
        convert_element_type_114: "bf16[2048, 1024][1024, 1]cuda:0" = torch.ops.prims.convert_element_type.default(primals_50, torch.bfloat16);  primals_50 = None
        permute_23: "bf16[1024, 2048][1, 1024]cuda:0" = torch.ops.aten.permute.default(convert_element_type_114, [1, 0]);  convert_element_type_114 = None
        mm_16: "bf16[10, 2048][2048, 1]cuda:0" = torch.ops.aten.mm.default(convert_element_type_113, permute_23)
        
        # File: /mnt/xarfuse/uid-168871/0c2e5a73-seed-nspid4026531836_cgpid310632649-ns-4026531841/hammer/v2/modules/simple_mlps.py:172 in forward, code: residual_tensor = residual_tensor + output
        add_21: "bf16[10, 2048][2048, 1]cuda:0" = torch.ops.aten.add.Tensor(convert_element_type_106, mm_16);  mm_16 = None
        
        # File: /mnt/xarfuse/uid-168871/0c2e5a73-seed-nspid4026531836_cgpid310632649-ns-4026531841/hammer/ops/layer_norm.py:163 in forward, code: x = x.view(-1, shape[-1])
        view_56: "bf16[10, 2048][2048, 1]cuda:0" = torch.ops.aten.view.default(add_21, [-1, 2048]);  add_21 = None
        
        # File: /mnt/xarfuse/uid-168871/0c2e5a73-seed-nspid4026531836_cgpid310632649-ns-4026531841/generative_recommenders/ops/pytorch/pt_layer_norm.py:49 in pytorch_rms_norm, code: x_float = x.to(torch.float32)
        convert_element_type_117: "f32[10, 2048][2048, 1]cuda:0" = torch.ops.prims.convert_element_type.default(view_56, torch.float32);  view_56 = None
        
        # File: /mnt/xarfuse/uid-168871/0c2e5a73-seed-nspid4026531836_cgpid310632649-ns-4026531841/torch/nn/functional.py:2954 in rms_norm, code: return torch.rms_norm(input, normalized_shape, weight, eps)
        pow_14: "f32[10, 2048][2048, 1]cuda:0" = torch.ops.aten.pow.Tensor_Scalar(convert_element_type_117, 2)
        mean_13: "f32[10, 1][1, 1]cuda:0" = torch.ops.aten.mean.dim(pow_14, [1], True);  pow_14 = None
        add_22: "f32[10, 1][1, 1]cuda:0" = torch.ops.aten.add.Scalar(mean_13, 1e-05);  mean_13 = None
        rsqrt_13: "f32[10, 1][1, 1]cuda:0" = torch.ops.aten.rsqrt.default(add_22);  add_22 = None
        mul_27: "f32[10, 2048][2048, 1]cuda:0" = torch.ops.aten.mul.Tensor(convert_element_type_117, rsqrt_13)
        mul_28: "f32[10, 2048][2048, 1]cuda:0" = torch.ops.aten.mul.Tensor(mul_27, primals_51);  mul_27 = None
        alias_15: "f32[10, 1][1, 1]cuda:0" = torch.ops.aten.alias.default(rsqrt_13);  rsqrt_13 = None
        
        # File: /mnt/xarfuse/uid-168871/0c2e5a73-seed-nspid4026531836_cgpid310632649-ns-4026531841/generative_recommenders/ops/pytorch/pt_layer_norm.py:58 in pytorch_rms_norm, code: return normalized.to(dtype)
        convert_element_type_118: "bf16[10, 2048][2048, 1]cuda:0" = torch.ops.prims.convert_element_type.default(mul_28, torch.bfloat16);  mul_28 = None
        
        # File: /mnt/xarfuse/uid-168871/0c2e5a73-seed-nspid4026531836_cgpid310632649-ns-4026531841/hammer/ops/layer_norm.py:166 in forward, code: ).view(shape)
        view_57: "bf16[10, 2048][2048, 1]cuda:0" = torch.ops.aten.view.default(convert_element_type_118, [10, 2048]);  convert_element_type_118 = None
        
        # File: /mnt/xarfuse/uid-168871/0c2e5a73-seed-nspid4026531836_cgpid310632649-ns-4026531841/hammer/v2/modules/simple_mlps.py:173 in forward, code: residual_tensor = activation(residual_tensor)
        convert_element_type_119: "f32[10, 2048][2048, 1]cuda:0" = torch.ops.prims.convert_element_type.default(view_57, torch.float32)
        neg_7: "f32[10, 2048][2048, 1]cuda:0" = torch.ops.aten.neg.default(convert_element_type_119)
        exp_7: "f32[10, 2048][2048, 1]cuda:0" = torch.ops.aten.exp.default(neg_7);  neg_7 = None
        add_23: "f32[10, 2048][2048, 1]cuda:0" = torch.ops.aten.add.Tensor(exp_7, 1);  exp_7 = None
        div_7: "f32[10, 2048][2048, 1]cuda:0" = torch.ops.aten.div.Tensor(convert_element_type_119, add_23);  convert_element_type_119 = add_23 = None
        convert_element_type_120: "bf16[10, 2048][2048, 1]cuda:0" = torch.ops.prims.convert_element_type.default(div_7, torch.bfloat16);  div_7 = None
        
        # File: /mnt/xarfuse/uid-168871/0c2e5a73-seed-nspid4026531836_cgpid310632649-ns-4026531841/hammer/v2/modules/simple_mlps.py:168 in forward, code: output = mlp(output)
        convert_element_type_121: "bf16[1024, 2048][2048, 1]cuda:0" = torch.ops.prims.convert_element_type.default(primals_52, torch.bfloat16);  primals_52 = None
        permute_24: "bf16[2048, 1024][1, 2048]cuda:0" = torch.ops.aten.permute.default(convert_element_type_121, [1, 0]);  convert_element_type_121 = None
        mm_17: "bf16[10, 1024][1024, 1]cuda:0" = torch.ops.aten.mm.default(convert_element_type_120, permute_24)
        
        # File: /mnt/xarfuse/uid-168871/0c2e5a73-seed-nspid4026531836_cgpid310632649-ns-4026531841/hammer/ops/layer_norm.py:163 in forward, code: x = x.view(-1, shape[-1])
        view_58: "bf16[10, 1024][1024, 1]cuda:0" = torch.ops.aten.view.default(mm_17, [-1, 1024]);  mm_17 = None
        
        # File: /mnt/xarfuse/uid-168871/0c2e5a73-seed-nspid4026531836_cgpid310632649-ns-4026531841/generative_recommenders/ops/pytorch/pt_layer_norm.py:49 in pytorch_rms_norm, code: x_float = x.to(torch.float32)
        convert_element_type_124: "f32[10, 1024][1024, 1]cuda:0" = torch.ops.prims.convert_element_type.default(view_58, torch.float32);  view_58 = None
        
        # File: /mnt/xarfuse/uid-168871/0c2e5a73-seed-nspid4026531836_cgpid310632649-ns-4026531841/torch/nn/functional.py:2954 in rms_norm, code: return torch.rms_norm(input, normalized_shape, weight, eps)
        pow_15: "f32[10, 1024][1024, 1]cuda:0" = torch.ops.aten.pow.Tensor_Scalar(convert_element_type_124, 2)
        mean_14: "f32[10, 1][1, 1]cuda:0" = torch.ops.aten.mean.dim(pow_15, [1], True);  pow_15 = None
        add_24: "f32[10, 1][1, 1]cuda:0" = torch.ops.aten.add.Scalar(mean_14, 1e-05);  mean_14 = None
        rsqrt_14: "f32[10, 1][1, 1]cuda:0" = torch.ops.aten.rsqrt.default(add_24);  add_24 = None
        mul_29: "f32[10, 1024][1024, 1]cuda:0" = torch.ops.aten.mul.Tensor(convert_element_type_124, rsqrt_14)
        mul_30: "f32[10, 1024][1024, 1]cuda:0" = torch.ops.aten.mul.Tensor(mul_29, primals_53);  mul_29 = None
        alias_16: "f32[10, 1][1, 1]cuda:0" = torch.ops.aten.alias.default(rsqrt_14);  rsqrt_14 = None
        
        # File: /mnt/xarfuse/uid-168871/0c2e5a73-seed-nspid4026531836_cgpid310632649-ns-4026531841/generative_recommenders/ops/pytorch/pt_layer_norm.py:58 in pytorch_rms_norm, code: return normalized.to(dtype)
        convert_element_type_125: "bf16[10, 1024][1024, 1]cuda:0" = torch.ops.prims.convert_element_type.default(mul_30, torch.bfloat16);  mul_30 = None
        
        # File: /mnt/xarfuse/uid-168871/0c2e5a73-seed-nspid4026531836_cgpid310632649-ns-4026531841/hammer/ops/layer_norm.py:166 in forward, code: ).view(shape)
        view_59: "bf16[10, 1024][1024, 1]cuda:0" = torch.ops.aten.view.default(convert_element_type_125, [10, 1024]);  convert_element_type_125 = None
        
        # File: /mnt/xarfuse/uid-168871/0c2e5a73-seed-nspid4026531836_cgpid310632649-ns-4026531841/hammer/v2/modules/simple_mlps.py:176 in forward, code: output = activation(output)
        convert_element_type_126: "f32[10, 1024][1024, 1]cuda:0" = torch.ops.prims.convert_element_type.default(view_59, torch.float32)
        neg_8: "f32[10, 1024][1024, 1]cuda:0" = torch.ops.aten.neg.default(convert_element_type_126)
        exp_8: "f32[10, 1024][1024, 1]cuda:0" = torch.ops.aten.exp.default(neg_8);  neg_8 = None
        add_25: "f32[10, 1024][1024, 1]cuda:0" = torch.ops.aten.add.Tensor(exp_8, 1);  exp_8 = None
        div_8: "f32[10, 1024][1024, 1]cuda:0" = torch.ops.aten.div.Tensor(convert_element_type_126, add_25);  convert_element_type_126 = add_25 = None
        convert_element_type_127: "bf16[10, 1024][1024, 1]cuda:0" = torch.ops.prims.convert_element_type.default(div_8, torch.bfloat16);  div_8 = None
        
        # File: /mnt/xarfuse/uid-168871/0c2e5a73-seed-nspid4026531836_cgpid310632649-ns-4026531841/hammer/v2/modules/simple_mlps.py:168 in forward, code: output = mlp(output)
        convert_element_type_128: "bf16[2048, 1024][1024, 1]cuda:0" = torch.ops.prims.convert_element_type.default(primals_54, torch.bfloat16);  primals_54 = None
        permute_25: "bf16[1024, 2048][1, 1024]cuda:0" = torch.ops.aten.permute.default(convert_element_type_128, [1, 0]);  convert_element_type_128 = None
        mm_18: "bf16[10, 2048][2048, 1]cuda:0" = torch.ops.aten.mm.default(convert_element_type_127, permute_25)
        
        # File: /mnt/xarfuse/uid-168871/0c2e5a73-seed-nspid4026531836_cgpid310632649-ns-4026531841/hammer/v2/modules/simple_mlps.py:172 in forward, code: residual_tensor = residual_tensor + output
        add_26: "bf16[10, 2048][2048, 1]cuda:0" = torch.ops.aten.add.Tensor(convert_element_type_120, mm_18);  mm_18 = None
        
        # File: /mnt/xarfuse/uid-168871/0c2e5a73-seed-nspid4026531836_cgpid310632649-ns-4026531841/hammer/ops/layer_norm.py:163 in forward, code: x = x.view(-1, shape[-1])
        view_60: "bf16[10, 2048][2048, 1]cuda:0" = torch.ops.aten.view.default(add_26, [-1, 2048]);  add_26 = None
        
        # File: /mnt/xarfuse/uid-168871/0c2e5a73-seed-nspid4026531836_cgpid310632649-ns-4026531841/generative_recommenders/ops/pytorch/pt_layer_norm.py:49 in pytorch_rms_norm, code: x_float = x.to(torch.float32)
        convert_element_type_131: "f32[10, 2048][2048, 1]cuda:0" = torch.ops.prims.convert_element_type.default(view_60, torch.float32);  view_60 = None
        
        # File: /mnt/xarfuse/uid-168871/0c2e5a73-seed-nspid4026531836_cgpid310632649-ns-4026531841/torch/nn/functional.py:2954 in rms_norm, code: return torch.rms_norm(input, normalized_shape, weight, eps)
        pow_16: "f32[10, 2048][2048, 1]cuda:0" = torch.ops.aten.pow.Tensor_Scalar(convert_element_type_131, 2)
        mean_15: "f32[10, 1][1, 1]cuda:0" = torch.ops.aten.mean.dim(pow_16, [1], True);  pow_16 = None
        add_27: "f32[10, 1][1, 1]cuda:0" = torch.ops.aten.add.Scalar(mean_15, 1e-05);  mean_15 = None
        rsqrt_15: "f32[10, 1][1, 1]cuda:0" = torch.ops.aten.rsqrt.default(add_27);  add_27 = None
        mul_31: "f32[10, 2048][2048, 1]cuda:0" = torch.ops.aten.mul.Tensor(convert_element_type_131, rsqrt_15)
        mul_32: "f32[10, 2048][2048, 1]cuda:0" = torch.ops.aten.mul.Tensor(mul_31, primals_55);  mul_31 = None
        alias_17: "f32[10, 1][1, 1]cuda:0" = torch.ops.aten.alias.default(rsqrt_15);  rsqrt_15 = None
        
        # File: /mnt/xarfuse/uid-168871/0c2e5a73-seed-nspid4026531836_cgpid310632649-ns-4026531841/generative_recommenders/ops/pytorch/pt_layer_norm.py:58 in pytorch_rms_norm, code: return normalized.to(dtype)
        convert_element_type_132: "bf16[10, 2048][2048, 1]cuda:0" = torch.ops.prims.convert_element_type.default(mul_32, torch.bfloat16);  mul_32 = None
        
        # File: /mnt/xarfuse/uid-168871/0c2e5a73-seed-nspid4026531836_cgpid310632649-ns-4026531841/hammer/ops/layer_norm.py:166 in forward, code: ).view(shape)
        view_61: "bf16[10, 2048][2048, 1]cuda:0" = torch.ops.aten.view.default(convert_element_type_132, [10, 2048]);  convert_element_type_132 = None
        
        # File: /mnt/xarfuse/uid-168871/0c2e5a73-seed-nspid4026531836_cgpid310632649-ns-4026531841/hammer/v2/modules/simple_mlps.py:173 in forward, code: residual_tensor = activation(residual_tensor)
        convert_element_type_133: "f32[10, 2048][2048, 1]cuda:0" = torch.ops.prims.convert_element_type.default(view_61, torch.float32)
        neg_9: "f32[10, 2048][2048, 1]cuda:0" = torch.ops.aten.neg.default(convert_element_type_133)
        exp_9: "f32[10, 2048][2048, 1]cuda:0" = torch.ops.aten.exp.default(neg_9);  neg_9 = None
        add_28: "f32[10, 2048][2048, 1]cuda:0" = torch.ops.aten.add.Tensor(exp_9, 1);  exp_9 = None
        div_9: "f32[10, 2048][2048, 1]cuda:0" = torch.ops.aten.div.Tensor(convert_element_type_133, add_28);  convert_element_type_133 = add_28 = None
        convert_element_type_134: "bf16[10, 2048][2048, 1]cuda:0" = torch.ops.prims.convert_element_type.default(div_9, torch.bfloat16);  div_9 = None
        
        # File: /mnt/xarfuse/uid-168871/0c2e5a73-seed-nspid4026531836_cgpid310632649-ns-4026531841/hammer/v2/modules/simple_mlps.py:179 in forward, code: output = self._output_proj(output)
        convert_element_type_135: "bf16[8192, 2048][2048, 1]cuda:0" = torch.ops.prims.convert_element_type.default(primals_56, torch.bfloat16);  primals_56 = None
        permute_26: "bf16[2048, 8192][1, 2048]cuda:0" = torch.ops.aten.permute.default(convert_element_type_135, [1, 0]);  convert_element_type_135 = None
        mm_19: "bf16[10, 8192][8192, 1]cuda:0" = torch.ops.aten.mm.default(convert_element_type_134, permute_26)
        
        # File: /mnt/xarfuse/uid-168871/0c2e5a73-seed-nspid4026531836_cgpid310632649-ns-4026531841/minimal_viable_ai/models/ig_ranking/lsr/nano_rl/rlnn.py:404 in forward, code: x = x.reshape(x.shape[0], -1, self.config.embedding_dim)
        view_62: "bf16[10, 32, 256][8192, 256, 1]cuda:0" = torch.ops.aten.view.default(mm_19, [10, -1, 256]);  mm_19 = None
        
        # File: /mnt/xarfuse/uid-168871/0c2e5a73-seed-nspid4026531836_cgpid310632649-ns-4026531841/minimal_viable_ai/models/ig_ranking/lsr/nano_rl/rlnn.py:405 in forward, code: x = torch.cat([x, fuse_x], dim=1)
        cat_5: "bf16[10, 64, 256][16384, 256, 1]cuda:0" = torch.ops.aten.cat.default([view_62, getitem_9], 1);  view_62 = getitem_9 = None
        
        # File: /mnt/xarfuse/uid-168871/0c2e5a73-seed-nspid4026531836_cgpid310632649-ns-4026531841/minimal_viable_ai/models/ig_ranking/lsr/nano_rl/rlnn.py:406 in forward, code: x = x + res_x
        add_29: "bf16[10, 64, 256][16384, 256, 1]cuda:0" = torch.ops.aten.add.Tensor(cat_5, getitem_8);  cat_5 = getitem_8 = None
        
        # File: /mnt/xarfuse/uid-168871/0c2e5a73-seed-nspid4026531836_cgpid310632649-ns-4026531841/hammer/ops/layer_norm.py:163 in forward, code: x = x.view(-1, shape[-1])
        view_63: "bf16[640, 256][256, 1]cuda:0" = torch.ops.aten.view.default(add_29, [-1, 256]);  add_29 = None
        
        # File: /mnt/xarfuse/uid-168871/0c2e5a73-seed-nspid4026531836_cgpid310632649-ns-4026531841/generative_recommenders/ops/triton/triton_layer_norm.py:992 in forward, code: y = torch.empty_like(x)
        empty_10: "bf16[640, 256][256, 1]cuda:0" = torch.ops.aten.empty.memory_format([640, 256], dtype = torch.bfloat16, layout = torch.strided, device = device(type='cuda', index=0), pin_memory = False)
        
        # File: /mnt/xarfuse/uid-168871/0c2e5a73-seed-nspid4026531836_cgpid310632649-ns-4026531841/generative_recommenders/ops/triton/triton_layer_norm.py:993 in forward, code: rstd = torch.empty((N,), dtype=torch.float32, device=x.device)
        empty_11: "f32[640][1]cuda:0" = torch.ops.aten.empty.memory_format([640], dtype = torch.float32, device = device(type='cuda', index=0), pin_memory = False)
        
        # File: /mnt/xarfuse/uid-168871/0c2e5a73-seed-nspid4026531836_cgpid310632649-ns-4026531841/generative_recommenders/ops/triton/triton_layer_norm.py:1010 in forward, code: _weighted_rms_norm_fwd[grid](
        triton_kernel_wrapper_functional_proxy_5 = torch.ops.higher_order.triton_kernel_wrapper_functional(kernel_idx = 4, constant_args_idx = 30, grid = [(640, 1, 1), (640, 1, 1), (160, 1, 1), (160, 1, 1), (40, 1, 1), (40, 1, 1)], tma_descriptor_metadata = {}, kwargs = {'X': view_63, 'Y': empty_10, 'W': primals_57, 'Rstd': empty_11}, tensors_to_clone = ['Y', 'Rstd']);  empty_10 = empty_11 = None
        getitem_14: "bf16[640, 256][256, 1]cuda:0" = triton_kernel_wrapper_functional_proxy_5['Y']
        getitem_15: "f32[640][1]cuda:0" = triton_kernel_wrapper_functional_proxy_5['Rstd'];  triton_kernel_wrapper_functional_proxy_5 = None
        
        # File: /mnt/xarfuse/uid-168871/0c2e5a73-seed-nspid4026531836_cgpid310632649-ns-4026531841/hammer/ops/layer_norm.py:166 in forward, code: ).view(shape)
        view_65: "bf16[10, 64, 256][16384, 256, 1]cuda:0" = torch.ops.aten.view.default(getitem_14, [10, 64, 256])
        
        # File: /mnt/xarfuse/uid-168871/0c2e5a73-seed-nspid4026531836_cgpid310632649-ns-4026531841/hammer/v2/modules/simple_mlps.py:229 in forward, code: x = self.linear(x)  # [b, d, n']
        convert_element_type_138: "bf16[80, 64][64, 1]cuda:0" = torch.ops.prims.convert_element_type.default(primals_58, torch.bfloat16);  primals_58 = None
        permute_28: "bf16[64, 80][1, 64]cuda:0" = torch.ops.aten.permute.default(convert_element_type_138, [1, 0]);  convert_element_type_138 = None
        
        # File: /mnt/xarfuse/uid-168871/0c2e5a73-seed-nspid4026531836_cgpid310632649-ns-4026531841/hammer/v2/modules/simple_mlps.py:228 in forward, code: x = x.transpose(1, 2)  # [b, d, n]
        view_66: "bf16[10, 64, 256][16384, 256, 1]cuda:0" = torch.ops.aten.view.default(getitem_14, [10, 64, 256])
        permute_29: "bf16[10, 256, 64][16384, 1, 256]cuda:0" = torch.ops.aten.permute.default(view_66, [0, 2, 1]);  view_66 = None
        
        # File: /mnt/xarfuse/uid-168871/0c2e5a73-seed-nspid4026531836_cgpid310632649-ns-4026531841/hammer/v2/modules/simple_mlps.py:229 in forward, code: x = self.linear(x)  # [b, d, n']
        clone_3: "bf16[10, 256, 64][16384, 64, 1]cuda:0" = torch.ops.aten.clone.default(permute_29, memory_format = torch.contiguous_format);  permute_29 = None
        view_67: "bf16[2560, 64][64, 1]cuda:0" = torch.ops.aten.view.default(clone_3, [2560, 64]);  clone_3 = None
        mm_20: "bf16[2560, 80][80, 1]cuda:0" = torch.ops.aten.mm.default(view_67, permute_28)
        view_68: "bf16[10, 256, 80][20480, 80, 1]cuda:0" = torch.ops.aten.view.default(mm_20, [10, 256, 80]);  mm_20 = None
        
        # File: /mnt/xarfuse/uid-168871/0c2e5a73-seed-nspid4026531836_cgpid310632649-ns-4026531841/hammer/v2/modules/simple_mlps.py:230 in forward, code: x = x.transpose(1, 2)  # [b, n', d]
        permute_30: "bf16[10, 80, 256][20480, 1, 80]cuda:0" = torch.ops.aten.permute.default(view_68, [0, 2, 1]);  view_68 = None
        
        # File: /mnt/xarfuse/uid-168871/0c2e5a73-seed-nspid4026531836_cgpid310632649-ns-4026531841/hammer/v2/modules/simple_mlps.py:292 in forward, code: lce_outputs = torch.split(y, self.lce_splits, dim=1)
        split_with_sizes_1 = torch.ops.aten.split_with_sizes.default(permute_30, [32, 32, 16], 1);  permute_30 = None
        getitem_16: "bf16[10, 32, 256][20480, 1, 80]cuda:0" = split_with_sizes_1[0]
        getitem_17: "bf16[10, 32, 256][20480, 1, 80]cuda:0" = split_with_sizes_1[1]
        getitem_18: "bf16[10, 16, 256][20480, 1, 80]cuda:0" = split_with_sizes_1[2];  split_with_sizes_1 = None
        
        # File: /mnt/xarfuse/uid-168871/0c2e5a73-seed-nspid4026531836_cgpid310632649-ns-4026531841/minimal_viable_ai/models/ig_ranking/lsr/nano_rl/rlnn_modules.py:808 in forward, code: v = self.v_proj(x_proj.reshape(x_proj.shape[0], -1))
        clone_4: "bf16[10, 32, 256][8192, 256, 1]cuda:0" = torch.ops.aten.clone.default(getitem_17, memory_format = torch.contiguous_format);  getitem_17 = None
        view_69: "bf16[10, 8192][8192, 1]cuda:0" = torch.ops.aten.view.default(clone_4, [10, 8192]);  clone_4 = None
        
        # File: /mnt/xarfuse/uid-168871/0c2e5a73-seed-nspid4026531836_cgpid310632649-ns-4026531841/hammer/v2/modules/simple_mlps.py:168 in forward, code: output = mlp(output)
        convert_element_type_141: "bf16[512, 8192][8192, 1]cuda:0" = torch.ops.prims.convert_element_type.default(primals_59, torch.bfloat16);  primals_59 = None
        permute_31: "bf16[8192, 512][1, 8192]cuda:0" = torch.ops.aten.permute.default(convert_element_type_141, [1, 0]);  convert_element_type_141 = None
        mm_21: "bf16[10, 512][512, 1]cuda:0" = torch.ops.aten.mm.default(view_69, permute_31)
        
        # File: /mnt/xarfuse/uid-168871/0c2e5a73-seed-nspid4026531836_cgpid310632649-ns-4026531841/hammer/ops/layer_norm.py:163 in forward, code: x = x.view(-1, shape[-1])
        view_70: "bf16[10, 512][512, 1]cuda:0" = torch.ops.aten.view.default(mm_21, [-1, 512]);  mm_21 = None
        
        # File: /mnt/xarfuse/uid-168871/0c2e5a73-seed-nspid4026531836_cgpid310632649-ns-4026531841/generative_recommenders/ops/pytorch/pt_layer_norm.py:49 in pytorch_rms_norm, code: x_float = x.to(torch.float32)
        convert_element_type_144: "f32[10, 512][512, 1]cuda:0" = torch.ops.prims.convert_element_type.default(view_70, torch.float32);  view_70 = None
        
        # File: /mnt/xarfuse/uid-168871/0c2e5a73-seed-nspid4026531836_cgpid310632649-ns-4026531841/torch/nn/functional.py:2954 in rms_norm, code: return torch.rms_norm(input, normalized_shape, weight, eps)
        pow_17: "f32[10, 512][512, 1]cuda:0" = torch.ops.aten.pow.Tensor_Scalar(convert_element_type_144, 2)
        mean_16: "f32[10, 1][1, 1]cuda:0" = torch.ops.aten.mean.dim(pow_17, [1], True);  pow_17 = None
        add_30: "f32[10, 1][1, 1]cuda:0" = torch.ops.aten.add.Scalar(mean_16, 1e-05);  mean_16 = None
        rsqrt_16: "f32[10, 1][1, 1]cuda:0" = torch.ops.aten.rsqrt.default(add_30);  add_30 = None
        mul_33: "f32[10, 512][512, 1]cuda:0" = torch.ops.aten.mul.Tensor(convert_element_type_144, rsqrt_16)
        mul_34: "f32[10, 512][512, 1]cuda:0" = torch.ops.aten.mul.Tensor(mul_33, primals_60);  mul_33 = None
        alias_18: "f32[10, 1][1, 1]cuda:0" = torch.ops.aten.alias.default(rsqrt_16);  rsqrt_16 = None
        
        # File: /mnt/xarfuse/uid-168871/0c2e5a73-seed-nspid4026531836_cgpid310632649-ns-4026531841/generative_recommenders/ops/pytorch/pt_layer_norm.py:58 in pytorch_rms_norm, code: return normalized.to(dtype)
        convert_element_type_145: "bf16[10, 512][512, 1]cuda:0" = torch.ops.prims.convert_element_type.default(mul_34, torch.bfloat16);  mul_34 = None
        
        # File: /mnt/xarfuse/uid-168871/0c2e5a73-seed-nspid4026531836_cgpid310632649-ns-4026531841/hammer/ops/layer_norm.py:166 in forward, code: ).view(shape)
        view_71: "bf16[10, 512][512, 1]cuda:0" = torch.ops.aten.view.default(convert_element_type_145, [10, 512]);  convert_element_type_145 = None
        
        # File: /mnt/xarfuse/uid-168871/0c2e5a73-seed-nspid4026531836_cgpid310632649-ns-4026531841/hammer/v2/modules/simple_mlps.py:170 in forward, code: output = residual_tensor = activation(output)
        convert_element_type_146: "f32[10, 512][512, 1]cuda:0" = torch.ops.prims.convert_element_type.default(view_71, torch.float32)
        neg_10: "f32[10, 512][512, 1]cuda:0" = torch.ops.aten.neg.default(convert_element_type_146)
        exp_10: "f32[10, 512][512, 1]cuda:0" = torch.ops.aten.exp.default(neg_10);  neg_10 = None
        add_31: "f32[10, 512][512, 1]cuda:0" = torch.ops.aten.add.Tensor(exp_10, 1);  exp_10 = None
        div_10: "f32[10, 512][512, 1]cuda:0" = torch.ops.aten.div.Tensor(convert_element_type_146, add_31);  convert_element_type_146 = add_31 = None
        convert_element_type_147: "bf16[10, 512][512, 1]cuda:0" = torch.ops.prims.convert_element_type.default(div_10, torch.bfloat16);  div_10 = None
        
        # File: /mnt/xarfuse/uid-168871/0c2e5a73-seed-nspid4026531836_cgpid310632649-ns-4026531841/hammer/v2/modules/simple_mlps.py:179 in forward, code: output = self._output_proj(output)
        convert_element_type_148: "bf16[2048, 512][512, 1]cuda:0" = torch.ops.prims.convert_element_type.default(primals_61, torch.bfloat16);  primals_61 = None
        permute_32: "bf16[512, 2048][1, 512]cuda:0" = torch.ops.aten.permute.default(convert_element_type_148, [1, 0]);  convert_element_type_148 = None
        mm_22: "bf16[10, 2048][2048, 1]cuda:0" = torch.ops.aten.mm.default(convert_element_type_147, permute_32)
        
        # File: /mnt/xarfuse/uid-168871/0c2e5a73-seed-nspid4026531836_cgpid310632649-ns-4026531841/minimal_viable_ai/models/ig_ranking/lsr/nano_rl/rlnn_modules.py:809 in forward, code: v = v.reshape(v.shape[0], -1, x.shape[1])  # [b, v, n']
        view_72: "bf16[10, 32, 64][2048, 64, 1]cuda:0" = torch.ops.aten.view.default(mm_22, [10, -1, 64]);  mm_22 = None
        
        # File: /mnt/xarfuse/uid-168871/0c2e5a73-seed-nspid4026531836_cgpid310632649-ns-4026531841/minimal_viable_ai/models/ig_ranking/lsr/nano_rl/rlnn_modules.py:811 in forward, code: vx = v @ x  # [b, v, dim]
        expand_4: "bf16[10, 32, 64][2048, 64, 1]cuda:0" = torch.ops.aten.expand.default(view_72, [10, 32, 64]);  view_72 = None
        view_73: "bf16[10, 32, 64][2048, 64, 1]cuda:0" = torch.ops.aten.view.default(expand_4, [10, 32, 64]);  expand_4 = None
        view_76: "bf16[10, 64, 256][16384, 256, 1]cuda:0" = torch.ops.aten.view.default(getitem_14, [10, 64, 256])
        expand_7: "bf16[10, 64, 256][16384, 256, 1]cuda:0" = torch.ops.aten.expand.default(view_76, [10, 64, 256]);  view_76 = None
        view_77: "bf16[10, 64, 256][16384, 256, 1]cuda:0" = torch.ops.aten.view.default(expand_7, [10, 64, 256]);  expand_7 = None
        bmm_2: "bf16[10, 32, 256][8192, 256, 1]cuda:0" = torch.ops.aten.bmm.default(view_73, view_77);  view_77 = None
        view_78: "bf16[10, 32, 256][8192, 256, 1]cuda:0" = torch.ops.aten.view.default(bmm_2, [10, 32, 256]);  bmm_2 = None
        
        # File: /mnt/xarfuse/uid-168871/0c2e5a73-seed-nspid4026531836_cgpid310632649-ns-4026531841/minimal_viable_ai/models/ig_ranking/lsr/nano_rl/rlnn_modules.py:813 in forward, code: res = vx @ x.transpose(1, 2)  # res: [b, v, n']
        expand_8: "bf16[10, 32, 256][8192, 256, 1]cuda:0" = torch.ops.aten.expand.default(view_78, [10, 32, 256]);  view_78 = None
        view_79: "bf16[10, 32, 256][8192, 256, 1]cuda:0" = torch.ops.aten.view.default(expand_8, [10, 32, 256]);  expand_8 = None
        view_83: "bf16[10, 64, 256][16384, 256, 1]cuda:0" = torch.ops.aten.view.default(getitem_14, [10, 64, 256])
        permute_36: "bf16[10, 256, 64][16384, 1, 256]cuda:0" = torch.ops.aten.permute.default(view_83, [0, 2, 1]);  view_83 = None
        expand_11: "bf16[10, 256, 64][16384, 1, 256]cuda:0" = torch.ops.aten.expand.default(permute_36, [10, 256, 64]);  permute_36 = None
        view_84: "bf16[10, 256, 64][16384, 1, 256]cuda:0" = torch.ops.aten.view.default(expand_11, [10, 256, 64]);  expand_11 = None
        bmm_3: "bf16[10, 32, 64][2048, 64, 1]cuda:0" = torch.ops.aten.bmm.default(view_79, view_84);  view_84 = None
        view_85: "bf16[10, 32, 64][2048, 64, 1]cuda:0" = torch.ops.aten.view.default(bmm_3, [10, 32, 64]);  bmm_3 = None
        
        # File: /mnt/xarfuse/uid-168871/0c2e5a73-seed-nspid4026531836_cgpid310632649-ns-4026531841/minimal_viable_ai/models/ig_ranking/lsr/nano_rl/rlnn.py:393 in forward, code: x = x.reshape(x.shape[0], -1)
        view_86: "bf16[10, 2048][2048, 1]cuda:0" = torch.ops.aten.view.default(view_85, [10, -1]);  view_85 = None
        
        # File: /mnt/xarfuse/uid-168871/0c2e5a73-seed-nspid4026531836_cgpid310632649-ns-4026531841/minimal_viable_ai/models/ig_ranking/lsr/nano_rl/rlnn.py:395 in forward, code: x = torch.cat([x, fm_x.reshape(x.shape[0], -1)], dim=1)
        clone_5: "bf16[10, 16, 256][4096, 256, 1]cuda:0" = torch.ops.aten.clone.default(getitem_18, memory_format = torch.contiguous_format);  getitem_18 = None
        view_87: "bf16[10, 4096][4096, 1]cuda:0" = torch.ops.aten.view.default(clone_5, [10, 4096]);  clone_5 = None
        cat_6: "bf16[10, 6144][6144, 1]cuda:0" = torch.ops.aten.cat.default([view_86, view_87], 1);  view_86 = view_87 = None
        
        # File: /mnt/xarfuse/uid-168871/0c2e5a73-seed-nspid4026531836_cgpid310632649-ns-4026531841/minimal_viable_ai/models/ig_ranking/lsr/nano_rl/rlnn.py:398 in forward, code: x = torch.cat([x, dense_proj], dim=1)
        cat_7: "f32[10, 8472][8472, 1]cuda:0" = torch.ops.aten.cat.default([cat_6, view_48], 1);  cat_6 = None
        
        # File: /mnt/xarfuse/uid-168871/0c2e5a73-seed-nspid4026531836_cgpid310632649-ns-4026531841/hammer/ops/layer_norm.py:163 in forward, code: x = x.view(-1, shape[-1])
        view_88: "f32[10, 8472][8472, 1]cuda:0" = torch.ops.aten.view.default(cat_7, [-1, 8472]);  cat_7 = None
        
        # File: /mnt/xarfuse/uid-168871/0c2e5a73-seed-nspid4026531836_cgpid310632649-ns-4026531841/generative_recommenders/ops/triton/triton_layer_norm.py:992 in forward, code: y = torch.empty_like(x)
        empty_12: "f32[10, 8472][8472, 1]cuda:0" = torch.ops.aten.empty.memory_format([10, 8472], dtype = torch.float32, layout = torch.strided, device = device(type='cuda', index=0), pin_memory = False)
        
        # File: /mnt/xarfuse/uid-168871/0c2e5a73-seed-nspid4026531836_cgpid310632649-ns-4026531841/generative_recommenders/ops/triton/triton_layer_norm.py:993 in forward, code: rstd = torch.empty((N,), dtype=torch.float32, device=x.device)
        empty_13: "f32[10][1]cuda:0" = torch.ops.aten.empty.memory_format([10], dtype = torch.float32, device = device(type='cuda', index=0), pin_memory = False)
        
        # File: /mnt/xarfuse/uid-168871/0c2e5a73-seed-nspid4026531836_cgpid310632649-ns-4026531841/generative_recommenders/ops/triton/triton_layer_norm.py:1010 in forward, code: _weighted_rms_norm_fwd[grid](
        triton_kernel_wrapper_functional_proxy_6 = torch.ops.higher_order.triton_kernel_wrapper_functional(kernel_idx = 4, constant_args_idx = 32, grid = [(10, 1, 1), (10, 1, 1), (3, 1, 1), (3, 1, 1), (1, 1, 1), (1, 1, 1)], tma_descriptor_metadata = {}, kwargs = {'X': view_88, 'Y': empty_12, 'W': primals_62, 'Rstd': empty_13}, tensors_to_clone = ['Y', 'Rstd']);  empty_12 = empty_13 = None
        getitem_19: "f32[10, 8472][8472, 1]cuda:0" = triton_kernel_wrapper_functional_proxy_6['Y']
        getitem_20: "f32[10][1]cuda:0" = triton_kernel_wrapper_functional_proxy_6['Rstd'];  triton_kernel_wrapper_functional_proxy_6 = None
        
        # File: /mnt/xarfuse/uid-168871/0c2e5a73-seed-nspid4026531836_cgpid310632649-ns-4026531841/hammer/ops/layer_norm.py:166 in forward, code: ).view(shape)
        view_90: "f32[10, 8472][8472, 1]cuda:0" = torch.ops.aten.view.default(getitem_19, [10, 8472]);  getitem_19 = None
        
        # File: /mnt/xarfuse/uid-168871/0c2e5a73-seed-nspid4026531836_cgpid310632649-ns-4026531841/hammer/v2/modules/simple_mlps.py:168 in forward, code: output = mlp(output)
        convert_element_type_155: "bf16[10, 8472][8472, 1]cuda:0" = torch.ops.prims.convert_element_type.default(view_90, torch.bfloat16);  view_90 = None
        convert_element_type_156: "bf16[2048, 8472][8472, 1]cuda:0" = torch.ops.prims.convert_element_type.default(primals_63, torch.bfloat16);  primals_63 = None
        permute_37: "bf16[8472, 2048][1, 8472]cuda:0" = torch.ops.aten.permute.default(convert_element_type_156, [1, 0]);  convert_element_type_156 = None
        mm_23: "bf16[10, 2048][2048, 1]cuda:0" = torch.ops.aten.mm.default(convert_element_type_155, permute_37)
        
        # File: /mnt/xarfuse/uid-168871/0c2e5a73-seed-nspid4026531836_cgpid310632649-ns-4026531841/hammer/ops/layer_norm.py:163 in forward, code: x = x.view(-1, shape[-1])
        view_91: "bf16[10, 2048][2048, 1]cuda:0" = torch.ops.aten.view.default(mm_23, [-1, 2048]);  mm_23 = None
        
        # File: /mnt/xarfuse/uid-168871/0c2e5a73-seed-nspid4026531836_cgpid310632649-ns-4026531841/generative_recommenders/ops/pytorch/pt_layer_norm.py:49 in pytorch_rms_norm, code: x_float = x.to(torch.float32)
        convert_element_type_159: "f32[10, 2048][2048, 1]cuda:0" = torch.ops.prims.convert_element_type.default(view_91, torch.float32);  view_91 = None
        
        # File: /mnt/xarfuse/uid-168871/0c2e5a73-seed-nspid4026531836_cgpid310632649-ns-4026531841/torch/nn/functional.py:2954 in rms_norm, code: return torch.rms_norm(input, normalized_shape, weight, eps)
        pow_18: "f32[10, 2048][2048, 1]cuda:0" = torch.ops.aten.pow.Tensor_Scalar(convert_element_type_159, 2)
        mean_17: "f32[10, 1][1, 1]cuda:0" = torch.ops.aten.mean.dim(pow_18, [1], True);  pow_18 = None
        add_32: "f32[10, 1][1, 1]cuda:0" = torch.ops.aten.add.Scalar(mean_17, 1e-05);  mean_17 = None
        rsqrt_17: "f32[10, 1][1, 1]cuda:0" = torch.ops.aten.rsqrt.default(add_32);  add_32 = None
        mul_35: "f32[10, 2048][2048, 1]cuda:0" = torch.ops.aten.mul.Tensor(convert_element_type_159, rsqrt_17)
        mul_36: "f32[10, 2048][2048, 1]cuda:0" = torch.ops.aten.mul.Tensor(mul_35, primals_64);  mul_35 = None
        alias_19: "f32[10, 1][1, 1]cuda:0" = torch.ops.aten.alias.default(rsqrt_17);  rsqrt_17 = None
        
        # File: /mnt/xarfuse/uid-168871/0c2e5a73-seed-nspid4026531836_cgpid310632649-ns-4026531841/generative_recommenders/ops/pytorch/pt_layer_norm.py:58 in pytorch_rms_norm, code: return normalized.to(dtype)
        convert_element_type_160: "bf16[10, 2048][2048, 1]cuda:0" = torch.ops.prims.convert_element_type.default(mul_36, torch.bfloat16);  mul_36 = None
        
        # File: /mnt/xarfuse/uid-168871/0c2e5a73-seed-nspid4026531836_cgpid310632649-ns-4026531841/hammer/ops/layer_norm.py:166 in forward, code: ).view(shape)
        view_92: "bf16[10, 2048][2048, 1]cuda:0" = torch.ops.aten.view.default(convert_element_type_160, [10, 2048]);  convert_element_type_160 = None
        
        # File: /mnt/xarfuse/uid-168871/0c2e5a73-seed-nspid4026531836_cgpid310632649-ns-4026531841/hammer/v2/modules/simple_mlps.py:170 in forward, code: output = residual_tensor = activation(output)
        convert_element_type_161: "f32[10, 2048][2048, 1]cuda:0" = torch.ops.prims.convert_element_type.default(view_92, torch.float32)
        neg_11: "f32[10, 2048][2048, 1]cuda:0" = torch.ops.aten.neg.default(convert_element_type_161)
        exp_11: "f32[10, 2048][2048, 1]cuda:0" = torch.ops.aten.exp.default(neg_11);  neg_11 = None
        add_33: "f32[10, 2048][2048, 1]cuda:0" = torch.ops.aten.add.Tensor(exp_11, 1);  exp_11 = None
        div_11: "f32[10, 2048][2048, 1]cuda:0" = torch.ops.aten.div.Tensor(convert_element_type_161, add_33);  convert_element_type_161 = add_33 = None
        convert_element_type_162: "bf16[10, 2048][2048, 1]cuda:0" = torch.ops.prims.convert_element_type.default(div_11, torch.bfloat16);  div_11 = None
        
        # File: /mnt/xarfuse/uid-168871/0c2e5a73-seed-nspid4026531836_cgpid310632649-ns-4026531841/hammer/v2/modules/simple_mlps.py:168 in forward, code: output = mlp(output)
        convert_element_type_163: "bf16[1024, 2048][2048, 1]cuda:0" = torch.ops.prims.convert_element_type.default(primals_65, torch.bfloat16);  primals_65 = None
        permute_38: "bf16[2048, 1024][1, 2048]cuda:0" = torch.ops.aten.permute.default(convert_element_type_163, [1, 0]);  convert_element_type_163 = None
        mm_24: "bf16[10, 1024][1024, 1]cuda:0" = torch.ops.aten.mm.default(convert_element_type_162, permute_38)
        
        # File: /mnt/xarfuse/uid-168871/0c2e5a73-seed-nspid4026531836_cgpid310632649-ns-4026531841/hammer/ops/layer_norm.py:163 in forward, code: x = x.view(-1, shape[-1])
        view_93: "bf16[10, 1024][1024, 1]cuda:0" = torch.ops.aten.view.default(mm_24, [-1, 1024]);  mm_24 = None
        
        # File: /mnt/xarfuse/uid-168871/0c2e5a73-seed-nspid4026531836_cgpid310632649-ns-4026531841/generative_recommenders/ops/pytorch/pt_layer_norm.py:49 in pytorch_rms_norm, code: x_float = x.to(torch.float32)
        convert_element_type_166: "f32[10, 1024][1024, 1]cuda:0" = torch.ops.prims.convert_element_type.default(view_93, torch.float32);  view_93 = None
        
        # File: /mnt/xarfuse/uid-168871/0c2e5a73-seed-nspid4026531836_cgpid310632649-ns-4026531841/torch/nn/functional.py:2954 in rms_norm, code: return torch.rms_norm(input, normalized_shape, weight, eps)
        pow_19: "f32[10, 1024][1024, 1]cuda:0" = torch.ops.aten.pow.Tensor_Scalar(convert_element_type_166, 2)
        mean_18: "f32[10, 1][1, 1]cuda:0" = torch.ops.aten.mean.dim(pow_19, [1], True);  pow_19 = None
        add_34: "f32[10, 1][1, 1]cuda:0" = torch.ops.aten.add.Scalar(mean_18, 1e-05);  mean_18 = None
        rsqrt_18: "f32[10, 1][1, 1]cuda:0" = torch.ops.aten.rsqrt.default(add_34);  add_34 = None
        mul_37: "f32[10, 1024][1024, 1]cuda:0" = torch.ops.aten.mul.Tensor(convert_element_type_166, rsqrt_18)
        mul_38: "f32[10, 1024][1024, 1]cuda:0" = torch.ops.aten.mul.Tensor(mul_37, primals_66);  mul_37 = None
        alias_20: "f32[10, 1][1, 1]cuda:0" = torch.ops.aten.alias.default(rsqrt_18);  rsqrt_18 = None
        
        # File: /mnt/xarfuse/uid-168871/0c2e5a73-seed-nspid4026531836_cgpid310632649-ns-4026531841/generative_recommenders/ops/pytorch/pt_layer_norm.py:58 in pytorch_rms_norm, code: return normalized.to(dtype)
        convert_element_type_167: "bf16[10, 1024][1024, 1]cuda:0" = torch.ops.prims.convert_element_type.default(mul_38, torch.bfloat16);  mul_38 = None
        
        # File: /mnt/xarfuse/uid-168871/0c2e5a73-seed-nspid4026531836_cgpid310632649-ns-4026531841/hammer/ops/layer_norm.py:166 in forward, code: ).view(shape)
        view_94: "bf16[10, 1024][1024, 1]cuda:0" = torch.ops.aten.view.default(convert_element_type_167, [10, 1024]);  convert_element_type_167 = None
        
        # File: /mnt/xarfuse/uid-168871/0c2e5a73-seed-nspid4026531836_cgpid310632649-ns-4026531841/hammer/v2/modules/simple_mlps.py:176 in forward, code: output = activation(output)
        convert_element_type_168: "f32[10, 1024][1024, 1]cuda:0" = torch.ops.prims.convert_element_type.default(view_94, torch.float32)
        neg_12: "f32[10, 1024][1024, 1]cuda:0" = torch.ops.aten.neg.default(convert_element_type_168)
        exp_12: "f32[10, 1024][1024, 1]cuda:0" = torch.ops.aten.exp.default(neg_12);  neg_12 = None
        add_35: "f32[10, 1024][1024, 1]cuda:0" = torch.ops.aten.add.Tensor(exp_12, 1);  exp_12 = None
        div_12: "f32[10, 1024][1024, 1]cuda:0" = torch.ops.aten.div.Tensor(convert_element_type_168, add_35);  convert_element_type_168 = add_35 = None
        convert_element_type_169: "bf16[10, 1024][1024, 1]cuda:0" = torch.ops.prims.convert_element_type.default(div_12, torch.bfloat16);  div_12 = None
        
        # File: /mnt/xarfuse/uid-168871/0c2e5a73-seed-nspid4026531836_cgpid310632649-ns-4026531841/hammer/v2/modules/simple_mlps.py:168 in forward, code: output = mlp(output)
        convert_element_type_170: "bf16[2048, 1024][1024, 1]cuda:0" = torch.ops.prims.convert_element_type.default(primals_67, torch.bfloat16);  primals_67 = None
        permute_39: "bf16[1024, 2048][1, 1024]cuda:0" = torch.ops.aten.permute.default(convert_element_type_170, [1, 0]);  convert_element_type_170 = None
        mm_25: "bf16[10, 2048][2048, 1]cuda:0" = torch.ops.aten.mm.default(convert_element_type_169, permute_39)
        
        # File: /mnt/xarfuse/uid-168871/0c2e5a73-seed-nspid4026531836_cgpid310632649-ns-4026531841/hammer/v2/modules/simple_mlps.py:172 in forward, code: residual_tensor = residual_tensor + output
        add_36: "bf16[10, 2048][2048, 1]cuda:0" = torch.ops.aten.add.Tensor(convert_element_type_162, mm_25);  mm_25 = None
        
        # File: /mnt/xarfuse/uid-168871/0c2e5a73-seed-nspid4026531836_cgpid310632649-ns-4026531841/hammer/ops/layer_norm.py:163 in forward, code: x = x.view(-1, shape[-1])
        view_95: "bf16[10, 2048][2048, 1]cuda:0" = torch.ops.aten.view.default(add_36, [-1, 2048]);  add_36 = None
        
        # File: /mnt/xarfuse/uid-168871/0c2e5a73-seed-nspid4026531836_cgpid310632649-ns-4026531841/generative_recommenders/ops/pytorch/pt_layer_norm.py:49 in pytorch_rms_norm, code: x_float = x.to(torch.float32)
        convert_element_type_173: "f32[10, 2048][2048, 1]cuda:0" = torch.ops.prims.convert_element_type.default(view_95, torch.float32);  view_95 = None
        
        # File: /mnt/xarfuse/uid-168871/0c2e5a73-seed-nspid4026531836_cgpid310632649-ns-4026531841/torch/nn/functional.py:2954 in rms_norm, code: return torch.rms_norm(input, normalized_shape, weight, eps)
        pow_20: "f32[10, 2048][2048, 1]cuda:0" = torch.ops.aten.pow.Tensor_Scalar(convert_element_type_173, 2)
        mean_19: "f32[10, 1][1, 1]cuda:0" = torch.ops.aten.mean.dim(pow_20, [1], True);  pow_20 = None
        add_37: "f32[10, 1][1, 1]cuda:0" = torch.ops.aten.add.Scalar(mean_19, 1e-05);  mean_19 = None
        rsqrt_19: "f32[10, 1][1, 1]cuda:0" = torch.ops.aten.rsqrt.default(add_37);  add_37 = None
        mul_39: "f32[10, 2048][2048, 1]cuda:0" = torch.ops.aten.mul.Tensor(convert_element_type_173, rsqrt_19)
        mul_40: "f32[10, 2048][2048, 1]cuda:0" = torch.ops.aten.mul.Tensor(mul_39, primals_68);  mul_39 = None
        alias_21: "f32[10, 1][1, 1]cuda:0" = torch.ops.aten.alias.default(rsqrt_19);  rsqrt_19 = None
        
        # File: /mnt/xarfuse/uid-168871/0c2e5a73-seed-nspid4026531836_cgpid310632649-ns-4026531841/generative_recommenders/ops/pytorch/pt_layer_norm.py:58 in pytorch_rms_norm, code: return normalized.to(dtype)
        convert_element_type_174: "bf16[10, 2048][2048, 1]cuda:0" = torch.ops.prims.convert_element_type.default(mul_40, torch.bfloat16);  mul_40 = None
        
        # File: /mnt/xarfuse/uid-168871/0c2e5a73-seed-nspid4026531836_cgpid310632649-ns-4026531841/hammer/ops/layer_norm.py:166 in forward, code: ).view(shape)
        view_96: "bf16[10, 2048][2048, 1]cuda:0" = torch.ops.aten.view.default(convert_element_type_174, [10, 2048]);  convert_element_type_174 = None
        
        # File: /mnt/xarfuse/uid-168871/0c2e5a73-seed-nspid4026531836_cgpid310632649-ns-4026531841/hammer/v2/modules/simple_mlps.py:173 in forward, code: residual_tensor = activation(residual_tensor)
        convert_element_type_175: "f32[10, 2048][2048, 1]cuda:0" = torch.ops.prims.convert_element_type.default(view_96, torch.float32)
        neg_13: "f32[10, 2048][2048, 1]cuda:0" = torch.ops.aten.neg.default(convert_element_type_175)
        exp_13: "f32[10, 2048][2048, 1]cuda:0" = torch.ops.aten.exp.default(neg_13);  neg_13 = None
        add_38: "f32[10, 2048][2048, 1]cuda:0" = torch.ops.aten.add.Tensor(exp_13, 1);  exp_13 = None
        div_13: "f32[10, 2048][2048, 1]cuda:0" = torch.ops.aten.div.Tensor(convert_element_type_175, add_38);  convert_element_type_175 = add_38 = None
        convert_element_type_176: "bf16[10, 2048][2048, 1]cuda:0" = torch.ops.prims.convert_element_type.default(div_13, torch.bfloat16);  div_13 = None
        
        # File: /mnt/xarfuse/uid-168871/0c2e5a73-seed-nspid4026531836_cgpid310632649-ns-4026531841/hammer/v2/modules/simple_mlps.py:168 in forward, code: output = mlp(output)
        convert_element_type_177: "bf16[1024, 2048][2048, 1]cuda:0" = torch.ops.prims.convert_element_type.default(primals_69, torch.bfloat16);  primals_69 = None
        permute_40: "bf16[2048, 1024][1, 2048]cuda:0" = torch.ops.aten.permute.default(convert_element_type_177, [1, 0]);  convert_element_type_177 = None
        mm_26: "bf16[10, 1024][1024, 1]cuda:0" = torch.ops.aten.mm.default(convert_element_type_176, permute_40)
        
        # File: /mnt/xarfuse/uid-168871/0c2e5a73-seed-nspid4026531836_cgpid310632649-ns-4026531841/hammer/ops/layer_norm.py:163 in forward, code: x = x.view(-1, shape[-1])
        view_97: "bf16[10, 1024][1024, 1]cuda:0" = torch.ops.aten.view.default(mm_26, [-1, 1024]);  mm_26 = None
        
        # File: /mnt/xarfuse/uid-168871/0c2e5a73-seed-nspid4026531836_cgpid310632649-ns-4026531841/generative_recommenders/ops/pytorch/pt_layer_norm.py:49 in pytorch_rms_norm, code: x_float = x.to(torch.float32)
        convert_element_type_180: "f32[10, 1024][1024, 1]cuda:0" = torch.ops.prims.convert_element_type.default(view_97, torch.float32);  view_97 = None
        
        # File: /mnt/xarfuse/uid-168871/0c2e5a73-seed-nspid4026531836_cgpid310632649-ns-4026531841/torch/nn/functional.py:2954 in rms_norm, code: return torch.rms_norm(input, normalized_shape, weight, eps)
        pow_21: "f32[10, 1024][1024, 1]cuda:0" = torch.ops.aten.pow.Tensor_Scalar(convert_element_type_180, 2)
        mean_20: "f32[10, 1][1, 1]cuda:0" = torch.ops.aten.mean.dim(pow_21, [1], True);  pow_21 = None
        add_39: "f32[10, 1][1, 1]cuda:0" = torch.ops.aten.add.Scalar(mean_20, 1e-05);  mean_20 = None
        rsqrt_20: "f32[10, 1][1, 1]cuda:0" = torch.ops.aten.rsqrt.default(add_39);  add_39 = None
        mul_41: "f32[10, 1024][1024, 1]cuda:0" = torch.ops.aten.mul.Tensor(convert_element_type_180, rsqrt_20)
        mul_42: "f32[10, 1024][1024, 1]cuda:0" = torch.ops.aten.mul.Tensor(mul_41, primals_70);  mul_41 = None
        alias_22: "f32[10, 1][1, 1]cuda:0" = torch.ops.aten.alias.default(rsqrt_20);  rsqrt_20 = None
        
        # File: /mnt/xarfuse/uid-168871/0c2e5a73-seed-nspid4026531836_cgpid310632649-ns-4026531841/generative_recommenders/ops/pytorch/pt_layer_norm.py:58 in pytorch_rms_norm, code: return normalized.to(dtype)
        convert_element_type_181: "bf16[10, 1024][1024, 1]cuda:0" = torch.ops.prims.convert_element_type.default(mul_42, torch.bfloat16);  mul_42 = None
        
        # File: /mnt/xarfuse/uid-168871/0c2e5a73-seed-nspid4026531836_cgpid310632649-ns-4026531841/hammer/ops/layer_norm.py:166 in forward, code: ).view(shape)
        view_98: "bf16[10, 1024][1024, 1]cuda:0" = torch.ops.aten.view.default(convert_element_type_181, [10, 1024]);  convert_element_type_181 = None
        
        # File: /mnt/xarfuse/uid-168871/0c2e5a73-seed-nspid4026531836_cgpid310632649-ns-4026531841/hammer/v2/modules/simple_mlps.py:176 in forward, code: output = activation(output)
        convert_element_type_182: "f32[10, 1024][1024, 1]cuda:0" = torch.ops.prims.convert_element_type.default(view_98, torch.float32)
        neg_14: "f32[10, 1024][1024, 1]cuda:0" = torch.ops.aten.neg.default(convert_element_type_182)
        exp_14: "f32[10, 1024][1024, 1]cuda:0" = torch.ops.aten.exp.default(neg_14);  neg_14 = None
        add_40: "f32[10, 1024][1024, 1]cuda:0" = torch.ops.aten.add.Tensor(exp_14, 1);  exp_14 = None
        div_14: "f32[10, 1024][1024, 1]cuda:0" = torch.ops.aten.div.Tensor(convert_element_type_182, add_40);  convert_element_type_182 = add_40 = None
        convert_element_type_183: "bf16[10, 1024][1024, 1]cuda:0" = torch.ops.prims.convert_element_type.default(div_14, torch.bfloat16);  div_14 = None
        
        # File: /mnt/xarfuse/uid-168871/0c2e5a73-seed-nspid4026531836_cgpid310632649-ns-4026531841/hammer/v2/modules/simple_mlps.py:168 in forward, code: output = mlp(output)
        convert_element_type_184: "bf16[2048, 1024][1024, 1]cuda:0" = torch.ops.prims.convert_element_type.default(primals_71, torch.bfloat16);  primals_71 = None
        permute_41: "bf16[1024, 2048][1, 1024]cuda:0" = torch.ops.aten.permute.default(convert_element_type_184, [1, 0]);  convert_element_type_184 = None
        mm_27: "bf16[10, 2048][2048, 1]cuda:0" = torch.ops.aten.mm.default(convert_element_type_183, permute_41)
        
        # File: /mnt/xarfuse/uid-168871/0c2e5a73-seed-nspid4026531836_cgpid310632649-ns-4026531841/hammer/v2/modules/simple_mlps.py:172 in forward, code: residual_tensor = residual_tensor + output
        add_41: "bf16[10, 2048][2048, 1]cuda:0" = torch.ops.aten.add.Tensor(convert_element_type_176, mm_27);  mm_27 = None
        
        # File: /mnt/xarfuse/uid-168871/0c2e5a73-seed-nspid4026531836_cgpid310632649-ns-4026531841/hammer/ops/layer_norm.py:163 in forward, code: x = x.view(-1, shape[-1])
        view_99: "bf16[10, 2048][2048, 1]cuda:0" = torch.ops.aten.view.default(add_41, [-1, 2048]);  add_41 = None
        
        # File: /mnt/xarfuse/uid-168871/0c2e5a73-seed-nspid4026531836_cgpid310632649-ns-4026531841/generative_recommenders/ops/pytorch/pt_layer_norm.py:49 in pytorch_rms_norm, code: x_float = x.to(torch.float32)
        convert_element_type_187: "f32[10, 2048][2048, 1]cuda:0" = torch.ops.prims.convert_element_type.default(view_99, torch.float32);  view_99 = None
        
        # File: /mnt/xarfuse/uid-168871/0c2e5a73-seed-nspid4026531836_cgpid310632649-ns-4026531841/torch/nn/functional.py:2954 in rms_norm, code: return torch.rms_norm(input, normalized_shape, weight, eps)
        pow_22: "f32[10, 2048][2048, 1]cuda:0" = torch.ops.aten.pow.Tensor_Scalar(convert_element_type_187, 2)
        mean_21: "f32[10, 1][1, 1]cuda:0" = torch.ops.aten.mean.dim(pow_22, [1], True);  pow_22 = None
        add_42: "f32[10, 1][1, 1]cuda:0" = torch.ops.aten.add.Scalar(mean_21, 1e-05);  mean_21 = None
        rsqrt_21: "f32[10, 1][1, 1]cuda:0" = torch.ops.aten.rsqrt.default(add_42);  add_42 = None
        mul_43: "f32[10, 2048][2048, 1]cuda:0" = torch.ops.aten.mul.Tensor(convert_element_type_187, rsqrt_21)
        mul_44: "f32[10, 2048][2048, 1]cuda:0" = torch.ops.aten.mul.Tensor(mul_43, primals_72);  mul_43 = None
        alias_23: "f32[10, 1][1, 1]cuda:0" = torch.ops.aten.alias.default(rsqrt_21);  rsqrt_21 = None
        
        # File: /mnt/xarfuse/uid-168871/0c2e5a73-seed-nspid4026531836_cgpid310632649-ns-4026531841/generative_recommenders/ops/pytorch/pt_layer_norm.py:58 in pytorch_rms_norm, code: return normalized.to(dtype)
        convert_element_type_188: "bf16[10, 2048][2048, 1]cuda:0" = torch.ops.prims.convert_element_type.default(mul_44, torch.bfloat16);  mul_44 = None
        
        # File: /mnt/xarfuse/uid-168871/0c2e5a73-seed-nspid4026531836_cgpid310632649-ns-4026531841/hammer/ops/layer_norm.py:166 in forward, code: ).view(shape)
        view_100: "bf16[10, 2048][2048, 1]cuda:0" = torch.ops.aten.view.default(convert_element_type_188, [10, 2048]);  convert_element_type_188 = None
        
        # File: /mnt/xarfuse/uid-168871/0c2e5a73-seed-nspid4026531836_cgpid310632649-ns-4026531841/hammer/v2/modules/simple_mlps.py:173 in forward, code: residual_tensor = activation(residual_tensor)
        convert_element_type_189: "f32[10, 2048][2048, 1]cuda:0" = torch.ops.prims.convert_element_type.default(view_100, torch.float32)
        neg_15: "f32[10, 2048][2048, 1]cuda:0" = torch.ops.aten.neg.default(convert_element_type_189)
        exp_15: "f32[10, 2048][2048, 1]cuda:0" = torch.ops.aten.exp.default(neg_15);  neg_15 = None
        add_43: "f32[10, 2048][2048, 1]cuda:0" = torch.ops.aten.add.Tensor(exp_15, 1);  exp_15 = None
        div_15: "f32[10, 2048][2048, 1]cuda:0" = torch.ops.aten.div.Tensor(convert_element_type_189, add_43);  convert_element_type_189 = add_43 = None
        convert_element_type_190: "bf16[10, 2048][2048, 1]cuda:0" = torch.ops.prims.convert_element_type.default(div_15, torch.bfloat16);  div_15 = None
        
        # File: /mnt/xarfuse/uid-168871/0c2e5a73-seed-nspid4026531836_cgpid310632649-ns-4026531841/hammer/v2/modules/simple_mlps.py:179 in forward, code: output = self._output_proj(output)
        convert_element_type_191: "bf16[8192, 2048][2048, 1]cuda:0" = torch.ops.prims.convert_element_type.default(primals_73, torch.bfloat16);  primals_73 = None
        permute_42: "bf16[2048, 8192][1, 2048]cuda:0" = torch.ops.aten.permute.default(convert_element_type_191, [1, 0]);  convert_element_type_191 = None
        mm_28: "bf16[10, 8192][8192, 1]cuda:0" = torch.ops.aten.mm.default(convert_element_type_190, permute_42)
        
…
        alias_116: "f32[10, 1][1, 1]cuda:0" = torch.ops.aten.alias.default(alias_5);  alias_5 = None
        mul_1074: "f32[10, 256][256, 1]cuda:0" = torch.ops.aten.mul.Tensor(convert_element_type_2079, primals_20);  primals_20 = None
        mul_1075: "f32[10, 256][256, 1]cuda:0" = torch.ops.aten.mul.Tensor(convert_element_type_34, alias_116);  convert_element_type_34 = None
        mul_1076: "f32[10, 256][256, 1]cuda:0" = torch.ops.aten.mul.Tensor(mul_1075, mul_1074)
        sum_166: "f32[10, 1][1, 1]cuda:0" = torch.ops.aten.sum.dim_IntList(mul_1076, [1], True);  mul_1076 = None
        div_141: "f32[10, 256][256, 1]cuda:0" = torch.ops.aten.div.Tensor(mul_1075, 256)
        mul_1077: "f32[10, 256][256, 1]cuda:0" = torch.ops.aten.mul.Tensor(div_141, sum_166);  div_141 = sum_166 = None
        sub_353: "f32[10, 256][256, 1]cuda:0" = torch.ops.aten.sub.Tensor(mul_1074, mul_1077);  mul_1074 = mul_1077 = None
        mul_1078: "f32[10, 256][256, 1]cuda:0" = torch.ops.aten.mul.Tensor(sub_353, alias_116);  sub_353 = alias_116 = None
        mul_1079: "f32[10, 256][256, 1]cuda:0" = torch.ops.aten.mul.Tensor(convert_element_type_2079, mul_1075);  convert_element_type_2079 = mul_1075 = None
        sum_167: "f32[256][1]cuda:0" = torch.ops.aten.sum.dim_IntList(mul_1079, [0]);  mul_1079 = None
        
        # File: /mnt/xarfuse/uid-168871/0c2e5a73-seed-nspid4026531836_cgpid310632649-ns-4026531841/generative_recommenders/ops/pytorch/pt_layer_norm.py:49 in pytorch_rms_norm, code: x_float = x.to(torch.float32)
        convert_element_type_2080: "bf16[10, 256][256, 1]cuda:0" = torch.ops.prims.convert_element_type.default(mul_1078, torch.bfloat16);  mul_1078 = None
        
        # File: /mnt/xarfuse/uid-168871/0c2e5a73-seed-nspid4026531836_cgpid310632649-ns-4026531841/hammer/ops/layer_norm.py:163 in forward, code: x = x.view(-1, shape[-1])
        view_1342: "bf16[10, 256][256, 1]cuda:0" = torch.ops.aten.view.default(convert_element_type_2080, [10, 256]);  convert_element_type_2080 = None
        
        # File: /mnt/xarfuse/uid-168871/0c2e5a73-seed-nspid4026531836_cgpid310632649-ns-4026531841/hammer/v2/modules/simple_mlps.py:809 in <listcomp>, code: self._embedding_proj[i](embedding_features[i])
        permute_904: "bf16[256, 10][1, 256]cuda:0" = torch.ops.aten.permute.default(view_1342, [1, 0]);  view_1342 = None
        mm_401: "bf16[256, 128][128, 1]cuda:0" = torch.ops.aten.mm.default(permute_904, convert_element_type_30);  permute_904 = convert_element_type_30 = None
        permute_905: "bf16[128, 256][1, 128]cuda:0" = torch.ops.aten.permute.default(mm_401, [1, 0]);  mm_401 = None
        permute_906: "bf16[256, 128][128, 1]cuda:0" = torch.ops.aten.permute.default(permute_905, [1, 0]);  permute_905 = None
        convert_element_type_2083: "f32[256, 128][128, 1]cuda:0" = torch.ops.prims.convert_element_type.default(permute_906, torch.float32);  permute_906 = None
        
        # File: /mnt/xarfuse/uid-168871/0c2e5a73-seed-nspid4026531836_cgpid310632649-ns-4026531841/hammer/ops/layer_norm.py:166 in forward, code: ).view(shape)
        view_1343: "bf16[10, 256][3328, 1]cuda:0" = torch.ops.aten.view.default(slice_161, [10, 256]);  slice_161 = None
        
        # File: /mnt/xarfuse/uid-168871/0c2e5a73-seed-nspid4026531836_cgpid310632649-ns-4026531841/generative_recommenders/ops/pytorch/pt_layer_norm.py:58 in pytorch_rms_norm, code: return normalized.to(dtype)
        convert_element_type_2084: "f32[10, 256][256, 1]cuda:0" = torch.ops.prims.convert_element_type.default(view_1343, torch.float32);  view_1343 = None
        
        # File: /mnt/xarfuse/uid-168871/0c2e5a73-seed-nspid4026531836_cgpid310632649-ns-4026531841/torch/nn/functional.py:2954 in rms_norm, code: return torch.rms_norm(input, normalized_shape, weight, eps)
        alias_117: "f32[10, 1][1, 1]cuda:0" = torch.ops.aten.alias.default(alias_4);  alias_4 = None
        mul_1080: "f32[10, 256][256, 1]cuda:0" = torch.ops.aten.mul.Tensor(convert_element_type_2084, primals_17);  primals_17 = None
        mul_1081: "f32[10, 256][256, 1]cuda:0" = torch.ops.aten.mul.Tensor(convert_element_type_28, alias_117);  convert_element_type_28 = None
        mul_1082: "f32[10, 256][256, 1]cuda:0" = torch.ops.aten.mul.Tensor(mul_1081, mul_1080)
        sum_168: "f32[10, 1][1, 1]cuda:0" = torch.ops.aten.sum.dim_IntList(mul_1082, [1], True);  mul_1082 = None
        div_142: "f32[10, 256][256, 1]cuda:0" = torch.ops.aten.div.Tensor(mul_1081, 256)
        mul_1083: "f32[10, 256][256, 1]cuda:0" = torch.ops.aten.mul.Tensor(div_142, sum_168);  div_142 = sum_168 = None
        sub_354: "f32[10, 256][256, 1]cuda:0" = torch.ops.aten.sub.Tensor(mul_1080, mul_1083);  mul_1080 = mul_1083 = None
        mul_1084: "f32[10, 256][256, 1]cuda:0" = torch.ops.aten.mul.Tensor(sub_354, alias_117);  sub_354 = alias_117 = None
        mul_1085: "f32[10, 256][256, 1]cuda:0" = torch.ops.aten.mul.Tensor(convert_element_type_2084, mul_1081);  convert_element_type_2084 = mul_1081 = None
        sum_169: "f32[256][1]cuda:0" = torch.ops.aten.sum.dim_IntList(mul_1085, [0]);  mul_1085 = None
        
        # File: /mnt/xarfuse/uid-168871/0c2e5a73-seed-nspid4026531836_cgpid310632649-ns-4026531841/generative_recommenders/ops/pytorch/pt_layer_norm.py:49 in pytorch_rms_norm, code: x_float = x.to(torch.float32)
        convert_element_type_2085: "bf16[10, 256][256, 1]cuda:0" = torch.ops.prims.convert_element_type.default(mul_1084, torch.bfloat16);  mul_1084 = None
        
        # File: /mnt/xarfuse/uid-168871/0c2e5a73-seed-nspid4026531836_cgpid310632649-ns-4026531841/hammer/ops/layer_norm.py:163 in forward, code: x = x.view(-1, shape[-1])
        view_1344: "bf16[10, 256][256, 1]cuda:0" = torch.ops.aten.view.default(convert_element_type_2085, [10, 256]);  convert_element_type_2085 = None
        
        # File: /mnt/xarfuse/uid-168871/0c2e5a73-seed-nspid4026531836_cgpid310632649-ns-4026531841/hammer/v2/modules/simple_mlps.py:809 in <listcomp>, code: self._embedding_proj[i](embedding_features[i])
        permute_907: "bf16[256, 10][1, 256]cuda:0" = torch.ops.aten.permute.default(view_1344, [1, 0]);  view_1344 = None
        mm_402: "bf16[256, 100][100, 1]cuda:0" = torch.ops.aten.mm.default(permute_907, convert_element_type_24);  permute_907 = convert_element_type_24 = None
        permute_908: "bf16[100, 256][1, 100]cuda:0" = torch.ops.aten.permute.default(mm_402, [1, 0]);  mm_402 = None
        permute_909: "bf16[256, 100][100, 1]cuda:0" = torch.ops.aten.permute.default(permute_908, [1, 0]);  permute_908 = None
        convert_element_type_2088: "f32[256, 100][100, 1]cuda:0" = torch.ops.prims.convert_element_type.default(permute_909, torch.float32);  permute_909 = None
        
        # File: /mnt/xarfuse/uid-168871/0c2e5a73-seed-nspid4026531836_cgpid310632649-ns-4026531841/hammer/ops/layer_norm.py:166 in forward, code: ).view(shape)
        view_1345: "bf16[10, 256][3328, 1]cuda:0" = torch.ops.aten.view.default(slice_160, [10, 256]);  slice_160 = None
        
        # File: /mnt/xarfuse/uid-168871/0c2e5a73-seed-nspid4026531836_cgpid310632649-ns-4026531841/generative_recommenders/ops/pytorch/pt_layer_norm.py:58 in pytorch_rms_norm, code: return normalized.to(dtype)
        convert_element_type_2089: "f32[10, 256][256, 1]cuda:0" = torch.ops.prims.convert_element_type.default(view_1345, torch.float32);  view_1345 = None
        
        # File: /mnt/xarfuse/uid-168871/0c2e5a73-seed-nspid4026531836_cgpid310632649-ns-4026531841/torch/nn/functional.py:2954 in rms_norm, code: return torch.rms_norm(input, normalized_shape, weight, eps)
        alias_118: "f32[10, 1][1, 1]cuda:0" = torch.ops.aten.alias.default(alias_3);  alias_3 = None
        mul_1086: "f32[10, 256][256, 1]cuda:0" = torch.ops.aten.mul.Tensor(convert_element_type_2089, primals_14);  primals_14 = None
        mul_1087: "f32[10, 256][256, 1]cuda:0" = torch.ops.aten.mul.Tensor(convert_element_type_22, alias_118);  convert_element_type_22 = None
        mul_1088: "f32[10, 256][256, 1]cuda:0" = torch.ops.aten.mul.Tensor(mul_1087, mul_1086)
        sum_170: "f32[10, 1][1, 1]cuda:0" = torch.ops.aten.sum.dim_IntList(mul_1088, [1], True);  mul_1088 = None
        div_143: "f32[10, 256][256, 1]cuda:0" = torch.ops.aten.div.Tensor(mul_1087, 256)
        mul_1089: "f32[10, 256][256, 1]cuda:0" = torch.ops.aten.mul.Tensor(div_143, sum_170);  div_143 = sum_170 = None
        sub_355: "f32[10, 256][256, 1]cuda:0" = torch.ops.aten.sub.Tensor(mul_1086, mul_1089);  mul_1086 = mul_1089 = None
        mul_1090: "f32[10, 256][256, 1]cuda:0" = torch.ops.aten.mul.Tensor(sub_355, alias_118);  sub_355 = alias_118 = None
        mul_1091: "f32[10, 256][256, 1]cuda:0" = torch.ops.aten.mul.Tensor(convert_element_type_2089, mul_1087);  convert_element_type_2089 = mul_1087 = None
        sum_171: "f32[256][1]cuda:0" = torch.ops.aten.sum.dim_IntList(mul_1091, [0]);  mul_1091 = None
        
        # File: /mnt/xarfuse/uid-168871/0c2e5a73-seed-nspid4026531836_cgpid310632649-ns-4026531841/generative_recommenders/ops/pytorch/pt_layer_norm.py:49 in pytorch_rms_norm, code: x_float = x.to(torch.float32)
        convert_element_type_2090: "bf16[10, 256][256, 1]cuda:0" = torch.ops.prims.convert_element_type.default(mul_1090, torch.bfloat16);  mul_1090 = None
        
        # File: /mnt/xarfuse/uid-168871/0c2e5a73-seed-nspid4026531836_cgpid310632649-ns-4026531841/hammer/ops/layer_norm.py:163 in forward, code: x = x.view(-1, shape[-1])
        view_1346: "bf16[10, 256][256, 1]cuda:0" = torch.ops.aten.view.default(convert_element_type_2090, [10, 256]);  convert_element_type_2090 = None
        
        # File: /mnt/xarfuse/uid-168871/0c2e5a73-seed-nspid4026531836_cgpid310632649-ns-4026531841/hammer/v2/modules/simple_mlps.py:809 in <listcomp>, code: self._embedding_proj[i](embedding_features[i])
        permute_910: "bf16[256, 10][1, 256]cuda:0" = torch.ops.aten.permute.default(view_1346, [1, 0]);  view_1346 = None
        mm_403: "bf16[256, 64][64, 1]cuda:0" = torch.ops.aten.mm.default(permute_910, convert_element_type_18);  permute_910 = convert_element_type_18 = None
        permute_911: "bf16[64, 256][1, 64]cuda:0" = torch.ops.aten.permute.default(mm_403, [1, 0]);  mm_403 = None
        permute_912: "bf16[256, 64][64, 1]cuda:0" = torch.ops.aten.permute.default(permute_911, [1, 0]);  permute_911 = None
        convert_element_type_2093: "f32[256, 64][64, 1]cuda:0" = torch.ops.prims.convert_element_type.default(permute_912, torch.float32);  permute_912 = None
        
        # File: /mnt/xarfuse/uid-168871/0c2e5a73-seed-nspid4026531836_cgpid310632649-ns-4026531841/hammer/ops/layer_norm.py:166 in forward, code: ).view(shape)
        view_1347: "bf16[10, 256][3328, 1]cuda:0" = torch.ops.aten.view.default(slice_159, [10, 256]);  slice_159 = None
        
        # File: /mnt/xarfuse/uid-168871/0c2e5a73-seed-nspid4026531836_cgpid310632649-ns-4026531841/generative_recommenders/ops/pytorch/pt_layer_norm.py:58 in pytorch_rms_norm, code: return normalized.to(dtype)
        convert_element_type_2094: "f32[10, 256][256, 1]cuda:0" = torch.ops.prims.convert_element_type.default(view_1347, torch.float32);  view_1347 = None
        
        # File: /mnt/xarfuse/uid-168871/0c2e5a73-seed-nspid4026531836_cgpid310632649-ns-4026531841/torch/nn/functional.py:2954 in rms_norm, code: return torch.rms_norm(input, normalized_shape, weight, eps)
        alias_119: "f32[10, 1][1, 1]cuda:0" = torch.ops.aten.alias.default(alias_2);  alias_2 = None
        mul_1092: "f32[10, 256][256, 1]cuda:0" = torch.ops.aten.mul.Tensor(convert_element_type_2094, primals_11);  primals_11 = None
        mul_1093: "f32[10, 256][256, 1]cuda:0" = torch.ops.aten.mul.Tensor(convert_element_type_16, alias_119);  convert_element_type_16 = None
        mul_1094: "f32[10, 256][256, 1]cuda:0" = torch.ops.aten.mul.Tensor(mul_1093, mul_1092)
        sum_172: "f32[10, 1][1, 1]cuda:0" = torch.ops.aten.sum.dim_IntList(mul_1094, [1], True);  mul_1094 = None
        div_144: "f32[10, 256][256, 1]cuda:0" = torch.ops.aten.div.Tensor(mul_1093, 256)
        mul_1095: "f32[10, 256][256, 1]cuda:0" = torch.ops.aten.mul.Tensor(div_144, sum_172);  div_144 = sum_172 = None
        sub_356: "f32[10, 256][256, 1]cuda:0" = torch.ops.aten.sub.Tensor(mul_1092, mul_1095);  mul_1092 = mul_1095 = None
        mul_1096: "f32[10, 256][256, 1]cuda:0" = torch.ops.aten.mul.Tensor(sub_356, alias_119);  sub_356 = alias_119 = None
        mul_1097: "f32[10, 256][256, 1]cuda:0" = torch.ops.aten.mul.Tensor(convert_element_type_2094, mul_1093);  convert_element_type_2094 = mul_1093 = None
        sum_173: "f32[256][1]cuda:0" = torch.ops.aten.sum.dim_IntList(mul_1097, [0]);  mul_1097 = None
        
        # File: /mnt/xarfuse/uid-168871/0c2e5a73-seed-nspid4026531836_cgpid310632649-ns-4026531841/generative_recommenders/ops/pytorch/pt_layer_norm.py:49 in pytorch_rms_norm, code: x_float = x.to(torch.float32)
        convert_element_type_2095: "bf16[10, 256][256, 1]cuda:0" = torch.ops.prims.convert_element_type.default(mul_1096, torch.bfloat16);  mul_1096 = None
        
        # File: /mnt/xarfuse/uid-168871/0c2e5a73-seed-nspid4026531836_cgpid310632649-ns-4026531841/hammer/ops/layer_norm.py:163 in forward, code: x = x.view(-1, shape[-1])
        view_1348: "bf16[10, 256][256, 1]cuda:0" = torch.ops.aten.view.default(convert_element_type_2095, [10, 256]);  convert_element_type_2095 = None
        
        # File: /mnt/xarfuse/uid-168871/0c2e5a73-seed-nspid4026531836_cgpid310632649-ns-4026531841/hammer/v2/modules/simple_mlps.py:809 in <listcomp>, code: self._embedding_proj[i](embedding_features[i])
        permute_913: "bf16[256, 10][1, 256]cuda:0" = torch.ops.aten.permute.default(view_1348, [1, 0]);  view_1348 = None
        mm_404: "bf16[256, 128][128, 1]cuda:0" = torch.ops.aten.mm.default(permute_913, convert_element_type_12);  permute_913 = convert_element_type_12 = None
        permute_914: "bf16[128, 256][1, 128]cuda:0" = torch.ops.aten.permute.default(mm_404, [1, 0]);  mm_404 = None
        permute_915: "bf16[256, 128][128, 1]cuda:0" = torch.ops.aten.permute.default(permute_914, [1, 0]);  permute_914 = None
        convert_element_type_2098: "f32[256, 128][128, 1]cuda:0" = torch.ops.prims.convert_element_type.default(permute_915, torch.float32);  permute_915 = None
        
        # File: /mnt/xarfuse/uid-168871/0c2e5a73-seed-nspid4026531836_cgpid310632649-ns-4026531841/hammer/ops/layer_norm.py:166 in forward, code: ).view(shape)
        view_1349: "bf16[10, 2048][3328, 1]cuda:0" = torch.ops.aten.view.default(slice_158, [10, 2048]);  slice_158 = None
        
        # File: /mnt/xarfuse/uid-168871/0c2e5a73-seed-nspid4026531836_cgpid310632649-ns-4026531841/generative_recommenders/ops/pytorch/pt_layer_norm.py:58 in pytorch_rms_norm, code: return normalized.to(dtype)
        convert_element_type_2099: "f32[10, 2048][2048, 1]cuda:0" = torch.ops.prims.convert_element_type.default(view_1349, torch.float32);  view_1349 = None
        
        # File: /mnt/xarfuse/uid-168871/0c2e5a73-seed-nspid4026531836_cgpid310632649-ns-4026531841/torch/nn/functional.py:2954 in rms_norm, code: return torch.rms_norm(input, normalized_shape, weight, eps)
        alias_120: "f32[10, 1][1, 1]cuda:0" = torch.ops.aten.alias.default(alias_1);  alias_1 = None
        mul_1098: "f32[10, 2048][2048, 1]cuda:0" = torch.ops.aten.mul.Tensor(convert_element_type_2099, primals_8);  primals_8 = None
        mul_1099: "f32[10, 2048][2048, 1]cuda:0" = torch.ops.aten.mul.Tensor(convert_element_type_10, alias_120);  convert_element_type_10 = None
        mul_1100: "f32[10, 2048][2048, 1]cuda:0" = torch.ops.aten.mul.Tensor(mul_1099, mul_1098)
        sum_174: "f32[10, 1][1, 1]cuda:0" = torch.ops.aten.sum.dim_IntList(mul_1100, [1], True);  mul_1100 = None
        div_145: "f32[10, 2048][2048, 1]cuda:0" = torch.ops.aten.div.Tensor(mul_1099, 2048)
        mul_1101: "f32[10, 2048][2048, 1]cuda:0" = torch.ops.aten.mul.Tensor(div_145, sum_174);  div_145 = sum_174 = None
        sub_357: "f32[10, 2048][2048, 1]cuda:0" = torch.ops.aten.sub.Tensor(mul_1098, mul_1101);  mul_1098 = mul_1101 = None
        mul_1102: "f32[10, 2048][2048, 1]cuda:0" = torch.ops.aten.mul.Tensor(sub_357, alias_120);  sub_357 = alias_120 = None
        mul_1103: "f32[10, 2048][2048, 1]cuda:0" = torch.ops.aten.mul.Tensor(convert_element_type_2099, mul_1099);  convert_element_type_2099 = mul_1099 = None
        sum_175: "f32[2048][1]cuda:0" = torch.ops.aten.sum.dim_IntList(mul_1103, [0]);  mul_1103 = None
        
        # File: /mnt/xarfuse/uid-168871/0c2e5a73-seed-nspid4026531836_cgpid310632649-ns-4026531841/generative_recommenders/ops/pytorch/pt_layer_norm.py:49 in pytorch_rms_norm, code: x_float = x.to(torch.float32)
        convert_element_type_2100: "bf16[10, 2048][2048, 1]cuda:0" = torch.ops.prims.convert_element_type.default(mul_1102, torch.bfloat16);  mul_1102 = None
        
        # File: /mnt/xarfuse/uid-168871/0c2e5a73-seed-nspid4026531836_cgpid310632649-ns-4026531841/hammer/ops/layer_norm.py:163 in forward, code: x = x.view(-1, shape[-1])
        view_1350: "bf16[10, 2048][2048, 1]cuda:0" = torch.ops.aten.view.default(convert_element_type_2100, [10, 2048]);  convert_element_type_2100 = None
        
        # File: /mnt/xarfuse/uid-168871/0c2e5a73-seed-nspid4026531836_cgpid310632649-ns-4026531841/hammer/v2/modules/simple_mlps.py:809 in <listcomp>, code: self._embedding_proj[i](embedding_features[i])
        permute_916: "bf16[2048, 10][1, 2048]cuda:0" = torch.ops.aten.permute.default(view_1350, [1, 0]);  view_1350 = None
        mm_405: "bf16[2048, 1024][1024, 1]cuda:0" = torch.ops.aten.mm.default(permute_916, convert_element_type_6);  permute_916 = convert_element_type_6 = None
        permute_917: "bf16[1024, 2048][1, 1024]cuda:0" = torch.ops.aten.permute.default(mm_405, [1, 0]);  mm_405 = None
        permute_918: "bf16[2048, 1024][1024, 1]cuda:0" = torch.ops.aten.permute.default(permute_917, [1, 0]);  permute_917 = None
        convert_element_type_2103: "f32[2048, 1024][1024, 1]cuda:0" = torch.ops.prims.convert_element_type.default(permute_918, torch.float32);  permute_918 = None
        
        # File: /mnt/xarfuse/uid-168871/0c2e5a73-seed-nspid4026531836_cgpid310632649-ns-4026531841/hammer/ops/layer_norm.py:166 in forward, code: ).view(shape)
        view_1351: "bf16[10, 256][3328, 1]cuda:0" = torch.ops.aten.view.default(slice_157, [10, 256]);  slice_157 = None
        
        # File: /mnt/xarfuse/uid-168871/0c2e5a73-seed-nspid4026531836_cgpid310632649-ns-4026531841/generative_recommenders/ops/pytorch/pt_layer_norm.py:58 in pytorch_rms_norm, code: return normalized.to(dtype)
        convert_element_type_2104: "f32[10, 256][256, 1]cuda:0" = torch.ops.prims.convert_element_type.default(view_1351, torch.float32);  view_1351 = None
        
        # File: /mnt/xarfuse/uid-168871/0c2e5a73-seed-nspid4026531836_cgpid310632649-ns-4026531841/torch/nn/functional.py:2954 in rms_norm, code: return torch.rms_norm(input, normalized_shape, weight, eps)
        alias_121: "f32[10, 1][1, 1]cuda:0" = torch.ops.aten.alias.default(alias);  alias = None
        mul_1104: "f32[10, 256][256, 1]cuda:0" = torch.ops.aten.mul.Tensor(convert_element_type_2104, primals_5);  primals_5 = None
        mul_1105: "f32[10, 256][256, 1]cuda:0" = torch.ops.aten.mul.Tensor(convert_element_type_4, alias_121);  convert_element_type_4 = None
        mul_1106: "f32[10, 256][256, 1]cuda:0" = torch.ops.aten.mul.Tensor(mul_1105, mul_1104)
        sum_176: "f32[10, 1][1, 1]cuda:0" = torch.ops.aten.sum.dim_IntList(mul_1106, [1], True);  mul_1106 = None
        div_146: "f32[10, 256][256, 1]cuda:0" = torch.ops.aten.div.Tensor(mul_1105, 256)
        mul_1107: "f32[10, 256][256, 1]cuda:0" = torch.ops.aten.mul.Tensor(div_146, sum_176);  div_146 = sum_176 = None
        sub_358: "f32[10, 256][256, 1]cuda:0" = torch.ops.aten.sub.Tensor(mul_1104, mul_1107);  mul_1104 = mul_1107 = None
        mul_1108: "f32[10, 256][256, 1]cuda:0" = torch.ops.aten.mul.Tensor(sub_358, alias_121);  sub_358 = alias_121 = None
        mul_1109: "f32[10, 256][256, 1]cuda:0" = torch.ops.aten.mul.Tensor(convert_element_type_2104, mul_1105);  convert_element_type_2104 = mul_1105 = None
        sum_177: "f32[256][1]cuda:0" = torch.ops.aten.sum.dim_IntList(mul_1109, [0]);  mul_1109 = None
        
        # File: /mnt/xarfuse/uid-168871/0c2e5a73-seed-nspid4026531836_cgpid310632649-ns-4026531841/generative_recommenders/ops/pytorch/pt_layer_norm.py:49 in pytorch_rms_norm, code: x_float = x.to(torch.float32)
        convert_element_type_2105: "bf16[10, 256][256, 1]cuda:0" = torch.ops.prims.convert_element_type.default(mul_1108, torch.bfloat16);  mul_1108 = None
        
        # File: /mnt/xarfuse/uid-168871/0c2e5a73-seed-nspid4026531836_cgpid310632649-ns-4026531841/hammer/ops/layer_norm.py:163 in forward, code: x = x.view(-1, shape[-1])
        view_1352: "bf16[10, 256][256, 1]cuda:0" = torch.ops.aten.view.default(convert_element_type_2105, [10, 256]);  convert_element_type_2105 = None
        
        # File: /mnt/xarfuse/uid-168871/0c2e5a73-seed-nspid4026531836_cgpid310632649-ns-4026531841/hammer/v2/modules/simple_mlps.py:809 in <listcomp>, code: self._embedding_proj[i](embedding_features[i])
        permute_919: "bf16[256, 10][1, 256]cuda:0" = torch.ops.aten.permute.default(view_1352, [1, 0]);  view_1352 = None
        mm_406: "bf16[256, 64][64, 1]cuda:0" = torch.ops.aten.mm.default(permute_919, convert_element_type);  permute_919 = convert_element_type = None
        permute_920: "bf16[64, 256][1, 64]cuda:0" = torch.ops.aten.permute.default(mm_406, [1, 0]);  mm_406 = None
        permute_921: "bf16[256, 64][64, 1]cuda:0" = torch.ops.aten.permute.default(permute_920, [1, 0]);  permute_920 = None
        convert_element_type_2108: "f32[256, 64][64, 1]cuda:0" = torch.ops.prims.convert_element_type.default(permute_921, torch.float32);  permute_921 = None
        
        # No stacktrace found for following nodes
        copy_: "i64[3][1]cuda:0" = torch.ops.aten.copy_.default(primals_113, getitem_120);  getitem_120 = copy_ = None
        copy__1: "i64[3][1]cuda:0" = torch.ops.aten.copy_.default(primals_122, getitem_129);  getitem_129 = copy__1 = None
        copy__2: "i64[3][1]cuda:0" = torch.ops.aten.copy_.default(primals_113, getitem_986);  primals_113 = getitem_986 = copy__2 = None
        copy__3: "i64[3][1]cuda:0" = torch.ops.aten.copy_.default(primals_122, getitem_978);  primals_122 = getitem_978 = copy__3 = None
        view_1353: "bf16[514, 256][256, 1]cuda:0" = torch.ops.aten.view.default(getitem_1228, [514, 256]);  getitem_1228 = None
        view_1354: "bf16[514, 256][256, 1]cuda:0" = torch.ops.aten.view.default(getitem_1230, [514, 256]);  getitem_1230 = None
        view_1355: "f32[10, 251, 256][64256, 256, 1]cuda:0" = torch.ops.aten.view.default(getitem_1226, [10, 251, 256]);  getitem_1226 = None
        slice_163: "f32[10, 230, 256][64256, 256, 1]cuda:0" = torch.ops.aten.slice.Tensor(view_1355, 1, 0, 230);  view_1355 = None
        return pytree.tree_unflatten([
            select,  # PlainAOTOutput(idx=0)
            select_1,  # PlainAOTOutput(idx=1)
            select_2,  # PlainAOTOutput(idx=2)
            select_3,  # PlainAOTOutput(idx=3)
            select_4,  # PlainAOTOutput(idx=4)
            select_5,  # PlainAOTOutput(idx=5)
            select_6,  # PlainAOTOutput(idx=6)
            select_7,  # PlainAOTOutput(idx=7)
            select_8,  # PlainAOTOutput(idx=8)
            select_9,  # PlainAOTOutput(idx=9)
            select_10,  # PlainAOTOutput(idx=10)
            select_11,  # PlainAOTOutput(idx=11)
            select_12,  # PlainAOTOutput(idx=12)
            select_13,  # PlainAOTOutput(idx=13)
            select_14,  # PlainAOTOutput(idx=14)
            select_15,  # PlainAOTOutput(idx=15)
            select_16,  # PlainAOTOutput(idx=16)
            select_17,  # PlainAOTOutput(idx=17)
            addmm_17,  # PlainAOTOutput(idx=18)
            addmm_15,  # PlainAOTOutput(idx=19)
            getitem_266,  # PlainAOTOutput(idx=20)
            getitem_274,  # PlainAOTOutput(idx=21)
            _local_scalar_dense_13,  # PlainAOTOutput(idx=22)
            _local_scalar_dense_9,  # PlainAOTOutput(idx=23)
            bmm_20,  # IntermediateBaseAOTOutput(base_of=PlainAOTOutput(idx=0))
            view_1353,  # GradAOTOutput(grad_of=PlainAOTInput(idx=0))
            view_1354,  # GradAOTOutput(grad_of=PlainAOTInput(idx=1))
            None,  # None
            convert_element_type_2108,  # GradAOTOutput(grad_of=PlainAOTInput(idx=3))
            sum_177,  # GradAOTOutput(grad_of=PlainAOTInput(idx=4))
            convert_element_type_2103,  # GradAOTOutput(grad_of=PlainAOTInput(idx=5))
            None,  # None
            sum_175,  # GradAOTOutput(grad_of=PlainAOTInput(idx=7))
            convert_element_type_2098,  # GradAOTOutput(grad_of=PlainAOTInput(idx=8))
            None,  # None
            sum_173,  # GradAOTOutput(grad_of=PlainAOTInput(idx=10))
            convert_element_type_2093,  # GradAOTOutput(grad_of=PlainAOTInput(idx=11))
            None,  # None
            sum_171,  # GradAOTOutput(grad_of=PlainAOTInput(idx=13))
            convert_element_type_2088,  # GradAOTOutput(grad_of=PlainAOTInput(idx=14))
            None,  # None
            sum_169,  # GradAOTOutput(grad_of=PlainAOTInput(idx=16))
            convert_element_type_2083,  # GradAOTOutput(grad_of=PlainAOTInput(idx=17))
            None,  # None
            sum_167,  # GradAOTOutput(grad_of=PlainAOTInput(idx=19))
            None,  # None
            convert_element_type_2078,  # GradAOTOutput(grad_of=PlainAOTInput(idx=21))
            convert_element_type_2077,  # GradAOTOutput(grad_of=PlainAOTInput(idx=22))
            convert_element_type_2074,  # GradAOTOutput(grad_of=PlainAOTInput(idx=23))
            convert_element_type_2073,  # GradAOTOutput(grad_of=PlainAOTInput(idx=24))
            convert_element_type_2063,  # GradAOTOutput(grad_of=PlainAOTInput(idx=25))
            sum_163,  # GradAOTOutput(grad_of=PlainAOTInput(idx=26))
            convert_element_type_2053,  # GradAOTOutput(grad_of=PlainAOTInput(idx=27))
            sum_161,  # GradAOTOutput(grad_of=PlainAOTInput(idx=28))
            convert_element_type_2043,  # GradAOTOutput(grad_of=PlainAOTInput(idx=29))
            sum_159,  # GradAOTOutput(grad_of=PlainAOTInput(idx=30))
            convert_element_type_2033,  # GradAOTOutput(grad_of=PlainAOTInput(idx=31))
            sum_157,  # GradAOTOutput(grad_of=PlainAOTInput(idx=32))
            convert_element_type_2023,  # GradAOTOutput(grad_of=PlainAOTInput(idx=33))
            slice_163,  # GradAOTOutput(grad_of=PlainAOTInput(idx=34))
            convert_element_type_2016,  # GradAOTOutput(grad_of=PlainAOTInput(idx=35))
            getitem_1231,  # GradAOTOutput(grad_of=PlainAOTInput(idx=36))
            getitem_1229,  # GradAOTOutput(grad_of=PlainAOTInput(idx=37))
            getitem_1227,  # GradAOTOutput(grad_of=PlainAOTInput(idx=38))
            getitem_1225,  # GradAOTOutput(grad_of=PlainAOTInput(idx=39))
            convert_element_type_2013,  # GradAOTOutput(grad_of=PlainAOTInput(idx=40))
            convert_element_type_2008,  # GradAOTOutput(grad_of=PlainAOTInput(idx=41))
            sum_155,  # GradAOTOutput(grad_of=PlainAOTInput(idx=42))
            convert_element_type_1998,  # GradAOTOutput(grad_of=PlainAOTInput(idx=43))
            getitem_1223,  # GradAOTOutput(grad_of=PlainAOTInput(idx=44))
            convert_element_type_1981,  # GradAOTOutput(grad_of=PlainAOTInput(idx=45))
            sum_153,  # GradAOTOutput(grad_of=PlainAOTInput(idx=46))
            convert_element_type_1971,  # GradAOTOutput(grad_of=PlainAOTInput(idx=47))
            sum_151,  # GradAOTOutput(grad_of=PlainAOTInput(idx=48))
            convert_element_type_1961,  # GradAOTOutput(grad_of=PlainAOTInput(idx=49))
            sum_149,  # GradAOTOutput(grad_of=PlainAOTInput(idx=50))
            convert_element_type_1951,  # GradAOTOutput(grad_of=PlainAOTInput(idx=51))
            sum_147,  # GradAOTOutput(grad_of=PlainAOTInput(idx=52))
            convert_element_type_1941,  # GradAOTOutput(grad_of=PlainAOTInput(idx=53))
            sum_145,  # GradAOTOutput(grad_of=PlainAOTInput(idx=54))
            convert_element_type_1931,  # GradAOTOutput(grad_of=PlainAOTInput(idx=55))
            getitem_1221,  # GradAOTOutput(grad_of=PlainAOTInput(idx=56))
            convert_element_type_1926,  # GradAOTOutput(grad_of=PlainAOTInput(idx=57))
            convert_element_type_1921,  # GradAOTOutput(grad_of=PlainAOTInput(idx=58))
            sum_143,  # GradAOTOutput(grad_of=PlainAOTInput(idx=59))
            convert_element_type_1911,  # GradAOTOutput(grad_of=PlainAOTInput(idx=60))
            getitem_1219,  # GradAOTOutput(grad_of=PlainAOTInput(idx=61))
            convert_element_type_1896,  # GradAOTOutput(grad_of=PlainAOTInput(idx=62))
            sum_141,  # GradAOTOutput(grad_of=PlainAOTInput(idx=63))
            convert_element_type_1886,  # GradAOTOutput(grad_of=PlainAOTInput(idx=64))
            sum_139,  # GradAOTOutput(grad_of=PlainAOTInput(idx=65))
            convert_element_type_1876,  # GradAOTOutput(grad_of=PlainAOTInput(idx=66))
            sum_137,  # GradAOTOutput(grad_of=PlainAOTInput(idx=67))
            convert_element_type_1866,  # GradAOTOutput(grad_of=PlainAOTInput(idx=68))
            sum_135,  # GradAOTOutput(grad_of=PlainAOTInput(idx=69))
            convert_element_type_1856,  # GradAOTOutput(grad_of=PlainAOTInput(idx=70))
            sum_133,  # GradAOTOutput(grad_of=PlainAOTInput(idx=71))
            convert_element_type_1846,  # GradAOTOutput(grad_of=PlainAOTInput(idx=72))
            getitem_1217,  # GradAOTOutput(grad_of=PlainAOTInput(idx=73))
            convert_element_type_1841,  # GradAOTOutput(grad_of=PlainAOTInput(idx=74))
            convert_element_type_1836,  # GradAOTOutput(grad_of=PlainAOTInput(idx=75))
            sum_131,  # GradAOTOutput(grad_of=PlainAOTInput(idx=76))
            convert_element_type_1826,  # GradAOTOutput(grad_of=PlainAOTInput(idx=77))
            getitem_1215,  # GradAOTOutput(grad_of=PlainAOTInput(idx=78))
            convert_element_type_1811,  # GradAOTOutput(grad_of=PlainAOTInput(idx=79))
            sum_129,  # GradAOTOutput(grad_of=PlainAOTInput(idx=80))
            convert_element_type_1801,  # GradAOTOutput(grad_of=PlainAOTInput(idx=81))
            sum_127,  # GradAOTOutput(grad_of=PlainAOTInput(idx=82))
            convert_element_type_1791,  # GradAOTOutput(grad_of=PlainAOTInput(idx=83))
            sum_125,  # GradAOTOutput(grad_of=PlainAOTInput(idx=84))
            convert_element_type_1781,  # GradAOTOutput(grad_of=PlainAOTInput(idx=85))
            sum_123,  # GradAOTOutput(grad_of=PlainAOTInput(idx=86))
            convert_element_type_1771,  # GradAOTOutput(grad_of=PlainAOTInput(idx=87))
            sum_121,  # GradAOTOutput(grad_of=PlainAOTInput(idx=88))
            convert_element_type_1761,  # GradAOTOutput(grad_of=PlainAOTInput(idx=89))
            getitem_1213,  # GradAOTOutput(grad_of=PlainAOTInput(idx=90))
            convert_element_type_1756,  # GradAOTOutput(grad_of=PlainAOTInput(idx=91))
            convert_element_type_1751,  # GradAOTOutput(grad_of=PlainAOTInput(idx=92))
            sum_119,  # GradAOTOutput(grad_of=PlainAOTInput(idx=93))
            convert_element_type_1741,  # GradAOTOutput(grad_of=PlainAOTInput(idx=94))
            getitem_1211,  # GradAOTOutput(grad_of=PlainAOTInput(idx=95))
            convert_element_type_1726,  # GradAOTOutput(grad_of=PlainAOTInput(idx=96))
            sum_117,  # GradAOTOutput(grad_of=PlainAOTInput(idx=97))
            convert_element_type_1716,  # GradAOTOutput(grad_of=PlainAOTInput(idx=98))
            sum_115,  # GradAOTOutput(grad_of=PlainAOTInput(idx=99))
            convert_element_type_1706,  # GradAOTOutput(grad_of=PlainAOTInput(idx=100))
            sum_113,  # GradAOTOutput(grad_of=PlainAOTInput(idx=101))
            convert_element_type_1696,  # GradAOTOutput(grad_of=PlainAOTInput(idx=102))
            sum_111,  # GradAOTOutput(grad_of=PlainAOTInput(idx=103))
            convert_element_type_1686,  # GradAOTOutput(grad_of=PlainAOTInput(idx=104))
            sum_109,  # GradAOTOutput(grad_of=PlainAOTInput(idx=105))
            convert_element_type_1676,  # GradAOTOutput(grad_of=PlainAOTInput(idx=106))
            getitem_1209,  # GradAOTOutput(grad_of=PlainAOTInput(idx=107))
            convert_element_type_1671,  # GradAOTOutput(grad_of=PlainAOTInput(idx=108))
            convert_element_type_1670,  # GradAOTOutput(grad_of=PlainAOTInput(idx=109))
            convert_element_type_1669,  # GradAOTOutput(grad_of=PlainAOTInput(idx=110))
            convert_element_type_1668,  # GradAOTOutput(grad_of=PlainAOTInput(idx=111))
            None,  # None
            convert_element_type_1657,  # GradAOTOutput(grad_of=PlainAOTInput(idx=113))
            convert_element_type_1656,  # GradAOTOutput(grad_of=PlainAOTInput(idx=114))
            convert_element_type_1655,  # GradAOTOutput(grad_of=PlainAOTInput(idx=115))
            None,  # None
            convert_element_type_1650,  # GradAOTOutput(grad_of=PlainAOTInput(idx=117))
            convert_element_type_1649,  # GradAOTOutput(grad_of=PlainAOTInput(idx=118))
            convert_element_type_1648,  # GradAOTOutput(grad_of=PlainAOTInput(idx=119))
            convert_element_type_1647,  # GradAOTOutput(grad_of=PlainAOTInput(idx=120))
            None,  # None
            convert_element_type_1636,  # GradAOTOutput(grad_of=PlainAOTInput(idx=122))
            convert_element_type_1635,  # GradAOTOutput(grad_of=PlainAOTInput(idx=123))
            convert_element_type_1634,  # GradAOTOutput(grad_of=PlainAOTInput(idx=124))
            None,  # None
            convert_element_type_1629,  # GradAOTOutput(grad_of=PlainAOTInput(idx=126))
            None,  # None
            getitem_991,  # GradAOTOutput(grad_of=PlainAOTInput(idx=128))
            convert_element_type_1624,  # GradAOTOutput(grad_of=PlainAOTInput(idx=129))
            sum_104,  # GradAOTOutput(grad_of=PlainAOTInput(idx=130))
            sum_105,  # GradAOTOutput(grad_of=PlainAOTInput(idx=131))
            convert_element_type_1617,  # GradAOTOutput(grad_of=PlainAOTInput(idx=132))
            convert_element_type_1608,  # GradAOTOutput(grad_of=PlainAOTInput(idx=133))
            convert_element_type_1603,  # GradAOTOutput(grad_of=PlainAOTInput(idx=134))
            getitem_985,  # GradAOTOutput(grad_of=PlainAOTInput(idx=135))
            convert_element_type_1598,  # GradAOTOutput(grad_of=PlainAOTInput(idx=136))
            getitem_983,  # GradAOTOutput(grad_of=PlainAOTInput(idx=137))
            convert_element_type_1593,  # GradAOTOutput(grad_of=PlainAOTInput(idx=138))
            sum_100,  # GradAOTOutput(grad_of=PlainAOTInput(idx=139))
            sum_101,  # GradAOTOutput(grad_of=PlainAOTInput(idx=140))
            convert_element_type_1586,  # GradAOTOutput(grad_of=PlainAOTInput(idx=141))
            convert_element_type_1577,  # GradAOTOutput(grad_of=PlainAOTInput(idx=142))
            convert_element_type_1572,  # GradAOTOutput(grad_of=PlainAOTInput(idx=143))
            getitem_977,  # GradAOTOutput(grad_of=PlainAOTInput(idx=144))
            convert_element_type_1567,  # GradAOTOutput(grad_of=PlainAOTInput(idx=145))
            convert_element_type_1562,  # GradAOTOutput(grad_of=PlainAOTInput(idx=146))
            convert_element_type_1557,  # GradAOTOutput(grad_of=PlainAOTInput(idx=147))
            sum_97,  # GradAOTOutput(grad_of=PlainAOTInput(idx=148))
            convert_element_type_1547,  # GradAOTOutput(grad_of=PlainAOTInput(idx=149))
            getitem_975,  # GradAOTOutput(grad_of=PlainAOTInput(idx=150))
            convert_element_type_1532,  # GradAOTOutput(grad_of=PlainAOTInput(idx=151))
            sum_95,  # GradAOTOutput(grad_of=PlainAOTInput(idx=152))
            convert_element_type_1522,  # GradAOTOutput(grad_of=PlainAOTInput(idx=153))
            sum_93,  # GradAOTOutput(grad_of=PlainAOTInput(idx=154))
            convert_element_type_1512,  # GradAOTOutput(grad_of=PlainAOTInput(idx=155))
            sum_91,  # GradAOTOutput(grad_of=PlainAOTInput(idx=156))
            convert_element_type_1502,  # GradAOTOutput(grad_of=PlainAOTInput(idx=157))
            sum_89,  # GradAOTOutput(grad_of=PlainAOTInput(idx=158))
            convert_element_type_1492,  # GradAOTOutput(grad_of=PlainAOTInput(idx=159))
            sum_87,  # GradAOTOutput(grad_of=PlainAOTInput(idx=160))
            convert_element_type_1482,  # GradAOTOutput(grad_of=PlainAOTInput(idx=161))
            getitem_973,  # GradAOTOutput(grad_of=PlainAOTInput(idx=162))
            convert_element_type_1477,  # GradAOTOutput(grad_of=PlainAOTInput(idx=163))
            convert_element_type_1476,  # GradAOTOutput(grad_of=PlainAOTInput(idx=164))
            convert_element_type_1475,  # GradAOTOutput(grad_of=PlainAOTInput(idx=165))
            convert_element_type_1474,  # GradAOTOutput(grad_of=PlainAOTInput(idx=166))
            convert_element_type_1463,  # GradAOTOutput(grad_of=PlainAOTInput(idx=167))
            convert_element_type_1462,  # GradAOTOutput(grad_of=PlainAOTInput(idx=168))
            convert_element_type_1461,  # GradAOTOutput(grad_of=PlainAOTInput(idx=169))
            None,  # None
            convert_element_type_1456,  # GradAOTOutput(grad_of=PlainAOTInput(idx=171))
            convert_element_type_1455,  # GradAOTOutput(grad_of=PlainAOTInput(idx=172))
            convert_element_type_1454,  # GradAOTOutput(grad_of=PlainAOTInput(idx=173))
            convert_element_type_1453,  # GradAOTOutput(grad_of=PlainAOTInput(idx=174))
            convert_element_type_1442,  # GradAOTOutput(grad_of=PlainAOTInput(idx=175))
            convert_element_type_1441,  # GradAOTOutput(grad_of=PlainAOTInput(idx=176))
            convert_element_type_1440,  # GradAOTOutput(grad_of=PlainAOTInput(idx=177))
            None,  # None
            convert_element_type_1435,  # GradAOTOutput(grad_of=PlainAOTInput(idx=179))
            getitem_755,  # GradAOTOutput(grad_of=PlainAOTInput(idx=180))
            convert_element_type_1430,  # GradAOTOutput(grad_of=PlainAOTInput(idx=181))
            sum_82,  # GradAOTOutput(grad_of=PlainAOTInput(idx=182))
            sum_83,  # GradAOTOutput(grad_of=PlainAOTInput(idx=183))
            convert_element_type_1423,  # GradAOTOutput(grad_of=PlainAOTInput(idx=184))
            convert_element_type_1414,  # GradAOTOutput(grad_of=PlainAOTInput(idx=185))
            convert_element_type_1409,  # GradAOTOutput(grad_of=PlainAOTInput(idx=186))
            getitem_749,  # GradAOTOutput(grad_of=PlainAOTInput(idx=187))
            convert_element_type_1404,  # GradAOTOutput(grad_of=PlainAOTInput(idx=188))
            getitem_747,  # GradAOTOutput(grad_of=PlainAOTInput(idx=189))
            convert_element_type_1399,  # GradAOTOutput(grad_of=PlainAOTInput(idx=190))
            sum_78,  # GradAOTOutput(grad_of=PlainAOTInput(idx=191))
            sum_79,  # GradAOTOutput(grad_of=PlainAOTInput(idx=192))
            convert_element_type_1392,  # GradAOTOutput(grad_of=PlainAOTInput(idx=193))
            convert_element_type_1383,  # GradAOTOutput(grad_of=PlainAOTInput(idx=194))
            convert_element_type_1378,  # GradAOTOutput(grad_of=PlainAOTInput(idx=195))
            getitem_741,  # GradAOTOutput(grad_of=PlainAOTInput(idx=196))
            convert_element_type_1373,  # GradAOTOutput(grad_of=PlainAOTInput(idx=197))
            convert_element_type_1368,  # GradAOTOutput(grad_of=PlainAOTInput(idx=198))
            convert_element_type_1363,  # GradAOTOutput(grad_of=PlainAOTInput(idx=199))
            sum_75,  # GradAOTOutput(grad_of=PlainAOTInput(idx=200))
            convert_element_type_1353,  # GradAOTOutput(grad_of=PlainAOTInput(idx=201))
            getitem_739,  # GradAOTOutput(grad_of=PlainAOTInput(idx=202))
            convert_element_type_1338,  # GradAOTOutput(grad_of=PlainAOTInput(idx=203))
            sum_73,  # GradAOTOutput(grad_of=PlainAOTInput(idx=204))
            convert_element_type_1328,  # GradAOTOutput(grad_of=PlainAOTInput(idx=205))
            sum_71,  # GradAOTOutput(grad_of=PlainAOTInput(idx=206))
            convert_element_type_1318,  # GradAOTOutput(grad_of=PlainAOTInput(idx=207))
            sum_69,  # GradAOTOutput(grad_of=PlainAOTInput(idx=208))
            convert_element_type_1308,  # GradAOTOutput(grad_of=PlainAOTInput(idx=209))
            sum_67,  # GradAOTOutput(grad_of=PlainAOTInput(idx=210))
            convert_element_type_1298,  # GradAOTOutput(grad_of=PlainAOTInput(idx=211))
            sum_65,  # GradAOTOutput(grad_of=PlainAOTInput(idx=212))
            convert_element_type_1288,  # GradAOTOutput(grad_of=PlainAOTInput(idx=213))
            getitem_737,  # GradAOTOutput(grad_of=PlainAOTInput(idx=214))
            convert_element_type_1283,  # GradAOTOutput(grad_of=PlainAOTInput(idx=215))
            convert_element_type_1282,  # GradAOTOutput(grad_of=PlainAOTInput(idx=216))
            convert_element_type_1281,  # GradAOTOutput(grad_of=PlainAOTInput(idx=217))
            convert_element_type_1280,  # GradAOTOutput(grad_of=PlainAOTInput(idx=218))
            convert_element_type_1269,  # GradAOTOutput(grad_of=PlainAOTInput(idx=219))
            convert_element_type_1268,  # GradAOTOutput(grad_of=PlainAOTInput(idx=220))
            convert_element_type_1267,  # GradAOTOutput(grad_of=PlainAOTInput(idx=221))
            None,  # None
            convert_element_type_1262,  # GradAOTOutput(grad_of=PlainAOTInput(idx=223))
            convert_element_type_1261,  # GradAOTOutput(grad_of=PlainAOTInput(idx=224))
            convert_element_type_1260,  # GradAOTOutput(grad_of=PlainAOTInput(idx=225))
            convert_element_type_1259,  # GradAOTOutput(grad_of=PlainAOTInput(idx=226))
            convert_element_type_1248,  # GradAOTOutput(grad_of=PlainAOTInput(idx=227))
            convert_element_type_1247,  # GradAOTOutput(grad_of=PlainAOTInput(idx=228))
            convert_element_type_1246,  # GradAOTOutput(grad_of=PlainAOTInput(idx=229))
            None,  # None
            convert_element_type_1241,  # GradAOTOutput(grad_of=PlainAOTInput(idx=231))
            getitem_517,  # GradAOTOutput(grad_of=PlainAOTInput(idx=232))
            convert_element_type_1236,  # GradAOTOutput(grad_of=PlainAOTInput(idx=233))
            sum_60,  # GradAOTOutput(grad_of=PlainAOTInput(idx=234))
            sum_61,  # GradAOTOutput(grad_of=PlainAOTInput(idx=235))
            convert_element_type_1229,  # GradAOTOutput(grad_of=PlainAOTInput(idx=236))
            convert_element_type_1220,  # GradAOTOutput(grad_of=PlainAOTInput(idx=237))
            convert_element_type_1215,  # GradAOTOutput(grad_of=PlainAOTInput(idx=238))
            getitem_511,  # GradAOTOutput(grad_of=PlainAOTInput(idx=239))
            convert_element_type_1210,  # GradAOTOutput(grad_of=PlainAOTInput(idx=240))
            getitem_509,  # GradAOTOutput(grad_of=PlainAOTInput(idx=241))
            convert_element_type_1205,  # GradAOTOutput(grad_of=PlainAOTInput(idx=242))
            sum_56,  # GradAOTOutput(grad_of=PlainAOTInput(idx=243))
            sum_57,  # GradAOTOutput(grad_of=PlainAOTInput(idx=244))
            convert_element_type_1198,  # GradAOTOutput(grad_of=PlainAOTInput(idx=245))
            convert_element_type_1189,  # GradAOTOutput(grad_of=PlainAOTInput(idx=246))
            convert_element_type_1184,  # GradAOTOutput(grad_of=PlainAOTInput(idx=247))
            getitem_503,  # GradAOTOutput(grad_of=PlainAOTInput(idx=248))
            convert_element_type_1179,  # GradAOTOutput(grad_of=PlainAOTInput(idx=249))
            convert_element_type_1174,  # GradAOTOutput(grad_of=PlainAOTInput(idx=250))
            convert_element_type_1169,  # GradAOTOutput(grad_of=PlainAOTInput(idx=251))
            sum_53,  # GradAOTOutput(grad_of=PlainAOTInput(idx=252))
            convert_element_type_1159,  # GradAOTOutput(grad_of=PlainAOTInput(idx=253))
            getitem_501,  # GradAOTOutput(grad_of=PlainAOTInput(idx=254))
            convert_element_type_1144,  # GradAOTOutput(grad_of=PlainAOTInput(idx=255))
            sum_51,  # GradAOTOutput(grad_of=PlainAOTInput(idx=256))
            convert_element_type_1134,  # GradAOTOutput(grad_of=PlainAOTInput(idx=257))
            sum_49,  # GradAOTOutput(grad_of=PlainAOTInput(idx=258))
            convert_element_type_1124,  # GradAOTOutput(grad_of=PlainAOTInput(idx=259))
            sum_47,  # GradAOTOutput(grad_of=PlainAOTInput(idx=260))
            convert_element_type_1114,  # GradAOTOutput(grad_of=PlainAOTInput(idx=261))
            sum_45,  # GradAOTOutput(grad_of=PlainAOTInput(idx=262))
            convert_element_type_1104,  # GradAOTOutput(grad_of=PlainAOTInput(idx=263))
            sum_43,  # GradAOTOutput(grad_of=PlainAOTInput(idx=264))
            convert_element_type_1094,  # GradAOTOutput(grad_of=PlainAOTInput(idx=265))
            getitem_499,  # GradAOTOutput(grad_of=PlainAOTInput(idx=266))
            convert_element_type_1089,  # GradAOTOutput(grad_of=PlainAOTInput(idx=267))
            convert_element_type_1088,  # GradAOTOutput(grad_of=PlainAOTInput(idx=268))
            convert_element_type_1087,  # GradAOTOutput(grad_of=PlainAOTInput(idx=269))
            convert_element_type_1086,  # GradAOTOutput(grad_of=PlainAOTInput(idx=270))
            convert_element_type_1075,  # GradAOTOutput(grad_of=PlainAOTInput(idx=271))
            convert_element_type_1074,  # GradAOTOutput(grad_of=PlainAOTInput(idx=272))
            convert_element_type_1073,  # GradAOTOutput(grad_of=PlainAOTInput(idx=273))
            None,  # None
            convert_element_type_1068,  # GradAOTOutput(grad_of=PlainAOTInput(idx=275))
            convert_element_type_1067,  # GradAOTOutput(grad_of=PlainAOTInput(idx=276))
            convert_element_type_1066,  # GradAOTOutput(grad_of=PlainAOTInput(idx=277))
            convert_element_type_1065,  # GradAOTOutput(grad_of=PlainAOTInput(idx=278))
            convert_element_type_1054,  # GradAOTOutput(grad_of=PlainAOTInput(idx=279))
            convert_element_type_1053,  # GradAOTOutput(grad_of=PlainAOTInput(idx=280))
            convert_element_type_1052,  # GradAOTOutput(grad_of=PlainAOTInput(idx=281))
            None,  # None
            convert_element_type_1047,  # GradAOTOutput(grad_of=PlainAOTInput(idx=283))
            getitem_279,  # GradAOTOutput(grad_of=PlainAOTInput(idx=284))
            convert_element_type_1042,  # GradAOTOutput(grad_of=PlainAOTInput(idx=285))
            sum_38,  # GradAOTOutput(grad_of=PlainAOTInput(idx=286))
            sum_39,  # GradAOTOutput(grad_of=PlainAOTInput(idx=287))
            convert_element_type_1035,  # GradAOTOutput(grad_of=PlainAOTInput(idx=288))
            convert_element_type_1026,  # GradAOTOutput(grad_of=PlainAOTInput(idx=289))
            convert_element_type_1021,  # GradAOTOutput(grad_of=PlainAOTInput(idx=290))
            getitem_273,  # GradAOTOutput(grad_of=PlainAOTInput(idx=291))
            convert_element_type_1016,  # GradAOTOutput(grad_of=PlainAOTInput(idx=292))
            getitem_271,  # GradAOTOutput(grad_of=PlainAOTInput(idx=293))
            convert_element_type_1011,  # GradAOTOutput(grad_of=PlainAOTInput(idx=294))
            sum_34,  # GradAOTOutput(grad_of=PlainAOTInput(idx=295))
            sum_35,  # GradAOTOutput(grad_of=PlainAOTInput(idx=296))
            convert_element_type_1004,  # GradAOTOutput(grad_of=PlainAOTInput(idx=297))
            convert_element_type_995,  # GradAOTOutput(grad_of=PlainAOTInput(idx=298))
            convert_element_type_990,  # GradAOTOutput(grad_of=PlainAOTInput(idx=299))
            getitem_265,  # GradAOTOutput(grad_of=PlainAOTInput(idx=300))
            convert_element_type_985,  # GradAOTOutput(grad_of=PlainAOTInput(idx=301))
            convert_element_type_980,  # GradAOTOutput(grad_of=PlainAOTInput(idx=302))
            convert_element_type_975,  # GradAOTOutput(grad_of=PlainAOTInput(idx=303))
            sum_31,  # GradAOTOutput(grad_of=PlainAOTInput(idx=304))
            convert_element_type_965,  # GradAOTOutput(grad_of=PlainAOTInput(idx=305))
            getitem_263,  # GradAOTOutput(grad_of=PlainAOTInput(idx=306))
            convert_element_type_950,  # GradAOTOutput(grad_of=PlainAOTInput(idx=307))
            sum_29,  # GradAOTOutput(grad_of=PlainAOTInput(idx=308))
            convert_element_type_940,  # GradAOTOutput(grad_of=PlainAOTInput(idx=309))
            sum_27,  # GradAOTOutput(grad_of=PlainAOTInput(idx=310))
            convert_element_type_930,  # GradAOTOutput(grad_of=PlainAOTInput(idx=311))
            sum_25,  # GradAOTOutput(grad_of=PlainAOTInput(idx=312))
            convert_element_type_920,  # GradAOTOutput(grad_of=PlainAOTInput(idx=313))
            sum_23,  # GradAOTOutput(grad_of=PlainAOTInput(idx=314))
            convert_element_type_910,  # GradAOTOutput(grad_of=PlainAOTInput(idx=315))
            sum_21,  # GradAOTOutput(grad_of=PlainAOTInput(idx=316))
            view_563,  # GradAOTOutput(grad_of=PlainAOTInput(idx=317))
            squeeze_9,  # GradAOTOutput(grad_of=PlainAOTInput(idx=318))
            sum_15,  # GradAOTOutput(grad_of=PlainAOTInput(idx=319))
            sum_16,  # GradAOTOutput(grad_of=PlainAOTInput(idx=320))
            squeeze_7,  # GradAOTOutput(grad_of=PlainAOTInput(idx=321))
            sum_11,  # GradAOTOutput(grad_of=PlainAOTInput(idx=322))
            sum_12,  # GradAOTOutput(grad_of=PlainAOTInput(idx=323))
            squeeze_5,  # GradAOTOutput(grad_of=PlainAOTInput(idx=324))
            sum_7,  # GradAOTOutput(grad_of=PlainAOTInput(idx=325))
            sum_8,  # GradAOTOutput(grad_of=PlainAOTInput(idx=326))
            squeeze_3,  # GradAOTOutput(grad_of=PlainAOTInput(idx=327))
            sum_3,  # GradAOTOutput(grad_of=PlainAOTInput(idx=328))
            sum_4,  # GradAOTOutput(grad_of=PlainAOTInput(idx=329))
            squeeze_1,  # GradAOTOutput(grad_of=PlainAOTInput(idx=330))
        ], self._out_spec)
        