[DUMP tensorexpr_fuser.cpp:538]   %sparse_arch_embedding_modules_table_15.1 : Float(20, 128, strides=[128, 1], requires_grad=0, device=cpu) = quantized::embedding_bag_4bit_rowwise_offsets(%109, %values_15.1, %offsets7.68, %275, %176, %275, %weights_or_none_15.1, %self.max_ind_range, %self.preproc.int32_sparse_indices)
[DUMP tensorexpr_fuser.cpp:538]   %getitem_16.1 : __torch__._torch_package_0_.torchrec.sparse.jagged_tensor.JaggedTensor = aten::__getitem__(%_jt_dict.1, %50) # <eval_with_key>.47:87:17
[DUMP tensorexpr_fuser.cpp:538]   %values_16.1 : Int(20, strides=[1], requires_grad=0, device=cpu) = prim::GetAttr[name="_values"](%getitem_16.1)
[DUMP tensorexpr_fuser.cpp:538]   %_offsets.37 : Int(21, strides=[1], requires_grad=0, device=cpu) = prim::GetAttr[name="_offsets"](%getitem_16.1)
[DUMP tensorexpr_fuser.cpp:538]   %offsets7.72 : Int(21, strides=[1], requires_grad=0, device=cpu) = prim::unchecked_cast(%_offsets.37)
[DUMP tensorexpr_fuser.cpp:538]    = prim::SetAttr[name="_offsets"](%getitem_16.1, %offsets7.72)
[DUMP tensorexpr_fuser.cpp:538]   %weights_or_none_16.1 : Tensor? = prim::GetAttr[name="_weights"](%getitem_16.1)
[DUMP tensorexpr_fuser.cpp:538]   %sparse_arch_embedding_modules_table_16.1 : Float(20, 64, strides=[64, 1], requires_grad=0, device=cpu) = quantized::embedding_bag_4bit_rowwise_offsets(%110, %values_16.1, %offsets7.72, %275, %176, %275, %weights_or_none_16.1, %self.max_ind_range, %self.preproc.int32_sparse_indices)
[DUMP tensorexpr_fuser.cpp:538]   %getitem_17.1 : __torch__._torch_package_0_.torchrec.sparse.jagged_tensor.JaggedTensor = aten::__getitem__(%_jt_dict.1, %49) # <eval_with_key>.47:92:17
[DUMP tensorexpr_fuser.cpp:538]   %values_17.1 : Int(20, strides=[1], requires_grad=0, device=cpu) = prim::GetAttr[name="_values"](%getitem_17.1)
[DUMP tensorexpr_fuser.cpp:538]   %_offsets.39 : Int(21, strides=[1], requires_grad=0, device=cpu) = prim::GetAttr[name="_offsets"](%getitem_17.1)
[DUMP tensorexpr_fuser.cpp:538]   %offsets7.76 : Int(21, strides=[1], requires_grad=0, device=cpu) = prim::unchecked_cast(%_offsets.39)
[DUMP tensorexpr_fuser.cpp:538]    = prim::SetAttr[name="_offsets"](%getitem_17.1, %offsets7.76)
[DUMP tensorexpr_fuser.cpp:538]   %weights_or_none_17.1 : Tensor? = prim::GetAttr[name="_weights"](%getitem_17.1)
[DUMP tensorexpr_fuser.cpp:538]   %sparse_arch_embedding_modules_table_17.1 : Float(20, 64, strides=[64, 1], requires_grad=0, device=cpu) = quantized::embedding_bag_4bit_rowwise_offsets(%111, %values_17.1, %offsets7.76, %275, %176, %275, %weights_or_none_17.1, %self.max_ind_range, %self.preproc.int32_sparse_indices)
[DUMP tensorexpr_fuser.cpp:538]   %getitem_18.1 : __torch__._torch_package_0_.torchrec.sparse.jagged_tensor.JaggedTensor = aten::__getitem__(%_jt_dict.1, %79) # <eval_with_key>.47:97:17
[DUMP tensorexpr_fuser.cpp:538]   %values_18.1 : Int(18, strides=[1], requires_grad=0, device=cpu) = prim::GetAttr[name="_values"](%getitem_18.1)
[DUMP tensorexpr_fuser.cpp:538]   %_offsets.41 : Int(21, strides=[1], requires_grad=0, device=cpu) = prim::GetAttr[name="_offsets"](%getitem_18.1)
[DUMP tensorexpr_fuser.cpp:538]   %offsets7.80 : Int(21, strides=[1], requires_grad=0, device=cpu) = prim::unchecked_cast(%_offsets.41)
[DUMP tensorexpr_fuser.cpp:538]    = prim::SetAttr[name="_offsets"](%getitem_18.1, %offsets7.80)
[DUMP tensorexpr_fuser.cpp:538]   %weights_or_none_18.1 : Tensor? = prim::GetAttr[name="_weights"](%getitem_18.1)
[DUMP tensorexpr_fuser.cpp:538]   %sparse_arch_embedding_modules_table_18.1 : Float(20, 64, strides=[64, 1], requires_grad=0, device=cpu) = quantized::embedding_bag_4bit_rowwise_offsets(%112, %values_18.1, %offsets7.80, %275, %176, %275, %weights_or_none_18.1, %self.max_ind_range, %self.preproc.int32_sparse_indices)
[DUMP tensorexpr_fuser.cpp:538]   %getitem_19.1 : __torch__._torch_package_0_.torchrec.sparse.jagged_tensor.JaggedTensor = aten::__getitem__(%_jt_dict.1, %48) # <eval_with_key>.47:102:17
[DUMP tensorexpr_fuser.cpp:538]   %values_19.1 : Int(20, strides=[1], requires_grad=0, device=cpu) = prim::GetAttr[name="_values"](%getitem_19.1)
[DUMP tensorexpr_fuser.cpp:538]   %_offsets.43 : Int(21, strides=[1], requires_grad=0, device=cpu) = prim::GetAttr[name="_offsets"](%getitem_19.1)
[DUMP tensorexpr_fuser.cpp:538]   %offsets7.84 : Int(21, strides=[1], requires_grad=0, device=cpu) = prim::unchecked_cast(%_offsets.43)
[DUMP tensorexpr_fuser.cpp:538]    = prim::SetAttr[name="_offsets"](%getitem_19.1, %offsets7.84)
[DUMP tensorexpr_fuser.cpp:538]   %weights_or_none_19.1 : Tensor? = prim::GetAttr[name="_weights"](%getitem_19.1)
[DUMP tensorexpr_fuser.cpp:538]   %sparse_arch_embedding_modules_table_19.1 : Float(20, 64, strides=[64, 1], requires_grad=0, device=cpu) = quantized::embedding_bag_4bit_rowwise_offsets(%113, %values_19.1, %offsets7.84, %275, %176, %275, %weights_or_none_19.1, %self.max_ind_range, %self.preproc.int32_sparse_indices)
[DUMP tensorexpr_fuser.cpp:538]   %getitem_20.1 : __torch__._torch_package_0_.torchrec.sparse.jagged_tensor.JaggedTensor = aten::__getitem__(%_jt_dict.1, %47) # <eval_with_key>.47:107:17
[DUMP tensorexpr_fuser.cpp:538]   %values_20.1 : Int(41, strides=[1], requires_grad=0, device=cpu) = prim::GetAttr[name="_values"](%getitem_20.1)
[DUMP tensorexpr_fuser.cpp:538]   %_offsets.45 : Int(21, strides=[1], requires_grad=0, device=cpu) = prim::GetAttr[name="_offsets"](%getitem_20.1)
[DUMP tensorexpr_fuser.cpp:538]   %offsets7.88 : Int(21, strides=[1], requires_grad=0, device=cpu) = prim::unchecked_cast(%_offsets.45)
[DUMP tensorexpr_fuser.cpp:538]    = prim::SetAttr[name="_offsets"](%getitem_20.1, %offsets7.88)
[DUMP tensorexpr_fuser.cpp:538]   %weights_or_none_20.1 : Tensor? = prim::GetAttr[name="_weights"](%getitem_20.1)
[DUMP tensorexpr_fuser.cpp:538]   %sparse_arch_embedding_modules_table_20.1 : Float(20, 64, strides=[64, 1], requires_grad=0, device=cpu) = quantized::embedding_bag_4bit_rowwise_offsets(%114, %values_20.1, %offsets7.88, %275, %176, %275, %weights_or_none_20.1, %self.max_ind_range, %self.preproc.int32_sparse_indices)
[DUMP tensorexpr_fuser.cpp:538]   %getitem_21.1 : __torch__._torch_package_0_.torchrec.sparse.jagged_tensor.JaggedTensor = aten::__getitem__(%_jt_dict.1, %46) # <eval_with_key>.47:112:17
[DUMP tensorexpr_fuser.cpp:538]   %values_21.1 : Int(20, strides=[1], requires_grad=0, device=cpu) = prim::GetAttr[name="_values"](%getitem_21.1)
[DUMP tensorexpr_fuser.cpp:538]   %_offsets.47 : Int(21, strides=[1], requires_grad=0, device=cpu) = prim::GetAttr[name="_offsets"](%getitem_21.1)
[DUMP tensorexpr_fuser.cpp:538]   %offsets7.92 : Int(21, strides=[1], requires_grad=0, device=cpu) = prim::unchecked_cast(%_offsets.47)
[DUMP tensorexpr_fuser.cpp:538]    = prim::SetAttr[name="_offsets"](%getitem_21.1, %offsets7.92)
[DUMP tensorexpr_fuser.cpp:538]   %weights_or_none_21.1 : Tensor? = prim::GetAttr[name="_weights"](%getitem_21.1)
[DUMP tensorexpr_fuser.cpp:538]   %sparse_arch_embedding_modules_table_21.1 : Float(20, 64, strides=[64, 1], requires_grad=0, device=cpu) = quantized::embedding_bag_4bit_rowwise_offsets(%115, %values_21.1, %offsets7.92, %275, %176, %275, %weights_or_none_21.1, %self.max_ind_range, %self.preproc.int32_sparse_indices)
[DUMP tensorexpr_fuser.cpp:538]   %getitem_22.1 : __torch__._torch_package_0_.torchrec.sparse.jagged_tensor.JaggedTensor = aten::__getitem__(%_jt_dict.1, %45) # <eval_with_key>.47:117:17
[DUMP tensorexpr_fuser.cpp:538]   %values_22.1 : Int(996, strides=[1], requires_grad=0, device=cpu) = prim::GetAttr[name="_values"](%getitem_22.1)
[DUMP tensorexpr_fuser.cpp:538]   %_offsets.49 : Int(21, strides=[1], requires_grad=0, device=cpu) = prim::GetAttr[name="_offsets"](%getitem_22.1)
[DUMP tensorexpr_fuser.cpp:538]   %offsets7.96 : Int(21, strides=[1], requires_grad=0, device=cpu) = prim::unchecked_cast(%_offsets.49)
[DUMP tensorexpr_fuser.cpp:538]    = prim::SetAttr[name="_offsets"](%getitem_22.1, %offsets7.96)
[DUMP tensorexpr_fuser.cpp:538]   %weights_or_none_22.1 : Tensor? = prim::GetAttr[name="_weights"](%getitem_22.1)
[DUMP tensorexpr_fuser.cpp:538]   %sparse_arch_embedding_modules_table_22.1 : Float(20, 64, strides=[64, 1], requires_grad=0, device=cpu) = quantized::embedding_bag_4bit_rowwise_offsets(%116, %values_22.1, %offsets7.96, %275, %176, %275, %weights_or_none_22.1, %self.max_ind_range, %self.preproc.int32_sparse_indices)
[DUMP tensorexpr_fuser.cpp:538]   %getitem_23.1 : __torch__._torch_package_0_.torchrec.sparse.jagged_tensor.JaggedTensor = aten::__getitem__(%_jt_dict.1, %78) # <eval_with_key>.47:122:17
[DUMP tensorexpr_fuser.cpp:538]   %values_23.1 : Int(3567, strides=[1], requires_grad=0, device=cpu) = prim::GetAttr[name="_values"](%getitem_23.1)
[DUMP tensorexpr_fuser.cpp:538]   %_offsets.51 : Int(21, strides=[1], requires_grad=0, device=cpu) = prim::GetAttr[name="_offsets"](%getitem_23.1)
[DUMP tensorexpr_fuser.cpp:538]   %offsets7.100 : Int(21, strides=[1], requires_grad=0, device=cpu) = prim::unchecked_cast(%_offsets.51)
[DUMP tensorexpr_fuser.cpp:538]    = prim::SetAttr[name="_offsets"](%getitem_23.1, %offsets7.100)
[DUMP tensorexpr_fuser.cpp:538]   %weights_or_none_23.1 : Tensor? = prim::GetAttr[name="_weights"](%getitem_23.1)
[DUMP tensorexpr_fuser.cpp:538]   %sparse_arch_embedding_modules_table_23.1 : Float(20, 128, strides=[128, 1], requires_grad=0, device=cpu) = quantized::embedding_bag_4bit_rowwise_offsets(%117, %values_23.1, %offsets7.100, %275, %176, %275, %weights_or_none_23.1, %self.max_ind_range, %self.preproc.int32_sparse_indices)
[DUMP tensorexpr_fuser.cpp:538]   %getitem_24.1 : __torch__._torch_package_0_.torchrec.sparse.jagged_tensor.JaggedTensor = aten::__getitem__(%_jt_dict.1, %44) # <eval_with_key>.47:127:17
[DUMP tensorexpr_fuser.cpp:538]   %values_24.1 : Int(20, strides=[1], requires_grad=0, device=cpu) = prim::GetAttr[name="_values"](%getitem_24.1)
[DUMP tensorexpr_fuser.cpp:538]   %_offsets.53 : Int(21, strides=[1], requires_grad=0, device=cpu) = prim::GetAttr[name="_offsets"](%getitem_24.1)
[DUMP tensorexpr_fuser.cpp:538]   %offsets7.104 : Int(21, strides=[1], requires_grad=0, device=cpu) = prim::unchecked_cast(%_offsets.53)
[DUMP tensorexpr_fuser.cpp:538]    = prim::SetAttr[name="_offsets"](%getitem_24.1, %offsets7.104)
[DUMP tensorexpr_fuser.cpp:538]   %weights_or_none_24.1 : Tensor? = prim::GetAttr[name="_weights"](%getitem_24.1)
[DUMP tensorexpr_fuser.cpp:538]   %sparse_arch_embedding_modules_table_24.1 : Float(20, 128, strides=[128, 1], requires_grad=0, device=cpu) = quantized::embedding_bag_4bit_rowwise_offsets(%118, %values_24.1, %offsets7.104, %275, %176, %275, %weights_or_none_24.1, %self.max_ind_range, %self.preproc.int32_sparse_indices)
[DUMP tensorexpr_fuser.cpp:538]   %getitem_25.1 : __torch__._torch_package_0_.torchrec.sparse.jagged_tensor.JaggedTensor = aten::__getitem__(%_jt_dict.1, %43) # <eval_with_key>.47:132:17
[DUMP tensorexpr_fuser.cpp:538]   %values_25.1 : Int(0, strides=[1], requires_grad=0, device=cpu) = prim::GetAttr[name="_values"](%getitem_25.1)
[DUMP tensorexpr_fuser.cpp:538]   %_offsets.55 : Int(21, strides=[1], requires_grad=0, device=cpu) = prim::GetAttr[name="_offsets"](%getitem_25.1)
[DUMP tensorexpr_fuser.cpp:538]   %offsets7.108 : Int(21, strides=[1], requires_grad=0, device=cpu) = prim::unchecked_cast(%_offsets.55)
[DUMP tensorexpr_fuser.cpp:538]    = prim::SetAttr[name="_offsets"](%getitem_25.1, %offsets7.108)
[DUMP tensorexpr_fuser.cpp:538]   %weights_or_none_25.1 : Tensor? = prim::GetAttr[name="_weights"](%getitem_25.1)
[DUMP tensorexpr_fuser.cpp:538]   %sparse_arch_embedding_modules_table_25.1 : Float(20, 64, strides=[64, 1], requires_grad=0, device=cpu) = quantized::embedding_bag_4bit_rowwise_offsets(%119, %values_25.1, %offsets7.108, %275, %176, %275, %weights_or_none_25.1, %self.max_ind_range, %self.preproc.int32_sparse_indices)
[DUMP tensorexpr_fuser.cpp:538]   %getitem_26.1 : __torch__._torch_package_0_.torchrec.sparse.jagged_tensor.JaggedTensor = aten::__getitem__(%_jt_dict.1, %77) # <eval_with_key>.47:137:17
[DUMP tensorexpr_fuser.cpp:538]   %values_26.1 : Int(654, strides=[1], requires_grad=0, device=cpu) = prim::GetAttr[name="_values"](%getitem_26.1)
[DUMP tensorexpr_fuser.cpp:538]   %_offsets.57 : Int(21, strides=[1], requires_grad=0, device=cpu) = prim::GetAttr[name="_offsets"](%getitem_26.1)
[DUMP tensorexpr_fuser.cpp:538]   %offsets7.112 : Int(21, strides=[1], requires_grad=0, device=cpu) = prim::unchecked_cast(%_offsets.57)
[DUMP tensorexpr_fuser.cpp:538]    = prim::SetAttr[name="_offsets"](%getitem_26.1, %offsets7.112)
[DUMP tensorexpr_fuser.cpp:538]   %weights_or_none_26.1 : Tensor? = prim::GetAttr[name="_weights"](%getitem_26.1)
[DUMP tensorexpr_fuser.cpp:538]   %sparse_arch_embedding_modules_table_26.1 : Float(20, 64, strides=[64, 1], requires_grad=0, device=cpu) = quantized::embedding_bag_4bit_rowwise_offsets(%120, %values_26.1, %offsets7.112, %275, %176, %275, %weights_or_none_26.1, %self.max_ind_range, %self.preproc.int32_sparse_indices)
[DUMP tensorexpr_fuser.cpp:538]   %getitem_27.1 : __torch__._torch_package_0_.torchrec.sparse.jagged_tensor.JaggedTensor = aten::__getitem__(%_jt_dict.1, %42) # <eval_with_key>.47:142:17
[DUMP tensorexpr_fuser.cpp:538]   %values_27.1 : Int(3186, strides=[1], requires_grad=0, device=cpu) = prim::GetAttr[name="_values"](%getitem_27.1)
[DUMP tensorexpr_fuser.cpp:538]   %_offsets.59 : Int(21, strides=[1], requires_grad=0, device=cpu) = prim::GetAttr[name="_offsets"](%getitem_27.1)
[DUMP tensorexpr_fuser.cpp:538]   %offsets7.116 : Int(21, strides=[1], requires_grad=0, device=cpu) = prim::unchecked_cast(%_offsets.59)
[DUMP tensorexpr_fuser.cpp:538]    = prim::SetAttr[name="_offsets"](%getitem_27.1, %offsets7.116)
[DUMP tensorexpr_fuser.cpp:538]   %weights_or_none_27.1 : Tensor? = prim::GetAttr[name="_weights"](%getitem_27.1)
[DUMP tensorexpr_fuser.cpp:538]   %sparse_arch_embedding_modules_table_27.1 : Float(20, 64, strides=[64, 1], requires_grad=0, device=cpu) = quantized::embedding_bag_4bit_rowwise_offsets(%121, %values_27.1, %offsets7.116, %275, %176, %275, %weights_or_none_27.1, %self.max_ind_range, %self.preproc.int32_sparse_indices)
[DUMP tensorexpr_fuser.cpp:538]   %getitem_28.1 : __torch__._torch_package_0_.torchrec.sparse.jagged_tensor.JaggedTensor = aten::__getitem__(%_jt_dict.1, %76) # <eval_with_key>.47:147:17
[DUMP tensorexpr_fuser.cpp:538]   %values_28.1 : Int(8, strides=[1], requires_grad=0, device=cpu) = prim::GetAttr[name="_values"](%getitem_28.1)
[DUMP tensorexpr_fuser.cpp:538]   %_offsets.61 : Int(21, strides=[1], requires_grad=0, device=cpu) = prim::GetAttr[name="_offsets"](%getitem_28.1)
[DUMP tensorexpr_fuser.cpp:538]   %offsets7.120 : Int(21, strides=[1], requires_grad=0, device=cpu) = prim::unchecked_cast(%_offsets.61)
[DUMP tensorexpr_fuser.cpp:538]    = prim::SetAttr[name="_offsets"](%getitem_28.1, %offsets7.120)
[DUMP tensorexpr_fuser.cpp:538]   %weights_or_none_28.1 : Tensor? = prim::GetAttr[name="_weights"](%getitem_28.1)
[DUMP tensorexpr_fuser.cpp:538]   %sparse_arch_embedding_modules_table_28.1 : Float(20, 64, strides=[64, 1], requires_grad=0, device=cpu) = quantized::embedding_bag_4bit_rowwise_offsets(%122, %values_28.1, %offsets7.120, %275, %176, %275, %weights_or_none_28.1, %self.max_ind_range, %self.preproc.int32_sparse_indices)
[DUMP tensorexpr_fuser.cpp:538]   %getitem_29.1 : __torch__._torch_package_0_.torchrec.sparse.jagged_tensor.JaggedTensor = aten::__getitem__(%_jt_dict.1, %75) # <eval_with_key>.47:152:17
[DUMP tensorexpr_fuser.cpp:538]   %values_29.1 : Int(8, strides=[1], requires_grad=0, device=cpu) = prim::GetAttr[name="_values"](%getitem_29.1)
[DUMP tensorexpr_fuser.cpp:538]   %_offsets.63 : Int(21, strides=[1], requires_grad=0, device=cpu) = prim::GetAttr[name="_offsets"](%getitem_29.1)
[DUMP tensorexpr_fuser.cpp:538]   %offsets7.124 : Int(21, strides=[1], requires_grad=0, device=cpu) = prim::unchecked_cast(%_offsets.63)
[DUMP tensorexpr_fuser.cpp:538]    = prim::SetAttr[name="_offsets"](%getitem_29.1, %offsets7.124)
[DUMP tensorexpr_fuser.cpp:538]   %weights_or_none_29.1 : Tensor? = prim::GetAttr[name="_weights"](%getitem_29.1)
[DUMP tensorexpr_fuser.cpp:538]   %sparse_arch_embedding_modules_table_29.1 : Float(20, 64, strides=[64, 1], requires_grad=0, device=cpu) = quantized::embedding_bag_4bit_rowwise_offsets(%123, %values_29.1, %offsets7.124, %275, %176, %275, %weights_or_none_29.1, %self.max_ind_range, %self.preproc.int32_sparse_indices)
[DUMP tensorexpr_fuser.cpp:538]   %getitem_30.1 : __torch__._torch_package_0_.torchrec.sparse.jagged_tensor.JaggedTensor = aten::__getitem__(%_jt_dict.1, %41) # <eval_with_key>.47:157:17
[DUMP tensorexpr_fuser.cpp:538]   %values_30.1 : Int(20, strides=[1], requires_grad=0, device=cpu) = prim::GetAttr[name="_values"](%getitem_30.1)
[DUMP tensorexpr_fuser.cpp:538]   %_offsets.65 : Int(21, strides=[1], requires_grad=0, device=cpu) = prim::GetAttr[name="_offsets"](%getitem_30.1)
[DUMP tensorexpr_fuser.cpp:538]   %offsets7.128 : Int(21, strides=[1], requires_grad=0, device=cpu) = prim::unchecked_cast(%_offsets.65)
[DUMP tensorexpr_fuser.cpp:538]    = prim::SetAttr[name="_offsets"](%getitem_30.1, %offsets7.128)
[DUMP tensorexpr_fuser.cpp:538]   %weights_or_none_30.1 : Tensor? = prim::GetAttr[name="_weights"](%getitem_30.1)
[DUMP tensorexpr_fuser.cpp:538]   %sparse_arch_embedding_modules_table_30.1 : Float(20, 384, strides=[384, 1], requires_grad=0, device=cpu) = quantized::embedding_bag_4bit_rowwise_offsets(%124, %values_30.1, %offsets7.128, %275, %176, %275, %weights_or_none_30.1, %self.max_ind_range, %self.preproc.int32_sparse_indices)
[DUMP tensorexpr_fuser.cpp:538]   %getitem_31.1 : __torch__._torch_package_0_.torchrec.sparse.jagged_tensor.JaggedTensor = aten::__getitem__(%_jt_dict.1, %40) # <eval_with_key>.47:162:17
[DUMP tensorexpr_fuser.cpp:538]   %values_31.1 : Int(12, strides=[1], requires_grad=0, device=cpu) = prim::GetAttr[name="_values"](%getitem_31.1)
[DUMP tensorexpr_fuser.cpp:538]   %_offsets.67 : Int(21, strides=[1], requires_grad=0, device=cpu) = prim::GetAttr[name="_offsets"](%getitem_31.1)
[DUMP tensorexpr_fuser.cpp:538]   %offsets7.132 : Int(21, strides=[1], requires_grad=0, device=cpu) = prim::unchecked_cast(%_offsets.67)
[DUMP tensorexpr_fuser.cpp:538]    = prim::SetAttr[name="_offsets"](%getitem_31.1, %offsets7.132)
[DUMP tensorexpr_fuser.cpp:538]   %weights_or_none_31.1 : Tensor? = prim::GetAttr[name="_weights"](%getitem_31.1)
[DUMP tensorexpr_fuser.cpp:538]   %sparse_arch_embedding_modules_table_31.1 : Float(20, 64, strides=[64, 1], requires_grad=0, device=cpu) = quantized::embedding_bag_4bit_rowwise_offsets(%125, %values_31.1, %offsets7.132, %275, %176, %275, %weights_or_none_31.1, %self.max_ind_range, %self.preproc.int32_sparse_indices)
[DUMP tensorexpr_fuser.cpp:538]   %getitem_32.1 : __torch__._torch_package_0_.torchrec.sparse.jagged_tensor.JaggedTensor = aten::__getitem__(%_jt_dict.1, %74) # <eval_with_key>.47:167:17
[DUMP tensorexpr_fuser.cpp:538]   %values_32.1 : Int(18, strides=[1], requires_grad=0, device=cpu) = prim::GetAttr[name="_values"](%getitem_32.1)
[DUMP tensorexpr_fuser.cpp:538]   %_offsets.69 : Int(21, strides=[1], requires_grad=0, device=cpu) = prim::GetAttr[name="_offsets"](%getitem_32.1)
[DUMP tensorexpr_fuser.cpp:538]   %offsets7.136 : Int(21, strides=[1], requires_grad=0, device=cpu) = prim::unchecked_cast(%_offsets.69)
[DUMP tensorexpr_fuser.cpp:538]    = prim::SetAttr[name="_offsets"](%getitem_32.1, %offsets7.136)
[DUMP tensorexpr_fuser.cpp:538]   %weights_or_none_32.1 : Tensor? = prim::GetAttr[name="_weights"](%getitem_32.1)
[DUMP tensorexpr_fuser.cpp:538]   %sparse_arch_embedding_modules_table_32.1 : Float(20, 64, strides=[64, 1], requires_grad=0, device=cpu) = quantized::embedding_bag_4bit_rowwise_offsets(%126, %values_32.1, %offsets7.136, %275, %176, %275, %weights_or_none_32.1, %self.max_ind_range, %self.preproc.int32_sparse_indices)
[DUMP tensorexpr_fuser.cpp:538]   %getitem_33.1 : __torch__._torch_package_0_.torchrec.sparse.jagged_tensor.JaggedTensor = aten::__getitem__(%_jt_dict.1, %39) # <eval_with_key>.47:172:17
[DUMP tensorexpr_fuser.cpp:538]   %values_33.1 : Int(41, strides=[1], requires_grad=0, device=cpu) = prim::GetAttr[name="_values"](%getitem_33.1)
[DUMP tensorexpr_fuser.cpp:538]   %_offsets.71 : Int(21, strides=[1], requires_grad=0, device=cpu) = prim::GetAttr[name="_offsets"](%getitem_33.1)
[DUMP tensorexpr_fuser.cpp:538]   %offsets7.140 : Int(21, strides=[1], requires_grad=0, device=cpu) = prim::unchecked_cast(%_offsets.71)
[DUMP tensorexpr_fuser.cpp:538]    = prim::SetAttr[name="_offsets"](%getitem_33.1, %offsets7.140)
[DUMP tensorexpr_fuser.cpp:538]   %weights_or_none_33.1 : Tensor? = prim::GetAttr[name="_weights"](%getitem_33.1)
[DUMP tensorexpr_fuser.cpp:538]   %sparse_arch_embedding_modules_table_33.1 : Float(20, 64, strides=[64, 1], requires_grad=0, device=cpu) = quantized::embedding_bag_4bit_rowwise_offsets(%127, %values_33.1, %offsets7.140, %275, %176, %275, %weights_or_none_33.1, %self.max_ind_range, %self.preproc.int32_sparse_indices)
[DUMP tensorexpr_fuser.cpp:538]   %getitem_34.1 : __torch__._torch_package_0_.torchrec.sparse.jagged_tensor.JaggedTensor = aten::__getitem__(%_jt_dict.1, %38) # <eval_with_key>.47:177:17
[DUMP tensorexpr_fuser.cpp:538]   %values_34.1 : Int(0, strides=[1], requires_grad=0, device=cpu) = prim::GetAttr[name="_values"](%getitem_34.1)
[DUMP tensorexpr_fuser.cpp:538]   %_offsets.73 : Int(21, strides=[1], requires_grad=0, device=cpu) = prim::GetAttr[name="_offsets"](%getitem_34.1)
[DUMP tensorexpr_fuser.cpp:538]   %offsets7.144 : Int(21, strides=[1], requires_grad=0, device=cpu) = prim::unchecked_cast(%_offsets.73)
[DUMP tensorexpr_fuser.cpp:538]    = prim::SetAttr[name="_offsets"](%getitem_34.1, %offsets7.144)
[DUMP tensorexpr_fuser.cpp:538]   %weights_or_none_34.1 : Tensor? = prim::GetAttr[name="_weights"](%getitem_34.1)
[DUMP tensorexpr_fuser.cpp:538]   %sparse_arch_embedding_modules_table_34.1 : Float(20, 64, strides=[64, 1], requires_grad=0, device=cpu) = quantized::embedding_bag_4bit_rowwise_offsets(%128, %values_34.1, %offsets7.144, %275, %176, %275, %weights_or_none_34.1, %self.max_ind_range, %self.preproc.int32_sparse_indices)
[DUMP tensorexpr_fuser.cpp:538]   %getitem_35.1 : __torch__._torch_package_0_.torchrec.sparse.jagged_tensor.JaggedTensor = aten::__getitem__(%_jt_dict.1, %37) # <eval_with_key>.47:182:17
[DUMP tensorexpr_fuser.cpp:538]   %values_35.1 : Int(35, strides=[1], requires_grad=0, device=cpu) = prim::GetAttr[name="_values"](%getitem_35.1)
[DUMP tensorexpr_fuser.cpp:538]   %_offsets.75 : Int(21, strides=[1], requires_grad=0, device=cpu) = prim::GetAttr[name="_offsets"](%getitem_35.1)
[DUMP tensorexpr_fuser.cpp:538]   %offsets7.148 : Int(21, strides=[1], requires_grad=0, device=cpu) = prim::unchecked_cast(%_offsets.75)
[DUMP tensorexpr_fuser.cpp:538]    = prim::SetAttr[name="_offsets"](%getitem_35.1, %offsets7.148)
[DUMP tensorexpr_fuser.cpp:538]   %weights_or_none_35.1 : Tensor? = prim::GetAttr[name="_weights"](%getitem_35.1)
[DUMP tensorexpr_fuser.cpp:538]   %sparse_arch_embedding_modules_table_35.1 : Float(20, 64, strides=[64, 1], requires_grad=0, device=cpu) = quantized::embedding_bag_4bit_rowwise_offsets(%129, %values_35.1, %offsets7.148, %275, %176, %275, %weights_or_none_35.1, %self.max_ind_range, %self.preproc.int32_sparse_indices)
[DUMP tensorexpr_fuser.cpp:538]   %getitem_36.1 : __torch__._torch_package_0_.torchrec.sparse.jagged_tensor.JaggedTensor = aten::__getitem__(%_jt_dict.1, %36) # <eval_with_key>.47:187:17
[DUMP tensorexpr_fuser.cpp:538]   %values_36.1 : Int(20, strides=[1], requires_grad=0, device=cpu) = prim::GetAttr[name="_values"](%getitem_36.1)
[DUMP tensorexpr_fuser.cpp:538]   %_offsets.77 : Int(21, strides=[1], requires_grad=0, device=cpu) = prim::GetAttr[name="_offsets"](%getitem_36.1)
[DUMP tensorexpr_fuser.cpp:538]   %offsets7.152 : Int(21, strides=[1], requires_grad=0, device=cpu) = prim::unchecked_cast(%_offsets.77)
[DUMP tensorexpr_fuser.cpp:538]    = prim::SetAttr[name="_offsets"](%getitem_36.1, %offsets7.152)
[DUMP tensorexpr_fuser.cpp:538]   %weights_or_none_36.1 : Tensor? = prim::GetAttr[name="_weights"](%getitem_36.1)
[DUMP tensorexpr_fuser.cpp:538]   %sparse_arch_embedding_modules_table_36.1 : Float(20, 64, strides=[64, 1], requires_grad=0, device=cpu) = quantized::embedding_bag_4bit_rowwise_offsets(%130, %values_36.1, %offsets7.152, %275, %176, %275, %weights_or_none_36.1, %self.max_ind_range, %self.preproc.int32_sparse_indices)
[DUMP tensorexpr_fuser.cpp:538]   %getitem_37.1 : __torch__._torch_package_0_.torchrec.sparse.jagged_tensor.JaggedTensor = aten::__getitem__(%_jt_dict.1, %35) # <eval_with_key>.47:192:17
[DUMP tensorexpr_fuser.cpp:538]   %values_37.1 : Int(20, strides=[1], requires_grad=0, device=cpu) = prim::GetAttr[name="_values"](%getitem_37.1)
[DUMP tensorexpr_fuser.cpp:538]   %_offsets.79 : Int(21, strides=[1], requires_grad=0, device=cpu) = prim::GetAttr[name="_offsets"](%getitem_37.1)
[DUMP tensorexpr_fuser.cpp:538]   %offsets7.156 : Int(21, strides=[1], requires_grad=0, device=cpu) = prim::unchecked_cast(%_offsets.79)
[DUMP tensorexpr_fuser.cpp:538]    = prim::SetAttr[name="_offsets"](%getitem_37.1, %offsets7.156)
[DUMP tensorexpr_fuser.cpp:538]   %weights_or_none_37.1 : Tensor? = prim::GetAttr[name="_weights"](%getitem_37.1)
[DUMP tensorexpr_fuser.cpp:538]   %sparse_arch_embedding_modules_table_37.1 : Float(20, 64, strides=[64, 1], requires_grad=0, device=cpu) = quantized::embedding_bag_4bit_rowwise_offsets(%131, %values_37.1, %offsets7.156, %275, %176, %275, %weights_or_none_37.1, %self.max_ind_range, %self.preproc.int32_sparse_indices)
[DUMP tensorexpr_fuser.cpp:538]   %getitem_38.1 : __torch__._torch_package_0_.torchrec.sparse.jagged_tensor.JaggedTensor = aten::__getitem__(%_jt_dict.1, %34) # <eval_with_key>.47:197:17
[DUMP tensorexpr_fuser.cpp:538]   %values_38.1 : Int(0, strides=[1], requires_grad=0, device=cpu) = prim::GetAttr[name="_values"](%getitem_38.1)
[DUMP tensorexpr_fuser.cpp:538]   %_offsets.81 : Int(21, strides=[1], requires_grad=0, device=cpu) = prim::GetAttr[name="_offsets"](%getitem_38.1)
[DUMP tensorexpr_fuser.cpp:538]   %offsets7.160 : Int(21, strides=[1], requires_grad=0, device=cpu) = prim::unchecked_cast(%_offsets.81)
[DUMP tensorexpr_fuser.cpp:538]    = prim::SetAttr[name="_offsets"](%getitem_38.1, %offsets7.160)
[DUMP tensorexpr_fuser.cpp:538]   %weights_or_none_38.1 : Tensor? = prim::GetAttr[name="_weights"](%getitem_38.1)
[DUMP tensorexpr_fuser.cpp:538]   %sparse_arch_embedding_modules_table_38.1 : Float(20, 64, strides=[64, 1], requires_grad=0, device=cpu) = quantized::embedding_bag_4bit_rowwise_offsets(%132, %values_38.1, %offsets7.160, %275, %176, %275, %weights_or_none_38.1, %self.max_ind_range, %self.preproc.int32_sparse_indices)
[DUMP tensorexpr_fuser.cpp:538]   %getitem_39.1 : __torch__._torch_package_0_.torchrec.sparse.jagged_tensor.JaggedTensor = aten::__getitem__(%_jt_dict.1, %33) # <eval_with_key>.47:202:17
[DUMP tensorexpr_fuser.cpp:538]   %values_39.1 : Int(0, strides=[1], requires_grad=0, device=cpu) = prim::GetAttr[name="_values"](%getitem_39.1)
[DUMP tensorexpr_fuser.cpp:538]   %_offsets.83 : Int(21, strides=[1], requires_grad=0, device=cpu) = prim::GetAttr[name="_offsets"](%getitem_39.1)
[DUMP tensorexpr_fuser.cpp:538]   %offsets7.164 : Int(21, strides=[1], requires_grad=0, device=cpu) = prim::unchecked_cast(%_offsets.83)
[DUMP tensorexpr_fuser.cpp:538]    = prim::SetAttr[name="_offsets"](%getitem_39.1, %offsets7.164)
[DUMP tensorexpr_fuser.cpp:538]   %weights_or_none_39.1 : Tensor? = prim::GetAttr[name="_weights"](%getitem_39.1)
[DUMP tensorexpr_fuser.cpp:538]   %sparse_arch_embedding_modules_table_39.1 : Float(20, 64, strides=[64, 1], requires_grad=0, device=cpu) = quantized::embedding_bag_4bit_rowwise_offsets(%133, %values_39.1, %offsets7.164, %275, %176, %275, %weights_or_none_39.1, %self.max_ind_range, %self.preproc.int32_sparse_indices)
[DUMP tensorexpr_fuser.cpp:538]   %getitem_40.1 : __torch__._torch_package_0_.torchrec.sparse.jagged_tensor.JaggedTensor = aten::__getitem__(%_jt_dict.1, %32) # <eval_with_key>.47:207:17
[DUMP tensorexpr_fuser.cpp:538]   %values_40.1 : Int(0, strides=[1], requires_grad=0, device=cpu) = prim::GetAttr[name="_values"](%getitem_40.1)
[DUMP tensorexpr_fuser.cpp:538]   %_offsets.85 : Int(21, strides=[1], requires_grad=0, device=cpu) = prim::GetAttr[name="_offsets"](%getitem_40.1)
[DUMP tensorexpr_fuser.cpp:538]   %offsets7.168 : Int(21, strides=[1], requires_grad=0, device=cpu) = prim::unchecked_cast(%_offsets.85)
[DUMP tensorexpr_fuser.cpp:538]    = prim::SetAttr[name="_offsets"](%getitem_40.1, %offsets7.168)
[DUMP tensorexpr_fuser.cpp:538]   %weights_or_none_40.1 : Tensor? = prim::GetAttr[name="_weights"](%getitem_40.1)
[DUMP tensorexpr_fuser.cpp:538]   %sparse_arch_embedding_modules_table_40.1 : Float(20, 64, strides=[64, 1], requires_grad=0, device=cpu) = quantized::embedding_bag_4bit_rowwise_offsets(%134, %values_40.1, %offsets7.168, %275, %176, %275, %weights_or_none_40.1, %self.max_ind_range, %self.preproc.int32_sparse_indices)
[DUMP tensorexpr_fuser.cpp:538]   %getitem_41.1 : __torch__._torch_package_0_.torchrec.sparse.jagged_tensor.JaggedTensor = aten::__getitem__(%_jt_dict.1, %31) # <eval_with_key>.47:212:17
[DUMP tensorexpr_fuser.cpp:538]   %values_41.1 : Int(1, strides=[1], requires_grad=0, device=cpu) = prim::GetAttr[name="_values"](%getitem_41.1)
[DUMP tensorexpr_fuser.cpp:538]   %_offsets.87 : Int(21, strides=[1], requires_grad=0, device=cpu) = prim::GetAttr[name="_offsets"](%getitem_41.1)
[DUMP tensorexpr_fuser.cpp:538]   %offsets7.172 : Int(21, strides=[1], requires_grad=0, device=cpu) = prim::unchecked_cast(%_offsets.87)
[DUMP tensorexpr_fuser.cpp:538]    = prim::SetAttr[name="_offsets"](%getitem_41.1, %offsets7.172)
[DUMP tensorexpr_fuser.cpp:538]   %weights_or_none_41.1 : Tensor? = prim::GetAttr[name="_weights"](%getitem_41.1)
[DUMP tensorexpr_fuser.cpp:538]   %sparse_arch_embedding_modules_table_41.1 : Float(20, 64, strides=[64, 1], requires_grad=0, device=cpu) = quantized::embedding_bag_4bit_rowwise_offsets(%135, %values_41.1, %offsets7.172, %275, %176, %275, %weights_or_none_41.1, %self.max_ind_range, %self.preproc.int32_sparse_indices)
[DUMP tensorexpr_fuser.cpp:538]   %getitem_42.1 : __torch__._torch_package_0_.torchrec.sparse.jagged_tensor.JaggedTensor = aten::__getitem__(%_jt_dict.1, %30) # <eval_with_key>.47:217:17
[DUMP tensorexpr_fuser.cpp:538]   %values_42.1 : Int(0, strides=[1], requires_grad=0, device=cpu) = prim::GetAttr[name="_values"](%getitem_42.1)
[DUMP tensorexpr_fuser.cpp:538]   %_offsets.89 : Int(21, strides=[1], requires_grad=0, device=cpu) = prim::GetAttr[name="_offsets"](%getitem_42.1)
[DUMP tensorexpr_fuser.cpp:538]   %offsets7.176 : Int(21, strides=[1], requires_grad=0, device=cpu) = prim::unchecked_cast(%_offsets.89)
[DUMP tensorexpr_fuser.cpp:538]    = prim::SetAttr[name="_offsets"](%getitem_42.1, %offsets7.176)
[DUMP tensorexpr_fuser.cpp:538]   %weights_or_none_42.1 : Tensor? = prim::GetAttr[name="_weights"](%getitem_42.1)
[DUMP tensorexpr_fuser.cpp:538]   %sparse_arch_embedding_modules_table_42.1 : Float(20, 64, strides=[64, 1], requires_grad=0, device=cpu) = quantized::embedding_bag_4bit_rowwise_offsets(%136, %values_42.1, %offsets7.176, %275, %176, %275, %weights_or_none_42.1, %self.max_ind_range, %self.preproc.int32_sparse_indices)
[DUMP tensorexpr_fuser.cpp:538]   %getitem_43.1 : __torch__._torch_package_0_.torchrec.sparse.jagged_tensor.JaggedTensor = aten::__getitem__(%_jt_dict.1, %29) # <eval_with_key>.47:222:17
[DUMP tensorexpr_fuser.cpp:538]   %values_43.1 : Int(20, strides=[1], requires_grad=0, device=cpu) = prim::GetAttr[name="_values"](%getitem_43.1)
[DUMP tensorexpr_fuser.cpp:538]   %_offsets.91 : Int(21, strides=[1], requires_grad=0, device=cpu) = prim::GetAttr[name="_offsets"](%getitem_43.1)
[DUMP tensorexpr_fuser.cpp:538]   %offsets7.180 : Int(21, strides=[1], requires_grad=0, device=cpu) = prim::unchecked_cast(%_offsets.91)
[DUMP tensorexpr_fuser.cpp:538]    = prim::SetAttr[name="_offsets"](%getitem_43.1, %offsets7.180)
[DUMP tensorexpr_fuser.cpp:538]   %weights_or_none_43.1 : Tensor? = prim::GetAttr[name="_weights"](%getitem_43.1)
[DUMP tensorexpr_fuser.cpp:538]   %sparse_arch_embedding_modules_table_43.1 : Float(20, 64, strides=[64, 1], requires_grad=0, device=cpu) = quantized::embedding_bag_4bit_rowwise_offsets(%137, %values_43.1, %offsets7.180, %275, %176, %275, %weights_or_none_43.1, %self.max_ind_range, %self.preproc.int32_sparse_indices)
[DUMP tensorexpr_fuser.cpp:538]   %getitem_44.1 : __torch__._torch_package_0_.torchrec.sparse.jagged_tensor.JaggedTensor = aten::__getitem__(%_jt_dict.1, %73) # <eval_with_key>.47:227:17
[DUMP tensorexpr_fuser.cpp:538]   %values_44.1 : Int(3378, strides=[1], requires_grad=0, device=cpu) = prim::GetAttr[name="_values"](%getitem_44.1)
[DUMP tensorexpr_fuser.cpp:538]   %_offsets.93 : Int(21, strides=[1], requires_grad=0, device=cpu) = prim::GetAttr[name="_offsets"](%getitem_44.1)
[DUMP tensorexpr_fuser.cpp:538]   %offsets7.184 : Int(21, strides=[1], requires_grad=0, device=cpu) = prim::unchecked_cast(%_offsets.93)
[DUMP tensorexpr_fuser.cpp:538]    = prim::SetAttr[name="_offsets"](%getitem_44.1, %offsets7.184)
[DUMP tensorexpr_fuser.cpp:538]   %weights_or_none_44.1 : Tensor? = prim::GetAttr[name="_weights"](%getitem_44.1)
[DUMP tensorexpr_fuser.cpp:538]   %sparse_arch_embedding_modules_table_44.1 : Float(20, 64, strides=[64, 1], requires_grad=0, device=cpu) = quantized::embedding_bag_4bit_rowwise_offsets(%138, %values_44.1, %offsets7.184, %275, %176, %275, %weights_or_none_44.1, %self.max_ind_range, %self.preproc.int32_sparse_indices)
[DUMP tensorexpr_fuser.cpp:538]   %getitem_45.1 : __torch__._torch_package_0_.torchrec.sparse.jagged_tensor.JaggedTensor = aten::__getitem__(%_jt_dict.1, %72) # <eval_with_key>.47:232:17
[DUMP tensorexpr_fuser.cpp:538]   %values_45.1 : Int(3482, strides=[1], requires_grad=0, device=cpu) = prim::GetAttr[name="_values"](%getitem_45.1)
[DUMP tensorexpr_fuser.cpp:538]   %_offsets.95 : Int(21, strides=[1], requires_grad=0, device=cpu) = prim::GetAttr[name="_offsets"](%getitem_45.1)
[DUMP tensorexpr_fuser.cpp:538]   %offsets7.188 : Int(21, strides=[1], requires_grad=0, device=cpu) = prim::unchecked_cast(%_offsets.95)
[DUMP tensorexpr_fuser.cpp:538]    = prim::SetAttr[name="_offsets"](%getitem_45.1, %offsets7.188)
[DUMP tensorexpr_fuser.cpp:538]   %weights_or_none_45.1 : Tensor? = prim::GetAttr[name="_weights"](%getitem_45.1)
[DUMP tensorexpr_fuser.cpp:538]   %sparse_arch_embedding_modules_table_45.1 : Float(20, 64, strides=[64, 1], requires_grad=0, device=cpu) = quantized::embedding_bag_4bit_rowwise_offsets(%139, %values_45.1, %offsets7.188, %275, %176, %275, %weights_or_none_45.1, %self.max_ind_range, %self.preproc.int32_sparse_indices)
[DUMP tensorexpr_fuser.cpp:538]   %getitem_46.1 : __torch__._torch_package_0_.torchrec.sparse.jagged_tensor.JaggedTensor = aten::__getitem__(%_jt_dict.1, %28) # <eval_with_key>.47:237:17
[DUMP tensorexpr_fuser.cpp:538]   %values_46.1 : Int(0, strides=[1], requires_grad=0, device=cpu) = prim::GetAttr[name="_values"](%getitem_46.1)
[DUMP tensorexpr_fuser.cpp:538]   %_offsets.97 : Int(21, strides=[1], requires_grad=0, device=cpu) = prim::GetAttr[name="_offsets"](%getitem_46.1)
[DUMP tensorexpr_fuser.cpp:538]   %offsets7.192 : Int(21, strides=[1], requires_grad=0, device=cpu) = prim::unchecked_cast(%_offsets.97)
[DUMP tensorexpr_fuser.cpp:538]    = prim::SetAttr[name="_offsets"](%getitem_46.1, %offsets7.192)
[DUMP tensorexpr_fuser.cpp:538]   %weights_or_none_46.1 : Tensor? = prim::GetAttr[name="_weights"](%getitem_46.1)
[DUMP tensorexpr_fuser.cpp:538]   %sparse_arch_embedding_modules_table_46.1 : Float(20, 64, strides=[64, 1], requires_grad=0, device=cpu) = quantized::embedding_bag_4bit_rowwise_offsets(%140, %values_46.1, %offsets7.192, %275, %176, %275, %weights_or_none_46.1, %self.max_ind_range, %self.preproc.int32_sparse_indices)
[DUMP tensorexpr_fuser.cpp:538]   %getitem_47.1 : __torch__._torch_package_0_.torchrec.sparse.jagged_tensor.JaggedTensor = aten::__getitem__(%_jt_dict.1, %27) # <eval_with_key>.47:242:17
[DUMP tensorexpr_fuser.cpp:538]   %values_47.1 : Int(20, strides=[1], requires_grad=0, device=cpu) = prim::GetAttr[name="_values"](%getitem_47.1)
[DUMP tensorexpr_fuser.cpp:538]   %_offsets.99 : Int(21, strides=[1], requires_grad=0, device=cpu) = prim::GetAttr[name="_offsets"](%getitem_47.1)
[DUMP tensorexpr_fuser.cpp:538]   %offsets7.196 : Int(21, strides=[1], requires_grad=0, device=cpu) = prim::unchecked_cast(%_offsets.99)
[DUMP tensorexpr_fuser.cpp:538]    = prim::SetAttr[name="_offsets"](%getitem_47.1, %offsets7.196)
[DUMP tensorexpr_fuser.cpp:538]   %weights_or_none_47.1 : Tensor? = prim::GetAttr[name="_weights"](%getitem_47.1)
[DUMP tensorexpr_fuser.cpp:538]   %sparse_arch_embedding_modules_table_47.1 : Float(20, 64, strides=[64, 1], requires_grad=0, device=cpu) = quantized::embedding_bag_4bit_rowwise_offsets(%141, %values_47.1, %offsets7.196, %275, %176, %275, %weights_or_none_47.1, %self.max_ind_range, %self.preproc.int32_sparse_indices)
[DUMP tensorexpr_fuser.cpp:538]   %getitem_48.1 : __torch__._torch_package_0_.torchrec.sparse.jagged_tensor.JaggedTensor = aten::__getitem__(%_jt_dict.1, %26) # <eval_with_key>.47:247:17
[DUMP tensorexpr_fuser.cpp:538]   %values_48.1 : Int(0, strides=[1], requires_grad=0, device=cpu) = prim::GetAttr[name="_values"](%getitem_48.1)
[DUMP tensorexpr_fuser.cpp:538]   %_offsets.101 : Int(21, strides=[1], requires_grad=0, device=cpu) = prim::GetAttr[name="_offsets"](%getitem_48.1)
[DUMP tensorexpr_fuser.cpp:538]   %offsets7.200 : Int(21, strides=[1], requires_grad=0, device=cpu) = prim::unchecked_cast(%_offsets.101)
[DUMP tensorexpr_fuser.cpp:538]    = prim::SetAttr[name="_offsets"](%getitem_48.1, %offsets7.200)
[DUMP tensorexpr_fuser.cpp:538]   %weights_or_none_48.1 : Tensor? = prim::GetAttr[name="_weights"](%getitem_48.1)
[DUMP tensorexpr_fuser.cpp:538]   %sparse_arch_embedding_modules_table_48.1 : Float(20, 64, strides=[64, 1], requires_grad=0, device=cpu) = quantized::embedding_bag_4bit_rowwise_offsets(%142, %values_48.1, %offsets7.200, %275, %176, %275, %weights_or_none_48.1, %self.max_ind_range, %self.preproc.int32_sparse_indices)
[DUMP tensorexpr_fuser.cpp:538]   %getitem_49.1 : __torch__._torch_package_0_.torchrec.sparse.jagged_tensor.JaggedTensor = aten::__getitem__(%_jt_dict.1, %71) # <eval_with_key>.47:252:17
[DUMP tensorexpr_fuser.cpp:538]   %values_49.1 : Int(20, strides=[1], requires_grad=0, device=cpu) = prim::GetAttr[name="_values"](%getitem_49.1)
[DUMP tensorexpr_fuser.cpp:538]   %_offsets.103 : Int(21, strides=[1], requires_grad=0, device=cpu) = prim::GetAttr[name="_offsets"](%getitem_49.1)
[DUMP tensorexpr_fuser.cpp:538]   %offsets7.204 : Int(21, strides=[1], requires_grad=0, device=cpu) = prim::unchecked_cast(%_offsets.103)
[DUMP tensorexpr_fuser.cpp:538]    = prim::SetAttr[name="_offsets"](%getitem_49.1, %offsets7.204)
[DUMP tensorexpr_fuser.cpp:538]   %weights_or_none_49.1 : Tensor? = prim::GetAttr[name="_weights"](%getitem_49.1)
[DUMP tensorexpr_fuser.cpp:538]   %sparse_arch_embedding_modules_table_49.1 : Float(20, 64, strides=[64, 1], requires_grad=0, device=cpu) = quantized::embedding_bag_4bit_rowwise_offsets(%143, %values_49.1, %offsets7.204, %275, %176, %275, %weights_or_none_49.1, %self.max_ind_range, %self.preproc.int32_sparse_indices)
[DUMP tensorexpr_fuser.cpp:538]   %getitem_50.1 : __torch__._torch_package_0_.torchrec.sparse.jagged_tensor.JaggedTensor = aten::__getitem__(%_jt_dict.1, %70) # <eval_with_key>.47:257:17
[DUMP tensorexpr_fuser.cpp:538]   %values_50.1 : Int(20, strides=[1], requires_grad=0, device=cpu) = prim::GetAttr[name="_values"](%getitem_50.1)
[DUMP tensorexpr_fuser.cpp:538]   %_offsets.105 : Int(21, strides=[1], requires_grad=0, device=cpu) = prim::GetAttr[name="_offsets"](%getitem_50.1)
[DUMP tensorexpr_fuser.cpp:538]   %offsets7.208 : Int(21, strides=[1], requires_grad=0, device=cpu) = prim::unchecked_cast(%_offsets.105)
[DUMP tensorexpr_fuser.cpp:538]    = prim::SetAttr[name="_offsets"](%getitem_50.1, %offsets7.208)
[DUMP tensorexpr_fuser.cpp:538]   %weights_or_none_50.1 : Tensor? = prim::GetAttr[name="_weights"](%getitem_50.1)
[DUMP tensorexpr_fuser.cpp:538]   %sparse_arch_embedding_modules_table_50.1 : Float(20, 64, strides=[64, 1], requires_grad=0, device=cpu) = quantized::embedding_bag_4bit_rowwise_offsets(%144, %values_50.1, %offsets7.208, %275, %176, %275, %weights_or_none_50.1, %self.max_ind_range, %self.preproc.int32_sparse_indices)
[DUMP tensorexpr_fuser.cpp:538]   %getitem_51.1 : __torch__._torch_package_0_.torchrec.sparse.jagged_tensor.JaggedTensor = aten::__getitem__(%_jt_dict.1, %25) # <eval_with_key>.47:262:17
[DUMP tensorexpr_fuser.cpp:538]   %values_51.1 : Int(20, strides=[1], requires_grad=0, device=cpu) = prim::GetAttr[name="_values"](%getitem_51.1)
[DUMP tensorexpr_fuser.cpp:538]   %_offsets.107 : Int(21, strides=[1], requires_grad=0, device=cpu) = prim::GetAttr[name="_offsets"](%getitem_51.1)
[DUMP tensorexpr_fuser.cpp:538]   %offsets7.212 : Int(21, strides=[1], requires_grad=0, device=cpu) = prim::unchecked_cast(%_offsets.107)
[DUMP tensorexpr_fuser.cpp:538]    = prim::SetAttr[name="_offsets"](%getitem_51.1, %offsets7.212)
[DUMP tensorexpr_fuser.cpp:538]   %weights_or_none_51.1 : Tensor? = prim::GetAttr[name="_weights"](%getitem_51.1)
[DUMP tensorexpr_fuser.cpp:538]   %sparse_arch_embedding_modules_table_51.1 : Float(20, 64, strides=[64, 1], requires_grad=0, device=cpu) = quantized::embedding_bag_4bit_rowwise_offsets(%145, %values_51.1, %offsets7.212, %275, %176, %275, %weights_or_none_51.1, %self.max_ind_range, %self.preproc.int32_sparse_indices)
[DUMP tensorexpr_fuser.cpp:538]   %getitem_52.1 : __torch__._torch_package_0_.torchrec.sparse.jagged_tensor.JaggedTensor = aten::__getitem__(%_jt_dict.1, %24) # <eval_with_key>.47:267:17
[DUMP tensorexpr_fuser.cpp:538]   %values_52.1 : Int(20, strides=[1], requires_grad=0, device=cpu) = prim::GetAttr[name="_values"](%getitem_52.1)
[DUMP tensorexpr_fuser.cpp:538]   %_offsets.109 : Int(21, strides=[1], requires_grad=0, device=cpu) = prim::GetAttr[name="_offsets"](%getitem_52.1)
[DUMP tensorexpr_fuser.cpp:538]   %offsets7.216 : Int(21, strides=[1], requires_grad=0, device=cpu) = prim::unchecked_cast(%_offsets.109)
[DUMP tensorexpr_fuser.cpp:538]    = prim::SetAttr[name="_offsets"](%getitem_52.1, %offsets7.216)
[DUMP tensorexpr_fuser.cpp:538]   %weights_or_none_52.1 : Tensor? = prim::GetAttr[name="_weights"](%getitem_52.1)
[DUMP tensorexpr_fuser.cpp:538]   %sparse_arch_embedding_modules_table_52.1 : Float(20, 64, strides=[64, 1], requires_grad=0, device=cpu) = quantized::embedding_bag_4bit_rowwise_offsets(%146, %values_52.1, %offsets7.216, %275, %176, %275, %weights_or_none_52.1, %self.max_ind_range, %self.preproc.int32_sparse_indices)
[DUMP tensorexpr_fuser.cpp:538]   %getitem_53.1 : __torch__._torch_package_0_.torchrec.sparse.jagged_tensor.JaggedTensor = aten::__getitem__(%_jt_dict.1, %23) # <eval_with_key>.47:272:17
[DUMP tensorexpr_fuser.cpp:538]   %values_53.1 : Int(20, strides=[1], requires_grad=0, device=cpu) = prim::GetAttr[name="_values"](%getitem_53.1)
[DUMP tensorexpr_fuser.cpp:538]   %_offsets.111 : Int(21, strides=[1], requires_grad=0, device=cpu) = prim::GetAttr[name="_offsets"](%getitem_53.1)
[DUMP tensorexpr_fuser.cpp:538]   %offsets7.220 : Int(21, strides=[1], requires_grad=0, device=cpu) = prim::unchecked_cast(%_offsets.111)
[DUMP tensorexpr_fuser.cpp:538]    = prim::SetAttr[name="_offsets"](%getitem_53.1, %offsets7.220)
[DUMP tensorexpr_fuser.cpp:538]   %weights_or_none_53.1 : Tensor? = prim::GetAttr[name="_weights"](%getitem_53.1)
[DUMP tensorexpr_fuser.cpp:538]   %sparse_arch_embedding_modules_table_53.1 : Float(20, 64, strides=[64, 1], requires_grad=0, device=cpu) = quantized::embedding_bag_4bit_rowwise_offsets(%147, %values_53.1, %offsets7.220, %275, %176, %275, %weights_or_none_53.1, %self.max_ind_range, %self.preproc.int32_sparse_indices)
[DUMP tensorexpr_fuser.cpp:538]   %getitem_54.1 : __torch__._torch_package_0_.torchrec.sparse.jagged_tensor.JaggedTensor = aten::__getitem__(%_jt_dict.1, %22) # <eval_with_key>.47:277:17
[DUMP tensorexpr_fuser.cpp:538]   %values_54.1 : Int(20, strides=[1], requires_grad=0, device=cpu) = prim::GetAttr[name="_values"](%getitem_54.1)
[DUMP tensorexpr_fuser.cpp:538]   %_offsets.113 : Int(21, strides=[1], requires_grad=0, device=cpu) = prim::GetAttr[name="_offsets"](%getitem_54.1)
[DUMP tensorexpr_fuser.cpp:538]   %offsets7.224 : Int(21, strides=[1], requires_grad=0, device=cpu) = prim::unchecked_cast(%_offsets.113)
[DUMP tensorexpr_fuser.cpp:538]    = prim::SetAttr[name="_offsets"](%getitem_54.1, %offsets7.224)
[DUMP tensorexpr_fuser.cpp:538]   %weights_or_none_54.1 : Tensor? = prim::GetAttr[name="_weights"](%getitem_54.1)
[DUMP tensorexpr_fuser.cpp:538]   %sparse_arch_embedding_modules_table_54.1 : Float(20, 64, strides=[64, 1], requires_grad=0, device=cpu) = quantized::embedding_bag_4bit_rowwise_offsets(%148, %values_54.1, %offsets7.224, %275, %176, %275, %weights_or_none_54.1, %self.max_ind_range, %self.preproc.int32_sparse_indices)
[DUMP tensorexpr_fuser.cpp:538]   %getitem_55.1 : __torch__._torch_package_0_.torchrec.sparse.jagged_tensor.JaggedTensor = aten::__getitem__(%_jt_dict.1, %21) # <eval_with_key>.47:282:17
[DUMP tensorexpr_fuser.cpp:538]   %values_55.1 : Int(20, strides=[1], requires_grad=0, device=cpu) = prim::GetAttr[name="_values"](%getitem_55.1)
[DUMP tensorexpr_fuser.cpp:538]   %_offsets.115 : Int(21, strides=[1], requires_grad=0, device=cpu) = prim::GetAttr[name="_offsets"](%getitem_55.1)
[DUMP tensorexpr_fuser.cpp:538]   %offsets7.228 : Int(21, strides=[1], requires_grad=0, device=cpu) = prim::unchecked_cast(%_offsets.115)
[DUMP tensorexpr_fuser.cpp:538]    = prim::SetAttr[name="_offsets"](%getitem_55.1, %offsets7.228)
[DUMP tensorexpr_fuser.cpp:538]   %weights_or_none_55.1 : Tensor? = prim::GetAttr[name="_weights"](%getitem_55.1)
[DUMP tensorexpr_fuser.cpp:538]   %sparse_arch_embedding_modules_table_55.1 : Float(20, 64, strides=[64, 1], requires_grad=0, device=cpu) = quantized::embedding_bag_4bit_rowwise_offsets(%149, %values_55.1, %offsets7.228, %275, %176, %275, %weights_or_none_55.1, %self.max_ind_range, %self.preproc.int32_sparse_indices)
[DUMP tensorexpr_fuser.cpp:538]   %getitem_56.1 : __torch__._torch_package_0_.torchrec.sparse.jagged_tensor.JaggedTensor = aten::__getitem__(%_jt_dict.1, %20) # <eval_with_key>.47:287:17
[DUMP tensorexpr_fuser.cpp:538]   %values_56.1 : Int(20, strides=[1], requires_grad=0, device=cpu) = prim::GetAttr[name="_values"](%getitem_56.1)
[DUMP tensorexpr_fuser.cpp:538]   %_offsets.117 : Int(21, strides=[1], requires_grad=0, device=cpu) = prim::GetAttr[name="_offsets"](%getitem_56.1)
[DUMP tensorexpr_fuser.cpp:538]   %offsets7.232 : Int(21, strides=[1], requires_grad=0, device=cpu) = prim::unchecked_cast(%_offsets.117)
[DUMP tensorexpr_fuser.cpp:538]    = prim::SetAttr[name="_offsets"](%getitem_56.1, %offsets7.232)
[DUMP tensorexpr_fuser.cpp:538]   %weights_or_none_56.1 : Tensor? = prim::GetAttr[name="_weights"](%getitem_56.1)
[DUMP tensorexpr_fuser.cpp:538]   %sparse_arch_embedding_modules_table_56.1 : Float(20, 64, strides=[64, 1], requires_grad=0, device=cpu) = quantized::embedding_bag_4bit_rowwise_offsets(%150, %values_56.1, %offsets7.232, %275, %176, %275, %weights_or_none_56.1, %self.max_ind_range, %self.preproc.int32_sparse_indices)
[DUMP tensorexpr_fuser.cpp:538]   %getitem_57.1 : __torch__._torch_package_0_.torchrec.sparse.jagged_tensor.JaggedTensor = aten::__getitem__(%_jt_dict.1, %19) # <eval_with_key>.47:292:17
[DUMP tensorexpr_fuser.cpp:538]   %values_57.1 : Int(20, strides=[1], requires_grad=0, device=cpu) = prim::GetAttr[name="_values"](%getitem_57.1)
[DUMP tensorexpr_fuser.cpp:538]   %_offsets.119 : Int(21, strides=[1], requires_grad=0, device=cpu) = prim::GetAttr[name="_offsets"](%getitem_57.1)
[DUMP tensorexpr_fuser.cpp:538]   %offsets7.236 : Int(21, strides=[1], requires_grad=0, device=cpu) = prim::unchecked_cast(%_offsets.119)
[DUMP tensorexpr_fuser.cpp:538]    = prim::SetAttr[name="_offsets"](%getitem_57.1, %offsets7.236)
[DUMP tensorexpr_fuser.cpp:538]   %weights_or_none_57.1 : Tensor? = prim::GetAttr[name="_weights"](%getitem_57.1)
[DUMP tensorexpr_fuser.cpp:538]   %sparse_arch_embedding_modules_table_57.1 : Float(20, 64, strides=[64, 1], requires_grad=0, device=cpu) = quantized::embedding_bag_4bit_rowwise_offsets(%151, %values_57.1, %offsets7.236, %275, %176, %275, %weights_or_none_57.1, %self.max_ind_range, %self.preproc.int32_sparse_indices)
[DUMP tensorexpr_fuser.cpp:538]   %getitem_58.1 : __torch__._torch_package_0_.torchrec.sparse.jagged_tensor.JaggedTensor = aten::__getitem__(%_jt_dict.1, %69) # <eval_with_key>.47:297:17
[DUMP tensorexpr_fuser.cpp:538]   %values_58.1 : Int(20, strides=[1], requires_grad=0, device=cpu) = prim::GetAttr[name="_values"](%getitem_58.1)
[DUMP tensorexpr_fuser.cpp:538]   %_offsets.121 : Int(21, strides=[1], requires_grad=0, device=cpu) = prim::GetAttr[name="_offsets"](%getitem_58.1)
[DUMP tensorexpr_fuser.cpp:538]   %offsets7.240 : Int(21, strides=[1], requires_grad=0, device=cpu) = prim::unchecked_cast(%_offsets.121)
[DUMP tensorexpr_fuser.cpp:538]    = prim::SetAttr[name="_offsets"](%getitem_58.1, %offsets7.240)
[DUMP tensorexpr_fuser.cpp:538]   %weights_or_none_58.1 : Tensor? = prim::GetAttr[name="_weights"](%getitem_58.1)
[DUMP tensorexpr_fuser.cpp:538]   %sparse_arch_embedding_modules_table_58.1 : Float(20, 64, strides=[64, 1], requires_grad=0, device=cpu) = quantized::embedding_bag_4bit_rowwise_offsets(%152, %values_58.1, %offsets7.240, %275, %176, %275, %weights_or_none_58.1, %self.max_ind_range, %self.preproc.int32_sparse_indices)
[DUMP tensorexpr_fuser.cpp:538]   %getitem_59.1 : __torch__._torch_package_0_.torchrec.sparse.jagged_tensor.JaggedTensor = aten::__getitem__(%_jt_dict.1, %18) # <eval_with_key>.47:302:17
[DUMP tensorexpr_fuser.cpp:538]   %values_59.1 : Int(20, strides=[1], requires_grad=0, device=cpu) = prim::GetAttr[name="_values"](%getitem_59.1)
[DUMP tensorexpr_fuser.cpp:538]   %_offsets.123 : Int(21, strides=[1], requires_grad=0, device=cpu) = prim::GetAttr[name="_offsets"](%getitem_59.1)
[DUMP tensorexpr_fuser.cpp:538]   %offsets7.244 : Int(21, strides=[1], requires_grad=0, device=cpu) = prim::unchecked_cast(%_offsets.123)
[DUMP tensorexpr_fuser.cpp:538]    = prim::SetAttr[name="_offsets"](%getitem_59.1, %offsets7.244)
[DUMP tensorexpr_fuser.cpp:538]   %weights_or_none_59.1 : Tensor? = prim::GetAttr[name="_weights"](%getitem_59.1)
[DUMP tensorexpr_fuser.cpp:538]   %sparse_arch_embedding_modules_table_59.1 : Float(20, 64, strides=[64, 1], requires_grad=0, device=cpu) = quantized::embedding_bag_4bit_rowwise_offsets(%153, %values_59.1, %offsets7.244, %275, %176, %275, %weights_or_none_59.1, %self.max_ind_range, %self.preproc.int32_sparse_indices)
[DUMP tensorexpr_fuser.cpp:538]   %getitem_60.1 : __torch__._torch_package_0_.torchrec.sparse.jagged_tensor.JaggedTensor = aten::__getitem__(%_jt_dict.1, %68) # <eval_with_key>.47:307:17
[DUMP tensorexpr_fuser.cpp:538]   %values_60.1 : Int(20, strides=[1], requires_grad=0, device=cpu) = prim::GetAttr[name="_values"](%getitem_60.1)
[DUMP tensorexpr_fuser.cpp:538]   %_offsets.125 : Int(21, strides=[1], requires_grad=0, device=cpu) = prim::GetAttr[name="_offsets"](%getitem_60.1)
[DUMP tensorexpr_fuser.cpp:538]   %offsets7.248 : Int(21, strides=[1], requires_grad=0, device=cpu) = prim::unchecked_cast(%_offsets.125)
[DUMP tensorexpr_fuser.cpp:538]    = prim::SetAttr[name="_offsets"](%getitem_60.1, %offsets7.248)
[DUMP tensorexpr_fuser.cpp:538]   %weights_or_none_60.1 : Tensor? = prim::GetAttr[name="_weights"](%getitem_60.1)
[DUMP tensorexpr_fuser.cpp:538]   %sparse_arch_embedding_modules_table_60.1 : Float(20, 64, strides=[64, 1], requires_grad=0, device=cpu) = quantized::embedding_bag_4bit_rowwise_offsets(%154, %values_60.1, %offsets7.248, %275, %176, %275, %weights_or_none_60.1, %self.max_ind_range, %self.preproc.int32_sparse_indices)
[DUMP tensorexpr_fuser.cpp:538]   %getitem_61.1 : __torch__._torch_package_0_.torchrec.sparse.jagged_tensor.JaggedTensor = aten::__getitem__(%_jt_dict.1, %67) # <eval_with_key>.47:312:17
[DUMP tensorexpr_fuser.cpp:538]   %values_61.1 : Int(0, strides=[1], requires_grad=0, device=cpu) = prim::GetAttr[name="_values"](%getitem_61.1)
[DUMP tensorexpr_fuser.cpp:538]   %_offsets.127 : Int(21, strides=[1], requires_grad=0, device=cpu) = prim::GetAttr[name="_offsets"](%getitem_61.1)
[DUMP tensorexpr_fuser.cpp:538]   %offsets7.252 : Int(21, strides=[1], requires_grad=0, device=cpu) = prim::unchecked_cast(%_offsets.127)
[DUMP tensorexpr_fuser.cpp:538]    = prim::SetAttr[name="_offsets"](%getitem_61.1, %offsets7.252)
[DUMP tensorexpr_fuser.cpp:538]   %weights_or_none_61.1 : Tensor? = prim::GetAttr[name="_weights"](%getitem_61.1)
[DUMP tensorexpr_fuser.cpp:538]   %sparse_arch_embedding_modules_table_61.1 : Float(20, 64, strides=[64, 1], requires_grad=0, device=cpu) = quantized::embedding_bag_4bit_rowwise_offsets(%155, %values_61.1, %offsets7.252, %275, %176, %275, %weights_or_none_61.1, %self.max_ind_range, %self.preproc.int32_sparse_indices)
[DUMP tensorexpr_fuser.cpp:538]   %getitem_62.1 : __torch__._torch_package_0_.torchrec.sparse.jagged_tensor.JaggedTensor = aten::__getitem__(%_jt_dict.1, %66) # <eval_with_key>.47:317:17
[DUMP tensorexpr_fuser.cpp:538]   %values_62.1 : Int(0, strides=[1], requires_grad=0, device=cpu) = prim::GetAttr[name="_values"](%getitem_62.1)
[DUMP tensorexpr_fuser.cpp:538]   %_offsets.129 : Int(21, strides=[1], requires_grad=0, device=cpu) = prim::GetAttr[name="_offsets"](%getitem_62.1)
[DUMP tensorexpr_fuser.cpp:538]   %offsets7.256 : Int(21, strides=[1], requires_grad=0, device=cpu) = prim::unchecked_cast(%_offsets.129)
[DUMP tensorexpr_fuser.cpp:538]    = prim::SetAttr[name="_offsets"](%getitem_62.1, %offsets7.256)
[DUMP tensorexpr_fuser.cpp:538]   %weights_or_none_62.1 : Tensor? = prim::GetAttr[name="_weights"](%getitem_62.1)
[DUMP tensorexpr_fuser.cpp:538]   %sparse_arch_embedding_modules_table_62.1 : Float(20, 64, strides=[64, 1], requires_grad=0, device=cpu) = quantized::embedding_bag_4bit_rowwise_offsets(%156, %values_62.1, %offsets7.256, %275, %176, %275, %weights_or_none_62.1, %self.max_ind_range, %self.preproc.int32_sparse_indices)
[DUMP tensorexpr_fuser.cpp:538]   %getitem_63.1 : __torch__._torch_package_0_.torchrec.sparse.jagged_tensor.JaggedTensor = aten::__getitem__(%_jt_dict.1, %65) # <eval_with_key>.47:322:17
[DUMP tensorexpr_fuser.cpp:538]   %values_63.1 : Int(0, strides=[1], requires_grad=0, device=cpu) = prim::GetAttr[name="_values"](%getitem_63.1)
[DUMP tensorexpr_fuser.cpp:538]   %_offsets.131 : Int(21, strides=[1], requires_grad=0, device=cpu) = prim::GetAttr[name="_offsets"](%getitem_63.1)
[DUMP tensorexpr_fuser.cpp:538]   %offsets7.260 : Int(21, strides=[1], requires_grad=0, device=cpu) = prim::unchecked_cast(%_offsets.131)
[DUMP tensorexpr_fuser.cpp:538]    = prim::SetAttr[name="_offsets"](%getitem_63.1, %offsets7.260)
[DUMP tensorexpr_fuser.cpp:538]   %weights_or_none_63.1 : Tensor? = prim::GetAttr[name="_weights"](%getitem_63.1)
[DUMP tensorexpr_fuser.cpp:538]   %sparse_arch_embedding_modules_table_63.1 : Float(20, 64, strides=[64, 1], requires_grad=0, device=cpu) = quantized::embedding_bag_4bit_rowwise_offsets(%157, %values_63.1, %offsets7.260, %275, %176, %275, %weights_or_none_63.1, %self.max_ind_range, %self.preproc.int32_sparse_indices)
[DUMP tensorexpr_fuser.cpp:538]   %getitem_64.1 : __torch__._torch_package_0_.torchrec.sparse.jagged_tensor.JaggedTensor = aten::__getitem__(%_jt_dict.1, %64) # <eval_with_key>.47:327:17
[DUMP tensorexpr_fuser.cpp:538]   %values_64.1 : Int(0, strides=[1], requires_grad=0, device=cpu) = prim::GetAttr[name="_values"](%getitem_64.1)
[DUMP tensorexpr_fuser.cpp:538]   %_offsets.133 : Int(21, strides=[1], requires_grad=0, device=cpu) = prim::GetAttr[name="_offsets"](%getitem_64.1)
[DUMP tensorexpr_fuser.cpp:538]   %offsets7.264 : Int(21, strides=[1], requires_grad=0, device=cpu) = prim::unchecked_cast(%_offsets.133)
[DUMP tensorexpr_fuser.cpp:538]    = prim::SetAttr[name="_offsets"](%getitem_64.1, %offsets7.264)
[DUMP tensorexpr_fuser.cpp:538]   %weights_or_none_64.1 : Tensor? = prim::GetAttr[name="_weights"](%getitem_64.1)
[DUMP tensorexpr_fuser.cpp:538]   %sparse_arch_embedding_modules_table_64.1 : Float(20, 64, strides=[64, 1], requires_grad=0, device=cpu) = quantized::embedding_bag_4bit_rowwise_offsets(%158, %values_64.1, %offsets7.264, %275, %176, %275, %weights_or_none_64.1, %self.max_ind_range, %self.preproc.int32_sparse_indices)
[DUMP tensorexpr_fuser.cpp:538]   %getitem_65.1 : __torch__._torch_package_0_.torchrec.sparse.jagged_tensor.JaggedTensor = aten::__getitem__(%_jt_dict.1, %63) # <eval_with_key>.47:332:17
[DUMP tensorexpr_fuser.cpp:538]   %values_65.1 : Int(0, strides=[1], requires_grad=0, device=cpu) = prim::GetAttr[name="_values"](%getitem_65.1)
[DUMP tensorexpr_fuser.cpp:538]   %_offsets.135 : Int(21, strides=[1], requires_grad=0, device=cpu) = prim::GetAttr[name="_offsets"](%getitem_65.1)
[DUMP tensorexpr_fuser.cpp:538]   %offsets7.268 : Int(21, strides=[1], requires_grad=0, device=cpu) = prim::unchecked_cast(%_offsets.135)
[DUMP tensorexpr_fuser.cpp:538]    = prim::SetAttr[name="_offsets"](%getitem_65.1, %offsets7.268)
[DUMP tensorexpr_fuser.cpp:538]   %weights_or_none_65.1 : Tensor? = prim::GetAttr[name="_weights"](%getitem_65.1)
[DUMP tensorexpr_fuser.cpp:538]   %sparse_arch_embedding_modules_table_65.1 : Float(20, 64, strides=[64, 1], requires_grad=0, device=cpu) = quantized::embedding_bag_4bit_rowwise_offsets(%159, %values_65.1, %offsets7.268, %275, %176, %275, %weights_or_none_65.1, %self.max_ind_range, %self.preproc.int32_sparse_indices)
[DUMP tensorexpr_fuser.cpp:538]   %getitem_66.1 : __torch__._torch_package_0_.torchrec.sparse.jagged_tensor.JaggedTensor = aten::__getitem__(%_jt_dict.1, %62) # <eval_with_key>.47:337:17
[DUMP tensorexpr_fuser.cpp:538]   %values_66.1 : Int(20, strides=[1], requires_grad=0, device=cpu) = prim::GetAttr[name="_values"](%getitem_66.1)
[DUMP tensorexpr_fuser.cpp:538]   %_offsets.137 : Int(21, strides=[1], requires_grad=0, device=cpu) = prim::GetAttr[name="_offsets"](%getitem_66.1)
[DUMP tensorexpr_fuser.cpp:538]   %offsets7.272 : Int(21, strides=[1], requires_grad=0, device=cpu) = prim::unchecked_cast(%_offsets.137)
[DUMP tensorexpr_fuser.cpp:538]    = prim::SetAttr[name="_offsets"](%getitem_66.1, %offsets7.272)
[DUMP tensorexpr_fuser.cpp:538]   %weights_or_none_66.1 : Tensor? = prim::GetAttr[name="_weights"](%getitem_66.1)
[DUMP tensorexpr_fuser.cpp:538]   %sparse_arch_embedding_modules_table_66.1 : Float(20, 64, strides=[64, 1], requires_grad=0, device=cpu) = quantized::embedding_bag_4bit_rowwise_offsets(%160, %values_66.1, %offsets7.272, %275, %176, %275, %weights_or_none_66.1, %self.max_ind_range, %self.preproc.int32_sparse_indices)
[DUMP tensorexpr_fuser.cpp:538]   %getitem_67.1 : __torch__._torch_package_0_.torchrec.sparse.jagged_tensor.JaggedTensor = aten::__getitem__(%_jt_dict.1, %61) # <eval_with_key>.47:342:17
[DUMP tensorexpr_fuser.cpp:538]   %values_67.1 : Int(0, strides=[1], requires_grad=0, device=cpu) = prim::GetAttr[name="_values"](%getitem_67.1)
[DUMP tensorexpr_fuser.cpp:538]   %_offsets.139 : Int(21, strides=[1], requires_grad=0, device=cpu) = prim::GetAttr[name="_offsets"](%getitem_67.1)
[DUMP tensorexpr_fuser.cpp:538]   %offsets7.276 : Int(21, strides=[1], requires_grad=0, device=cpu) = prim::unchecked_cast(%_offsets.139)
[DUMP tensorexpr_fuser.cpp:538]    = prim::SetAttr[name="_offsets"](%getitem_67.1, %offsets7.276)
[DUMP tensorexpr_fuser.cpp:538]   %weights_or_none_67.1 : Tensor? = prim::GetAttr[name="_weights"](%getitem_67.1)
[DUMP tensorexpr_fuser.cpp:538]   %sparse_arch_embedding_modules_table_67.1 : Float(20, 64, strides=[64, 1], requires_grad=0, device=cpu) = quantized::embedding_bag_4bit_rowwise_offsets(%161, %values_67.1, %offsets7.276, %275, %176, %275, %weights_or_none_67.1, %self.max_ind_range, %self.preproc.int32_sparse_indices)
[DUMP tensorexpr_fuser.cpp:538]   %getitem_68.1 : __torch__._torch_package_0_.torchrec.sparse.jagged_tensor.JaggedTensor = aten::__getitem__(%_jt_dict.1, %60) # <eval_with_key>.47:347:17
[DUMP tensorexpr_fuser.cpp:538]   %values_68.1 : Int(0, strides=[1], requires_grad=0, device=cpu) = prim::GetAttr[name="_values"](%getitem_68.1)
[DUMP tensorexpr_fuser.cpp:538]   %_offsets.141 : Int(21, strides=[1], requires_grad=0, device=cpu) = prim::GetAttr[name="_offsets"](%getitem_68.1)
[DUMP tensorexpr_fuser.cpp:538]   %offsets7.280 : Int(21, strides=[1], requires_grad=0, device=cpu) = prim::unchecked_cast(%_offsets.141)
[DUMP tensorexpr_fuser.cpp:538]    = prim::SetAttr[name="_offsets"](%getitem_68.1, %offsets7.280)
[DUMP tensorexpr_fuser.cpp:538]   %weights_or_none_68.1 : Tensor? = prim::GetAttr[name="_weights"](%getitem_68.1)
[DUMP tensorexpr_fuser.cpp:538]   %sparse_arch_embedding_modules_table_68.1 : Float(20, 64, strides=[64, 1], requires_grad=0, device=cpu) = quantized::embedding_bag_4bit_rowwise_offsets(%162, %values_68.1, %offsets7.280, %275, %176, %275, %weights_or_none_68.1, %self.max_ind_range, %self.preproc.int32_sparse_indices)
[DUMP tensorexpr_fuser.cpp:538]   %getitem_69.1 : __torch__._torch_package_0_.torchrec.sparse.jagged_tensor.JaggedTensor = aten::__getitem__(%_jt_dict.1, %59) # <eval_with_key>.47:352:17
[DUMP tensorexpr_fuser.cpp:538]   %values_69.1 : Int(6, strides=[1], requires_grad=0, device=cpu) = prim::GetAttr[name="_values"](%getitem_69.1)
[DUMP tensorexpr_fuser.cpp:538]   %_offsets.143 : Int(21, strides=[1], requires_grad=0, device=cpu) = prim::GetAttr[name="_offsets"](%getitem_69.1)
[DUMP tensorexpr_fuser.cpp:538]   %offsets7.284 : Int(21, strides=[1], requires_grad=0, device=cpu) = prim::unchecked_cast(%_offsets.143)
[DUMP tensorexpr_fuser.cpp:538]    = prim::SetAttr[name="_offsets"](%getitem_69.1, %offsets7.284)
[DUMP tensorexpr_fuser.cpp:538]   %weights_or_none_69.1 : Tensor? = prim::GetAttr[name="_weights"](%getitem_69.1)
[DUMP tensorexpr_fuser.cpp:538]   %sparse_arch_embedding_modules_table_69.1 : Float(20, 64, strides=[64, 1], requires_grad=0, device=cpu) = quantized::embedding_bag_4bit_rowwise_offsets(%163, %values_69.1, %offsets7.284, %275, %176, %275, %weights_or_none_69.1, %self.max_ind_range, %self.preproc.int32_sparse_indices)
[DUMP tensorexpr_fuser.cpp:538]   %getitem_70.1 : __torch__._torch_package_0_.torchrec.sparse.jagged_tensor.JaggedTensor = aten::__getitem__(%_jt_dict.1, %58) # <eval_with_key>.47:357:17
[DUMP tensorexpr_fuser.cpp:538]   %values_70.1 : Int(0, strides=[1], requires_grad=0, device=cpu) = prim::GetAttr[name="_values"](%getitem_70.1)
[DUMP tensorexpr_fuser.cpp:538]   %_offsets.145 : Int(21, strides=[1], requires_grad=0, device=cpu) = prim::GetAttr[name="_offsets"](%getitem_70.1)
[DUMP tensorexpr_fuser.cpp:538]   %offsets7.288 : Int(21, strides=[1], requires_grad=0, device=cpu) = prim::unchecked_cast(%_offsets.145)
[DUMP tensorexpr_fuser.cpp:538]    = prim::SetAttr[name="_offsets"](%getitem_70.1, %offsets7.288)
[DUMP tensorexpr_fuser.cpp:538]   %weights_or_none_70.1 : Tensor? = prim::GetAttr[name="_weights"](%getitem_70.1)
[DUMP tensorexpr_fuser.cpp:538]   %sparse_arch_embedding_modules_table_70.1 : Float(20, 64, strides=[64, 1], requires_grad=0, device=cpu) = quantized::embedding_bag_4bit_rowwise_offsets(%164, %values_70.1, %offsets7.288, %275, %176, %275, %weights_or_none_70.1, %self.max_ind_range, %self.preproc.int32_sparse_indices)
[DUMP tensorexpr_fuser.cpp:538]   %getitem_71.1 : __torch__._torch_package_0_.torchrec.sparse.jagged_tensor.JaggedTensor = aten::__getitem__(%_jt_dict.1, %17) # <eval_with_key>.47:362:17
[DUMP tensorexpr_fuser.cpp:538]   %values_71.1 : Int(40, strides=[1], requires_grad=0, device=cpu) = prim::GetAttr[name="_values"](%getitem_71.1)
[DUMP tensorexpr_fuser.cpp:538]   %_offsets.147 : Int(21, strides=[1], requires_grad=0, device=cpu) = prim::GetAttr[name="_offsets"](%getitem_71.1)
[DUMP tensorexpr_fuser.cpp:538]   %offsets7.292 : Int(21, strides=[1], requires_grad=0, device=cpu) = prim::unchecked_cast(%_offsets.147)
[DUMP tensorexpr_fuser.cpp:538]    = prim::SetAttr[name="_offsets"](%getitem_71.1, %offsets7.292)
[DUMP tensorexpr_fuser.cpp:538]   %weights_or_none_71.1 : Tensor? = prim::GetAttr[name="_weights"](%getitem_71.1)
[DUMP tensorexpr_fuser.cpp:538]   %sparse_arch_embedding_modules_table_71.1 : Float(20, 64, strides=[64, 1], requires_grad=0, device=cpu) = quantized::embedding_bag_4bit_rowwise_offsets(%165, %values_71.1, %offsets7.292, %275, %176, %275, %weights_or_none_71.1, %self.max_ind_range, %self.preproc.int32_sparse_indices)
[DUMP tensorexpr_fuser.cpp:538]   %getitem_72.1 : __torch__._torch_package_0_.torchrec.sparse.jagged_tensor.JaggedTensor = aten::__getitem__(%_jt_dict.1, %16) # <eval_with_key>.47:367:17
[DUMP tensorexpr_fuser.cpp:538]   %values_72.1 : Int(40, strides=[1], requires_grad=0, device=cpu) = prim::GetAttr[name="_values"](%getitem_72.1)
[DUMP tensorexpr_fuser.cpp:538]   %_offsets.1 : Int(21, strides=[1], requires_grad=0, device=cpu) = prim::GetAttr[name="_offsets"](%getitem_72.1)
[DUMP tensorexpr_fuser.cpp:538]   %offsets7.3 : Int(21, strides=[1], requires_grad=0, device=cpu) = prim::unchecked_cast(%_offsets.1)
[DUMP tensorexpr_fuser.cpp:538]    = prim::SetAttr[name="_offsets"](%getitem_72.1, %offsets7.3)
[DUMP tensorexpr_fuser.cpp:538]   %weights_or_none_72.1 : Tensor? = prim::GetAttr[name="_weights"](%getitem_72.1)
[DUMP tensorexpr_fuser.cpp:538]   %sparse_arch_embedding_modules_table_72.1 : Float(20, 64, strides=[64, 1], requires_grad=0, device=cpu) = quantized::embedding_bag_4bit_rowwise_offsets(%166, %values_72.1, %offsets7.3, %275, %176, %275, %weights_or_none_72.1, %self.max_ind_range, %self.preproc.int32_sparse_indices)
[DUMP tensorexpr_fuser.cpp:538]   %2867 : Float(20, 1975, strides=[1975, 1], requires_grad=0, device=cpu), %cat.2 : Float(20, 5632, strides=[5632, 1], requires_grad=0, device=cpu), %cat_1.2 : Float(20, 320, strides=[320, 1], requires_grad=0, device=cpu), %cat_2.2 : Float(20, 448, strides=[448, 1], requires_grad=0, device=cpu) = prim::TensorExprGroup_0(%762, %764, %766, %sparse_arch_embedding_modules_table_0.1, %sparse_arch_embedding_modules_table_1.1, %sparse_arch_embedding_modules_table_2.1, %sparse_arch_embedding_modules_table_3.1, %sparse_arch_embedding_modules_table_4.1, %sparse_arch_embedding_modules_table_5.1, %sparse_arch_embedding_modules_table_6.1, %sparse_arch_embedding_modules_table_7.1, %sparse_arch_embedding_modules_table_8.1, %sparse_arch_embedding_modules_table_9.1, %sparse_arch_embedding_modules_table_10.1, %sparse_arch_embedding_modules_table_11.1, %sparse_arch_embedding_modules_table_12.1, %sparse_arch_embedding_modules_table_13.1, %sparse_arch_embedding_modules_table_14.1, %sparse_arch_embedding_modules_table_15.1, %sparse_arch_embedding_modules_table_16.1, %sparse_arch_embedding_modules_table_17.1, %sparse_arch_embedding_modules_table_18.1, %sparse_arch_embedding_modules_table_19.1, %sparse_arch_embedding_modules_table_20.1, %sparse_arch_embedding_modules_table_21.1, %sparse_arch_embedding_modules_table_22.1, %sparse_arch_embedding_modules_table_23.1, %sparse_arch_embedding_modules_table_24.1, %sparse_arch_embedding_modules_table_25.1, %sparse_arch_embedding_modules_table_26.1, %sparse_arch_embedding_modules_table_27.1, %sparse_arch_embedding_modules_table_28.1, %sparse_arch_embedding_modules_table_29.1, %sparse_arch_embedding_modules_table_30.1, %sparse_arch_embedding_modules_table_31.1, %sparse_arch_embedding_modules_table_32.1, %sparse_arch_embedding_modules_table_33.1, %sparse_arch_embedding_modules_table_34.1, %sparse_arch_embedding_modules_table_35.1, %sparse_arch_embedding_modules_table_36.1, %sparse_arch_embedding_modules_table_37.1, %sparse_arch_embedding_modules_table_38.1, %sparse_arch_embedding_modules_table_39.1, %sparse_arch_embedding_modules_table_40.1, %sparse_arch_embedding_modules_table_41.1, %sparse_arch_embedding_modules_table_42.1, %sparse_arch_embedding_modules_table_43.1, %sparse_arch_embedding_modules_table_44.1, %sparse_arch_embedding_modules_table_45.1, %sparse_arch_embedding_modules_table_46.1, %sparse_arch_embedding_modules_table_47.1, %sparse_arch_embedding_modules_table_48.1, %sparse_arch_embedding_modules_table_49.1, %sparse_arch_embedding_modules_table_50.1, %sparse_arch_embedding_modules_table_51.1, %sparse_arch_embedding_modules_table_52.1, %sparse_arch_embedding_modules_table_53.1, %sparse_arch_embedding_modules_table_54.1, %sparse_arch_embedding_modules_table_55.1, %sparse_arch_embedding_modules_table_56.1, %sparse_arch_embedding_modules_table_57.1, %sparse_arch_embedding_modules_table_58.1, %sparse_arch_embedding_modules_table_59.1, %sparse_arch_embedding_modules_table_60.1, %sparse_arch_embedding_modules_table_61.1, %sparse_arch_embedding_modules_table_62.1, %sparse_arch_embedding_modules_table_63.1, %sparse_arch_embedding_modules_table_64.1, %sparse_arch_embedding_modules_table_65.1, %sparse_arch_embedding_modules_table_66.1, %sparse_arch_embedding_modules_table_67.1, %sparse_arch_embedding_modules_table_68.1, %sparse_arch_embedding_modules_table_69.1, %sparse_arch_embedding_modules_table_70.1, %sparse_arch_embedding_modules_table_71.1, %sparse_arch_embedding_modules_table_72.1)
[DUMP tensorexpr_fuser.cpp:538]   %771 : Float(20, 1975, strides=[1975, 1], requires_grad=0, device=cpu) = aten::nan_to_num_(%2867, %179, %self.max_ind_range, %self.max_ind_range) # /data/users/xichen/fbsource/fbcode/dper3/dper3/modules/low_level_modules/single_operators.py:2859:0
[DUMP tensorexpr_fuser.cpp:538]   %772 : Float(20, 1975, strides=[1975, 1], requires_grad=0, device=cpu) = aten::clamp_(%771, %177, %178) # /data/users/xichen/fbsource/fbcode/dper3/dper3/modules/low_level_modules/single_operators.py:2973:0
[DUMP tensorexpr_fuser.cpp:538]   %Y4.2 : Float(20, 512, strides=[512, 1], requires_grad=1, device=cpu) = quantized::linear_dynamic_fp16(%772, %self.main_module.dense_arch.gated_net.gate_net.0.mlp_net.0._packed_params._packed_params) # /mnt/xarfuse/uid-172471/481b8707-seed-c381807f-2aa1-499d-b991-439c4a485aae-ns-4026532494/torch/nn/quantized/dynamic/modules/linear.py:51:16
[DUMP tensorexpr_fuser.cpp:538]   %2510 : int = prim::dtype(%772)
[DUMP tensorexpr_fuser.cpp:538]   %dense_arch_gated_net_gate_net_0_mlp_net_0.1 : Float(20, 512, strides=[512, 1], requires_grad=1, device=cpu) = aten::to(%Y4.2, %2510, %275, %275) # /mnt/xarfuse/uid-172471/481b8707-seed-c381807f-2aa1-499d-b991-439c4a485aae-ns-4026532494/torch/nn/quantized/dynamic/modules/linear.py:55:15
[DUMP tensorexpr_fuser.cpp:538]   %dense_arch_gated_net_gate_net_0_mlp_net_1_norm_0.1 : Float(20, 512, strides=[512, 1], requires_grad=1, device=cpu) = aten::layer_norm(%dense_arch_gated_net_gate_net_0_mlp_net_0.1, %11, %self.main_module.dense_arch.gated_net.gate_net.0.mlp_net.1.norm.0.weight, %self.main_module.dense_arch.gated_net.gate_net.0.mlp_net.1.norm.0.bias, %167, %self.preproc.int32_sparse_indices) # /mnt/xarfuse/uid-172471/481b8707-seed-c381807f-2aa1-499d-b991-439c4a485aae-ns-4026532494/torch/nn/functional.py:2486:11
[DUMP tensorexpr_fuser.cpp:538]   %mul.2 : Float(20, 512, strides=[512, 1], requires_grad=1, device=cpu) = prim::TensorExprGroup_1(%dense_arch_gated_net_gate_net_0_mlp_net_0.1, %dense_arch_gated_net_gate_net_0_mlp_net_1_norm_0.1)
[DUMP tensorexpr_fuser.cpp:538]   %Y4.4 : Float(20, 1975, strides=[1975, 1], requires_grad=1, device=cpu) = quantized::linear_dynamic_fp16(%mul.2, %self.main_module.dense_arch.gated_net.gate_net.1._packed_params._packed_params) # /mnt/xarfuse/uid-172471/481b8707-seed-c381807f-2aa1-499d-b991-439c4a485aae-ns-4026532494/torch/nn/quantized/dynamic/modules/linear.py:51:16
[DUMP tensorexpr_fuser.cpp:538]   %2516 : int = prim::dtype(%mul.2)
[DUMP tensorexpr_fuser.cpp:538]   %dense_arch_gated_net_gate_net_1.1 : Float(20, 1975, strides=[1975, 1], requires_grad=1, device=cpu) = aten::to(%Y4.4, %2516, %275, %275) # /mnt/xarfuse/uid-172471/481b8707-seed-c381807f-2aa1-499d-b991-439c4a485aae-ns-4026532494/torch/nn/quantized/dynamic/modules/linear.py:55:15
[DUMP tensorexpr_fuser.cpp:538]   %mul_1.2 : Float(20, 1975, strides=[1975, 1], requires_grad=1, device=cpu) = prim::TensorExprGroup_2(%772, %dense_arch_gated_net_gate_net_1.1)
[DUMP tensorexpr_fuser.cpp:538]   %Y4.6 : Float(20, 512, strides=[512, 1], requires_grad=1, device=cpu) = quantized::linear_dynamic_fp16(%mul_1.2, %self.main_module.dense_arch.mlp.mlp_net.0._packed_params._packed_params) # /mnt/xarfuse/uid-172471/481b8707-seed-c381807f-2aa1-499d-b991-439c4a485aae-ns-4026532494/torch/nn/quantized/dynamic/modules/linear.py:51:16
[DUMP tensorexpr_fuser.cpp:538]   %2521 : int = prim::dtype(%mul_1.2)
[DUMP tensorexpr_fuser.cpp:538]   %dense_arch_mlp_mlp_net_0.1 : Float(20, 512, strides=[512, 1], requires_grad=1, device=cpu) = aten::to(%Y4.6, %2521, %275, %275) # /mnt/xarfuse/uid-172471/481b8707-seed-c381807f-2aa1-499d-b991-439c4a485aae-ns-4026532494/torch/nn/quantized/dynamic/modules/linear.py:55:15
[DUMP tensorexpr_fuser.cpp:538]   %dense_arch_mlp_mlp_net_1_norm_0.1 : Float(20, 512, strides=[512, 1], requires_grad=1, device=cpu) = aten::layer_norm(%dense_arch_mlp_mlp_net_0.1, %11, %self.main_module.dense_arch.mlp.mlp_net.1.norm.0.weight, %self.main_module.dense_arch.mlp.mlp_net.1.norm.0.bias, %167, %self.preproc.int32_sparse_indices) # /mnt/xarfuse/uid-172471/481b8707-seed-c381807f-2aa1-499d-b991-439c4a485aae-ns-4026532494/torch/nn/functional.py:2486:11
[DUMP tensorexpr_fuser.cpp:538]   %mul_2.2 : Float(20, 512, strides=[512, 1], requires_grad=1, device=cpu) = prim::TensorExprGroup_3(%dense_arch_mlp_mlp_net_0.1, %dense_arch_mlp_mlp_net_1_norm_0.1)
[DUMP tensorexpr_fuser.cpp:538]   %Y4.8 : Float(20, 64, strides=[64, 1], requires_grad=1, device=cpu) = quantized::linear_dynamic_fp16(%mul_2.2, %self.main_module.dense_arch.parallel_reduce.submodules.0.submodules.0.gate_net.0.mlp_net.0._packed_params._packed_params) # /mnt/xarfuse/uid-172471/481b8707-seed-c381807f-2aa1-499d-b991-439c4a485aae-ns-4026532494/torch/nn/quantized/dynamic/modules/linear.py:51:16
[DUMP tensorexpr_fuser.cpp:538]   %2527 : int = prim::dtype(%mul_2.2)
[DUMP tensorexpr_fuser.cpp:538]   %dense_arch_parallel_reduce_submodules_0_submodules_0_gate_net_0_mlp_net_0.1 : Float(20, 64, strides=[64, 1], requires_grad=1, device=cpu) = aten::to(%Y4.8, %2527, %275, %275) # /mnt/xarfuse/uid-172471/481b8707-seed-c381807f-2aa1-499d-b991-439c4a485aae-ns-4026532494/torch/nn/quantized/dynamic/modules/linear.py:55:15
[DUMP tensorexpr_fuser.cpp:538]   %dense_arch_parallel_reduce_submodules_0_submodules_0_gate_net_0_mlp_net_1_norm_0.1 : Float(20, 64, strides=[64, 1], requires_grad=1, device=cpu) = aten::layer_norm(%dense_arch_parallel_reduce_submodules_0_submodules_0_gate_net_0_mlp_net_0.1, %10, %self.main_module.dense_arch.parallel_reduce.submodules.0.submodules.0.gate_net.0.mlp_net.1.norm.0.weight, %self.main_module.dense_arch.parallel_reduce.submodules.0.submodules.0.gate_net.0.mlp_net.1.norm.0.bias, %167, %self.preproc.int32_sparse_indices) # /mnt/xarfuse/uid-172471/481b8707-seed-c381807f-2aa1-499d-b991-439c4a485aae-ns-4026532494/torch/nn/functional.py:2486:11
[DUMP tensorexpr_fuser.cpp:538]   %mul_3.2 : Float(20, 64, strides=[64, 1], requires_grad=1, device=cpu) = prim::TensorExprGroup_4(%dense_arch_parallel_reduce_submodules_0_submodules_0_gate_net_0_mlp_net_0.1, %dense_arch_parallel_reduce_submodules_0_submodules_0_gate_net_0_mlp_net_1_norm_0.1)
[DUMP tensorexpr_fuser.cpp:538]   %Y4.10 : Float(20, 512, strides=[512, 1], requires_grad=1, device=cpu) = quantized::linear_dynamic_fp16(%mul_3.2, %self.main_module.dense_arch.parallel_reduce.submodules.0.submodules.0.gate_net.1._packed_params._packed_params) # /mnt/xarfuse/uid-172471/481b8707-seed-c381807f-2aa1-499d-b991-439c4a485aae-ns-4026532494/torch/nn/quantized/dynamic/modules/linear.py:51:16
[DUMP tensorexpr_fuser.cpp:538]   %2533 : int = prim::dtype(%mul_3.2)
[DUMP tensorexpr_fuser.cpp:538]   %dense_arch_parallel_reduce_submodules_0_submodules_0_gate_net_1.1 : Float(20, 512, strides=[512, 1], requires_grad=1, device=cpu) = aten::to(%Y4.10, %2533, %275, %275) # /mnt/xarfuse/uid-172471/481b8707-seed-c381807f-2aa1-499d-b991-439c4a485aae-ns-4026532494/torch/nn/quantized/dynamic/modules/linear.py:55:15
[DUMP tensorexpr_fuser.cpp:538]   %Y4.12 : Float(20, 512, strides=[512, 1], requires_grad=1, device=cpu) = quantized::linear_dynamic_fp16(%mul_2.2, %self.main_module.dense_arch.parallel_reduce.submodules.0.submodules.1.mlp_net.0._packed_params._packed_params) # /mnt/xarfuse/uid-172471/481b8707-seed-c381807f-2aa1-499d-b991-439c4a485aae-ns-4026532494/torch/nn/quantized/dynamic/modules/linear.py:51:16
[DUMP tensorexpr_fuser.cpp:538]   %dense_arch_parallel_reduce_submodules_0_submodules_1_mlp_net_0.1 : Float(20, 512, strides=[512, 1], requires_grad=1, device=cpu) = aten::to(%Y4.12, %2527, %275, %275) # /mnt/xarfuse/uid-172471/481b8707-seed-c381807f-2aa1-499d-b991-439c4a485aae-ns-4026532494/torch/nn/quantized/dynamic/modules/linear.py:55:15
[DUMP tensorexpr_fuser.cpp:538]   %dense_arch_parallel_reduce_submodules_0_submodules_1_mlp_net_1_norm_0.1 : Float(20, 512, strides=[512, 1], requires_grad=1, device=cpu) = aten::layer_norm(%dense_arch_parallel_reduce_submodules_0_submodules_1_mlp_net_0.1, %11, %self.main_module.dense_arch.parallel_reduce.submodules.0.submodules.1.mlp_net.1.norm.0.weight, %self.main_module.dense_arch.parallel_reduce.submodules.0.submodules.1.mlp_net.1.norm.0.bias, %167, %self.preproc.int32_sparse_indices) # /mnt/xarfuse/uid-172471/481b8707-seed-c381807f-2aa1-499d-b991-439c4a485aae-ns-4026532494/torch/nn/functional.py:2486:11
[DUMP tensorexpr_fuser.cpp:538]   %Y4.14 : Float(20, 64, strides=[64, 1], requires_grad=1, device=cpu) = quantized::linear_dynamic_fp16(%mul_2.2, %self.main_module.dense_arch.parallel_reduce.submodules.1.submodules.0.gate_net.0.mlp_net.0._packed_params._packed_params) # /mnt/xarfuse/uid-172471/481b8707-seed-c381807f-2aa1-499d-b991-439c4a485aae-ns-4026532494/torch/nn/quantized/dynamic/modules/linear.py:51:16
[DUMP tensorexpr_fuser.cpp:538]   %dense_arch_parallel_reduce_submodules_1_submodules_0_gate_net_0_mlp_net_0.1 : Float(20, 64, strides=[64, 1], requires_grad=1, device=cpu) = aten::to(%Y4.14, %2527, %275, %275) # /mnt/xarfuse/uid-172471/481b8707-seed-c381807f-2aa1-499d-b991-439c4a485aae-ns-4026532494/torch/nn/quantized/dynamic/modules/linear.py:55:15
[DUMP tensorexpr_fuser.cpp:538]   %dense_arch_parallel_reduce_submodules_1_submodules_0_gate_net_0_mlp_net_1_norm_0.1 : Float(20, 64, strides=[64, 1], requires_grad=1, device=cpu) = aten::layer_norm(%dense_arch_parallel_reduce_submodules_1_submodules_0_gate_net_0_mlp_net_0.1, %10, %self.main_module.dense_arch.parallel_reduce.submodules.1.submodules.0.gate_net.0.mlp_net.1.norm.0.weight, %self.main_module.dense_arch.parallel_reduce.submodules.1.submodules.0.gate_net.0.mlp_net.1.norm.0.bias, %167, %self.preproc.int32_sparse_indices) # /mnt/xarfuse/uid-172471/481b8707-seed-c381807f-2aa1-499d-b991-439c4a485aae-ns-4026532494/torch/nn/functional.py:2486:11
[DUMP tensorexpr_fuser.cpp:538]   %mul_4.2 : Float(20, 512, strides=[512, 1], requires_grad=1, device=cpu), %mul_5.2 : Float(20, 512, strides=[512, 1], requires_grad=1, device=cpu), %mul_6.2 : Float(20, 64, strides=[64, 1], requires_grad=1, device=cpu) = prim::TensorExprGroup_5(%mul_2.2, %dense_arch_parallel_reduce_submodules_0_submodules_0_gate_net_1.1, %dense_arch_parallel_reduce_submodules_0_submodules_1_mlp_net_0.1, %dense_arch_parallel_reduce_submodules_0_submodules_1_mlp_net_1_norm_0.1, %dense_arch_parallel_reduce_submodules_1_submodules_0_gate_net_0_mlp_net_0.1, %dense_arch_parallel_reduce_submodules_1_submodules_0_gate_net_0_mlp_net_1_norm_0.1)
[DUMP tensorexpr_fuser.cpp:538]   %2542 : Tensor[] = prim::ListConstruct(%mul_4.2, %mul_5.2)
[DUMP tensorexpr_fuser.cpp:538]   %stack.1 : Float(2, 20, 512, strides=[10240, 512, 1], requires_grad=1, device=cpu) = aten::stack(%2542, %176) # <eval_with_key>.47:398:12
[DUMP tensorexpr_fuser.cpp:538]   %sum_1.1 : Float(20, 512, strides=[512, 1], requires_grad=1, device=cpu) = aten::sum(%stack.1, %174, %275, %self.max_ind_range) # <eval_with_key>.47:399:12
[DUMP tensorexpr_fuser.cpp:538]   %Y4.16 : Float(20, 512, strides=[512, 1], requires_grad=1, device=cpu) = quantized::linear_dynamic_fp16(%mul_6.2, %self.main_module.dense_arch.parallel_reduce.submodules.1.submodules.0.gate_net.1._packed_params._packed_params) # /mnt/xarfuse/uid-172471/481b8707-seed-c381807f-2aa1-499d-b991-439c4a485aae-ns-4026532494/torch/nn/quantized/dynamic/modules/linear.py:51:16
[DUMP tensorexpr_fuser.cpp:538]   %2551 : int = prim::dtype(%mul_6.2)
[DUMP tensorexpr_fuser.cpp:538]   %dense_arch_parallel_reduce_submodules_1_submodules_0_gate_net_1.1 : Float(20, 512, strides=[512, 1], requires_grad=1, device=cpu) = aten::to(%Y4.16, %2551, %275, %275) # /mnt/xarfuse/uid-172471/481b8707-seed-c381807f-2aa1-499d-b991-439c4a485aae-ns-4026532494/torch/nn/quantized/dynamic/modules/linear.py:55:15
[DUMP tensorexpr_fuser.cpp:538]   %Y4.18 : Float(20, 512, strides=[512, 1], requires_grad=1, device=cpu) = quantized::linear_dynamic_fp16(%mul_2.2, %self.main_module.dense_arch.parallel_reduce.submodules.1.submodules.1.mlp_net.0._packed_params._packed_params) # /mnt/xarfuse/uid-172471/481b8707-seed-c381807f-2aa1-499d-b991-439c4a485aae-ns-4026532494/torch/nn/quantized/dynamic/modules/linear.py:51:16
[DUMP tensorexpr_fuser.cpp:538]   %dense_arch_parallel_reduce_submodules_1_submodules_1_mlp_net_0.1 : Float(20, 512, strides=[512, 1], requires_grad=1, device=cpu) = aten::to(%Y4.18, %2527, %275, %275) # /mnt/xarfuse/uid-172471/481b8707-seed-c381807f-2aa1-499d-b991-439c4a485aae-ns-4026532494/torch/nn/quantized/dynamic/modules/linear.py:55:15
[DUMP tensorexpr_fuser.cpp:538]   %dense_arch_parallel_reduce_submodules_1_submodules_1_mlp_net_1_norm_0.1 : Float(20, 512, strides=[512, 1], requires_grad=1, device=cpu) = aten::layer_norm(%dense_arch_parallel_reduce_submodules_1_submodules_1_mlp_net_0.1, %11, %self.main_module.dense_arch.parallel_reduce.submodules.1.submodules.1.mlp_net.1.norm.0.weight, %self.main_module.dense_arch.parallel_reduce.submodules.1.submodules.1.mlp_net.1.norm.0.bias, %167, %self.preproc.int32_sparse_indices) # /mnt/xarfuse/uid-172471/481b8707-seed-c381807f-2aa1-499d-b991-439c4a485aae-ns-4026532494/torch/nn/functional.py:2486:11
[DUMP tensorexpr_fuser.cpp:538]   %mul_7.2 : Float(20, 512, strides=[512, 1], requires_grad=1, device=cpu), %mul_8.2 : Float(20, 512, strides=[512, 1], requires_grad=1, device=cpu) = prim::TensorExprGroup_6(%mul_2.2, %dense_arch_parallel_reduce_submodules_1_submodules_0_gate_net_1.1, %dense_arch_parallel_reduce_submodules_1_submodules_1_mlp_net_0.1, %dense_arch_parallel_reduce_submodules_1_submodules_1_mlp_net_1_norm_0.1)
[DUMP tensorexpr_fuser.cpp:538]   %2560 : Tensor[] = prim::ListConstruct(%mul_7.2, %mul_8.2)
[DUMP tensorexpr_fuser.cpp:538]   %stack_1.1 : Float(2, 20, 512, strides=[10240, 512, 1], requires_grad=1, device=cpu) = aten::stack(%2560, %176) # <eval_with_key>.47:411:14
[DUMP tensorexpr_fuser.cpp:538]   %sum_2.1 : Float(20, 512, strides=[512, 1], requires_grad=1, device=cpu) = aten::sum(%stack_1.1, %174, %275, %self.max_ind_range) # <eval_with_key>.47:412:12
[DUMP tensorexpr_fuser.cpp:538]   %2563 : Tensor[] = prim::ListConstruct(%sum_1.1, %sum_2.1)
[DUMP tensorexpr_fuser.cpp:538]   %stack_2.1 : Float(2, 20, 512, strides=[10240, 512, 1], requires_grad=1, device=cpu) = aten::stack(%2563, %176) # <eval_with_key>.47:413:14
[DUMP tensorexpr_fuser.cpp:538]   %sum_3.1 : Float(20, 512, strides=[512, 1], requires_grad=1, device=cpu) = aten::sum(%stack_2.1, %174, %275, %self.max_ind_range) # <eval_with_key>.47:414:12
[DUMP tensorexpr_fuser.cpp:538]   %Y4.20 : Float(20, 64, strides=[64, 1], requires_grad=1, device=cpu) = quantized::linear_dynamic_fp16(%sum_3.1, %self.main_module.dense_arch.dense_projection_modules.0._packed_params._packed_params) # /mnt/xarfuse/uid-172471/481b8707-seed-c381807f-2aa1-499d-b991-439c4a485aae-ns-4026532494/torch/nn/quantized/dynamic/modules/linear.py:51:16
[DUMP tensorexpr_fuser.cpp:538]   %2567 : int = prim::dtype(%sum_3.1)
[DUMP tensorexpr_fuser.cpp:538]   %dense_arch_dense_projection_modules_0.1 : Float(20, 64, strides=[64, 1], requires_grad=1, device=cpu) = aten::to(%Y4.20, %2567, %275, %275) # /mnt/xarfuse/uid-172471/481b8707-seed-c381807f-2aa1-499d-b991-439c4a485aae-ns-4026532494/torch/nn/quantized/dynamic/modules/linear.py:55:15
[DUMP tensorexpr_fuser.cpp:538]   %Y4.22 : Float(20, 64, strides=[64, 1], requires_grad=1, device=cpu) = quantized::linear_dynamic_fp16(%sum_3.1, %self.main_module.dense_arch.dense_projection_modules.1._packed_params._packed_params) # /mnt/xarfuse/uid-172471/481b8707-seed-c381807f-2aa1-499d-b991-439c4a485aae-ns-4026532494/torch/nn/quantized/dynamic/modules/linear.py:51:16
[DUMP tensorexpr_fuser.cpp:538]   %dense_arch_dense_projection_modules_1.1 : Float(20, 64, strides=[64, 1], requires_grad=1, device=cpu) = aten::to(%Y4.22, %2567, %275, %275) # /mnt/xarfuse/uid-172471/481b8707-seed-c381807f-2aa1-499d-b991-439c4a485aae-ns-4026532494/torch/nn/quantized/dynamic/modules/linear.py:55:15
[DUMP tensorexpr_fuser.cpp:538]   %Y4.24 : Float(20, 64, strides=[64, 1], requires_grad=1, device=cpu) = quantized::linear_dynamic_fp16(%sum_3.1, %self.main_module.dense_arch.dense_projection_modules.2._packed_params._packed_params) # /mnt/xarfuse/uid-172471/481b8707-seed-c381807f-2aa1-499d-b991-439c4a485aae-ns-4026532494/torch/nn/quantized/dynamic/modules/linear.py:51:16
[DUMP tensorexpr_fuser.cpp:538]   %dense_arch_dense_projection_modules_2.1 : Float(20, 64, strides=[64, 1], requires_grad=1, device=cpu) = aten::to(%Y4.24, %2567, %275, %275) # /mnt/xarfuse/uid-172471/481b8707-seed-c381807f-2aa1-499d-b991-439c4a485aae-ns-4026532494/torch/nn/quantized/dynamic/modules/linear.py:55:15
[DUMP tensorexpr_fuser.cpp:538]   %Y4.26 : Float(20, 64, strides=[64, 1], requires_grad=1, device=cpu) = quantized::linear_dynamic_fp16(%sum_3.1, %self.main_module.dense_arch.dense_projection_modules.3._packed_params._packed_params) # /mnt/xarfuse/uid-172471/481b8707-seed-c381807f-2aa1-499d-b991-439c4a485aae-ns-4026532494/torch/nn/quantized/dynamic/modules/linear.py:51:16
[DUMP tensorexpr_fuser.cpp:538]   %dense_arch_dense_projection_modules_3.1 : Float(20, 64, strides=[64, 1], requires_grad=1, device=cpu) = aten::to(%Y4.26, %2567, %275, %275) # /mnt/xarfuse/uid-172471/481b8707-seed-c381807f-2aa1-499d-b991-439c4a485aae-ns-4026532494/torch/nn/quantized/dynamic/modules/linear.py:55:15
[DUMP tensorexpr_fuser.cpp:538]   %Y4.28 : Float(20, 64, strides=[64, 1], requires_grad=1, device=cpu) = quantized::linear_dynamic_fp16(%sum_3.1, %self.main_module.dense_arch.dense_projection_modules.4._packed_params._packed_params) # /mnt/xarfuse/uid-172471/481b8707-seed-c381807f-2aa1-499d-b991-439c4a485aae-ns-4026532494/torch/nn/quantized/dynamic/modules/linear.py:51:16
[DUMP tensorexpr_fuser.cpp:538]   %dense_arch_dense_projection_modules_4.1 : Float(20, 64, strides=[64, 1], requires_grad=1, device=cpu) = aten::to(%Y4.28, %2567, %275, %275) # /mnt/xarfuse/uid-172471/481b8707-seed-c381807f-2aa1-499d-b991-439c4a485aae-ns-4026532494/torch/nn/quantized/dynamic/modules/linear.py:55:15
[DUMP tensorexpr_fuser.cpp:538]   %Y4.30 : Float(20, 64, strides=[64, 1], requires_grad=1, device=cpu) = quantized::linear_dynamic_fp16(%sum_3.1, %self.main_module.dense_arch.dense_projection_modules.5._packed_params._packed_params) # /mnt/xarfuse/uid-172471/481b8707-seed-c381807f-2aa1-499d-b991-439c4a485aae-ns-4026532494/torch/nn/quantized/dynamic/modules/linear.py:51:16
[DUMP tensorexpr_fuser.cpp:538]   %dense_arch_dense_projection_modules_5.1 : Float(20, 64, strides=[64, 1], requires_grad=1, device=cpu) = aten::to(%Y4.30, %2567, %275, %275) # /mnt/xarfuse/uid-172471/481b8707-seed-c381807f-2aa1-499d-b991-439c4a485aae-ns-4026532494/torch/nn/quantized/dynamic/modules/linear.py:55:15
[DUMP tensorexpr_fuser.cpp:538]   %Y4.32 : Float(20, 64, strides=[64, 1], requires_grad=1, device=cpu) = quantized::linear_dynamic_fp16(%sum_3.1, %self.main_module.dense_arch.dense_projection_modules.6._packed_params._packed_params) # /mnt/xarfuse/uid-172471/481b8707-seed-c381807f-2aa1-499d-b991-439c4a485aae-ns-4026532494/torch/nn/quantized/dynamic/modules/linear.py:51:16
[DUMP tensorexpr_fuser.cpp:538]   %dense_arch_dense_projection_modules_6.1 : Float(20, 64, strides=[64, 1], requires_grad=1, device=cpu) = aten::to(%Y4.32, %2567, %275, %275) # /mnt/xarfuse/uid-172471/481b8707-seed-c381807f-2aa1-499d-b991-439c4a485aae-ns-4026532494/torch/nn/quantized/dynamic/modules/linear.py:55:15
[DUMP tensorexpr_fuser.cpp:538]   %Y4.34 : Float(20, 64, strides=[64, 1], requires_grad=1, device=cpu) = quantized::linear_dynamic_fp16(%sum_3.1, %self.main_module.dense_arch.dense_projection_modules.7._packed_params._packed_params) # /mnt/xarfuse/uid-172471/481b8707-seed-c381807f-2aa1-499d-b991-439c4a485aae-ns-4026532494/torch/nn/quantized/dynamic/modules/linear.py:51:16
[DUMP tensorexpr_fuser.cpp:538]   %dense_arch_dense_projection_modules_7.1 : Float(20, 64, strides=[64, 1], requires_grad=1, device=cpu) = aten::to(%Y4.34, %2567, %275, %275) # /mnt/xarfuse/uid-172471/481b8707-seed-c381807f-2aa1-499d-b991-439c4a485aae-ns-4026532494/torch/nn/quantized/dynamic/modules/linear.py:55:15
[DUMP tensorexpr_fuser.cpp:538]   %2583 : Tensor[] = prim::ListConstruct(%dense_arch_dense_projection_modules_0.1, %dense_arch_dense_projection_modules_1.1, %dense_arch_dense_projection_modules_2.1, %dense_arch_dense_projection_modules_3.1, %dense_arch_dense_projection_modules_4.1, %dense_arch_dense_projection_modules_5.1, %dense_arch_dense_projection_modules_6.1, %dense_arch_dense_projection_modules_7.1)
[DUMP tensorexpr_fuser.cpp:538]   %stack_3.1 : Float(8, 20, 64, strides=[1280, 64, 1], requires_grad=1, device=cpu) = aten::stack(%2583, %176) # <eval_with_key>.47:423:14
[DUMP tensorexpr_fuser.cpp:538]   %Y2.36 : Float(20, 512, strides=[512, 1], requires_grad=1, device=cpu) = quantized::linear_relu_dynamic_fp16(%sum_3.1, %self.main_module.dense_arch.attention_weight.0.mlp_net.0._packed_params._packed_params) # /mnt/xarfuse/uid-172471/481b8707-seed-c381807f-2aa1-499d-b991-439c4a485aae-ns-4026532494/torch/nn/intrinsic/quantized/dynamic/modules/linear_relu.py:35:16
[DUMP tensorexpr_fuser.cpp:538]   %dense_arch_attention_weight_0_mlp_net_0.1 : Float(20, 512, strides=[512, 1], requires_grad=1, device=cpu) = aten::to(%Y2.36, %2567, %275, %275) # /mnt/xarfuse/uid-172471/481b8707-seed-c381807f-2aa1-499d-b991-439c4a485aae-ns-4026532494/torch/nn/intrinsic/quantized/dynamic/modules/linear_relu.py:39:15
[DUMP tensorexpr_fuser.cpp:538]   %Y4.36 : Float(20, 1485, strides=[1485, 1], requires_grad=1, device=cpu) = quantized::linear_dynamic_fp16(%dense_arch_attention_weight_0_mlp_net_0.1, %self.main_module.dense_arch.attention_weight.1._packed_params._packed_params) # /mnt/xarfuse/uid-172471/481b8707-seed-c381807f-2aa1-499d-b991-439c4a485aae-ns-4026532494/torch/nn/quantized/dynamic/modules/linear.py:51:16
[DUMP tensorexpr_fuser.cpp:538]   %2588 : int = prim::dtype(%dense_arch_attention_weight_0_mlp_net_0.1)
[DUMP tensorexpr_fuser.cpp:538]   %dense_arch_attention_weight_1.1 : Float(20, 1485, strides=[1485, 1], requires_grad=1, device=cpu) = aten::to(%Y4.36, %2588, %275, %275) # /mnt/xarfuse/uid-172471/481b8707-seed-c381807f-2aa1-499d-b991-439c4a485aae-ns-4026532494/torch/nn/quantized/dynamic/modules/linear.py:55:15
[DUMP tensorexpr_fuser.cpp:538]   %Y4.38 : Float(20, 128, strides=[128, 1], requires_grad=1, device=cpu) = quantized::linear_dynamic_fp16(%cat_2.2, %self.main_module.over_arch._specialized_arch.specialized_net.specialized_embeddings._dense_embedding._packed_params._packed_params) # /mnt/xarfuse/uid-172471/481b8707-seed-c381807f-2aa1-499d-b991-439c4a485aae-ns-4026532494/torch/nn/quantized/dynamic/modules/linear.py:51:16
[DUMP tensorexpr_fuser.cpp:538]   %2592 : int = prim::dtype(%cat_2.2)
[DUMP tensorexpr_fuser.cpp:538]   %over_arch__specialized_arch_specialized_net_specialized_embeddings__dense_embedding.1 : Float(20, 128, strides=[128, 1], requires_grad=1, device=cpu) = aten::to(%Y4.38, %2592, %275, %275) # /mnt/xarfuse/uid-172471/481b8707-seed-c381807f-2aa1-499d-b991-439c4a485aae-ns-4026532494/torch/nn/quantized/dynamic/modules/linear.py:55:15
[DUMP tensorexpr_fuser.cpp:538]   %reshape.1 : Float(20, 2, 64, strides=[128, 64, 1], requires_grad=1, device=cpu) = aten::reshape(%over_arch__specialized_arch_specialized_net_specialized_embeddings__dense_embedding.1, %9) # <eval_with_key>.47:428:14
[DUMP tensorexpr_fuser.cpp:538]   %Y4.40 : Float(20, 128, strides=[128, 1], requires_grad=1, device=cpu) = quantized::linear_dynamic_fp16(%cat_2.2, %self.main_module.over_arch._specialized_arch.projection_net.specialized_embeddings._packed_params._packed_params) # /mnt/xarfuse/uid-172471/481b8707-seed-c381807f-2aa1-499d-b991-439c4a485aae-ns-4026532494/torch/nn/quantized/dynamic/modules/linear.py:51:16
[DUMP tensorexpr_fuser.cpp:538]   %over_arch__specialized_arch_projection_net_specialized_embeddings.1 : Float(20, 128, strides=[128, 1], requires_grad=1, device=cpu) = aten::to(%Y4.40, %2592, %275, %275) # /mnt/xarfuse/uid-172471/481b8707-seed-c381807f-2aa1-499d-b991-439c4a485aae-ns-4026532494/torch/nn/quantized/dynamic/modules/linear.py:55:15
[DUMP tensorexpr_fuser.cpp:538]   %permute.1 : Float(20, 8, 64, strides=[64, 1280, 1], requires_grad=1, device=cpu) = aten::permute(%stack_3.1, %8) # <eval_with_key>.47:432:14
[DUMP tensorexpr_fuser.cpp:538]   %view.1 : Float(20, 88, 64, strides=[5632, 64, 1], requires_grad=0, device=cpu) = aten::view(%cat.2, %7) # <eval_with_key>.47:433:11
[DUMP tensorexpr_fuser.cpp:538]   %view_1.1 : Float(20, 5, 64, strides=[320, 64, 1], requires_grad=0, device=cpu) = aten::view(%cat_1.2, %6) # <eval_with_key>.47:434:13
[DUMP tensorexpr_fuser.cpp:538]   %sum_4.1 : Float(20, 1, 64, strides=[64, 64, 1], requires_grad=0, device=cpu) = aten::sum(%view_1.1, %175, %self.preproc.int32_sparse_indices, %self.max_ind_range) # <eval_with_key>.47:435:12
[DUMP tensorexpr_fuser.cpp:538]   %sum_5.1 : Float(20, 64, strides=[64, 1], requires_grad=0, device=cpu) = aten::sum(%sum_4.1, %175, %275, %self.max_ind_range) # <eval_with_key>.47:436:12
[DUMP tensorexpr_fuser.cpp:538]   %cat_5.2 : Float(20, 99, 64, strides=[6336, 64, 1], requires_grad=1, device=cpu) = prim::TensorExprGroup_7(%permute.1, %view.1, %sum_4.1, %reshape.1)
[DUMP tensorexpr_fuser.cpp:538]   %permute_1.1 : Float(20, 64, 99, strides=[6336, 1, 64], requires_grad=1, device=cpu) = aten::permute(%cat_5.2, %5) # <eval_with_key>.47:438:16
[DUMP tensorexpr_fuser.cpp:538]   %Y4.42 : Float(20, 64, 15, strides=[960, 15, 1], requires_grad=1, device=cpu) = quantized::linear_dynamic_fp16(%permute_1.1, %self.main_module.over_arch._interaction_arch._dot_product_compress.dp_compress_arch._packed_params._packed_params) # /mnt/xarfuse/uid-172471/481b8707-seed-c381807f-2aa1-499d-b991-439c4a485aae-ns-4026532494/torch/nn/quantized/dynamic/modules/linear.py:51:16
[DUMP tensorexpr_fuser.cpp:538]   %2606 : int = prim::dtype(%permute_1.1)
[DUMP tensorexpr_fuser.cpp:538]   %over_arch__interaction_arch__dot_product_compress_dp_compress_arch.1 : Float(20, 64, 15, strides=[960, 15, 1], requires_grad=1, device=cpu) = aten::to(%Y4.42, %2606, %275, %275) # /mnt/xarfuse/uid-172471/481b8707-seed-c381807f-2aa1-499d-b991-439c4a485aae-ns-4026532494/torch/nn/quantized/dynamic/modules/linear.py:55:15
[DUMP tensorexpr_fuser.cpp:538]   %bmm.1 : Float(20, 99, 15, strides=[1485, 15, 1], requires_grad=1, device=cpu) = aten::bmm(%cat_5.2, %over_arch__interaction_arch__dot_product_compress_dp_compress_arch.1) # <eval_with_key>.47:440:10
[DUMP tensorexpr_fuser.cpp:538]   %flatten.1 : Float(20, 1485, strides=[1485, 1], requires_grad=1, device=cpu) = aten::flatten(%bmm.1, %213, %276) # <eval_with_key>.47:441:14
[DUMP tensorexpr_fuser.cpp:538]   %reshape_1.1 : Float(20, 960, strides=[960, 1], requires_grad=1, device=cpu) = aten::reshape(%over_arch__interaction_arch__dot_product_compress_dp_compress_arch.1, %4) # <eval_with_key>.47:442:16
[DUMP tensorexpr_fuser.cpp:538]   %Y2.46 : Float(20, 512, strides=[512, 1], requires_grad=1, device=cpu) = quantized::linear_relu_dynamic_fp16(%reshape_1.1, %self.main_module.over_arch._interaction_arch._cat_embedding_module.0._packed_params._packed_params) # /mnt/xarfuse/uid-172471/481b8707-seed-c381807f-2aa1-499d-b991-439c4a485aae-ns-4026532494/torch/nn/intrinsic/quantized/dynamic/modules/linear_relu.py:35:16
[DUMP tensorexpr_fuser.cpp:538]   %2613 : int = prim::dtype(%reshape_1.1)
[DUMP tensorexpr_fuser.cpp:538]   %over_arch__interaction_arch__cat_embedding_module_0.1 : Float(20, 512, strides=[512, 1], requires_grad=1, device=cpu) = aten::to(%Y2.46, %2613, %275, %275) # /mnt/xarfuse/uid-172471/481b8707-seed-c381807f-2aa1-499d-b991-439c4a485aae-ns-4026532494/torch/nn/intrinsic/quantized/dynamic/modules/linear_relu.py:39:15
[DUMP tensorexpr_fuser.cpp:538]   %cat_6.2 : Float(20, 3533, strides=[3533, 1], requires_grad=1, device=cpu) = prim::TensorExprGroup_8(%sum_3.1, %over_arch__interaction_arch__cat_embedding_module_0.1, %sum_5.1, %flatten.1, %reshape_1.1, %dense_arch_attention_weight_1.1)
[DUMP tensorexpr_fuser.cpp:538]   %Y2.48 : Float(20, 512, strides=[512, 1], requires_grad=1, device=cpu) = quantized::linear_relu_dynamic_fp16(%cat_6.2, %self.main_module.over_arch._interaction_arch._over_arch_mlp.0.gate_net.0.mlp_net.0._packed_params._packed_params) # /mnt/xarfuse/uid-172471/481b8707-seed-c381807f-2aa1-499d-b991-439c4a485aae-ns-4026532494/torch/nn/intrinsic/quantized/dynamic/modules/linear_relu.py:35:16
[DUMP tensorexpr_fuser.cpp:538]   %2620 : int = prim::dtype(%cat_6.2)
[DUMP tensorexpr_fuser.cpp:538]   %over_arch__interaction_arch__over_arch_mlp_0_gate_net_0_mlp_net_0.1 : Float(20, 512, strides=[512, 1], requires_grad=1, device=cpu) = aten::to(%Y2.48, %2620, %275, %275) # /mnt/xarfuse/uid-172471/481b8707-seed-c381807f-2aa1-499d-b991-439c4a485aae-ns-4026532494/torch/nn/intrinsic/quantized/dynamic/modules/linear_relu.py:39:15
[DUMP tensorexpr_fuser.cpp:538]   %Y4.44 : Float(20, 3533, strides=[3533, 1], requires_grad=1, device=cpu) = quantized::linear_dynamic_fp16(%over_arch__interaction_arch__over_arch_mlp_0_gate_net_0_mlp_net_0.1, %self.main_module.over_arch._interaction_arch._over_arch_mlp.0.gate_net.1._packed_params._packed_params) # /mnt/xarfuse/uid-172471/481b8707-seed-c381807f-2aa1-499d-b991-439c4a485aae-ns-4026532494/torch/nn/quantized/dynamic/modules/linear.py:51:16
[DUMP tensorexpr_fuser.cpp:538]   %2623 : int = prim::dtype(%over_arch__interaction_arch__over_arch_mlp_0_gate_net_0_mlp_net_0.1)
[DUMP tensorexpr_fuser.cpp:538]   %over_arch__interaction_arch__over_arch_mlp_0_gate_net_1.1 : Float(20, 3533, strides=[3533, 1], requires_grad=1, device=cpu) = aten::to(%Y4.44, %2623, %275, %275) # /mnt/xarfuse/uid-172471/481b8707-seed-c381807f-2aa1-499d-b991-439c4a485aae-ns-4026532494/torch/nn/quantized/dynamic/modules/linear.py:55:15
[DUMP tensorexpr_fuser.cpp:538]   %mul_10.2 : Float(20, 3533, strides=[3533, 1], requires_grad=1, device=cpu) = prim::TensorExprGroup_9(%cat_6.2, %over_arch__interaction_arch__over_arch_mlp_0_gate_net_1.1)
[DUMP tensorexpr_fuser.cpp:538]   %Y4.46 : Float(20, 128, strides=[128, 1], requires_grad=1, device=cpu) = quantized::linear_dynamic_fp16(%mul_10.2, %self.main_module.over_arch._interaction_arch._over_arch_mlp.1._packed_params._packed_params) # /mnt/xarfuse/uid-172471/481b8707-seed-c381807f-2aa1-499d-b991-439c4a485aae-ns-4026532494/torch/nn/quantized/dynamic/modules/linear.py:51:16
[DUMP tensorexpr_fuser.cpp:538]   %2628 : int = prim::dtype(%mul_10.2)
[DUMP tensorexpr_fuser.cpp:538]   %over_arch__interaction_arch__over_arch_mlp_1.1 : Float(20, 128, strides=[128, 1], requires_grad=1, device=cpu) = aten::to(%Y4.46, %2628, %275, %275) # /mnt/xarfuse/uid-172471/481b8707-seed-c381807f-2aa1-499d-b991-439c4a485aae-ns-4026532494/torch/nn/quantized/dynamic/modules/linear.py:55:15
[DUMP tensorexpr_fuser.cpp:538]   %over_arch__interaction_arch__over_arch_mlp_2__building_blocks_0__residual_mapping_0.1 : Float(20, 128, strides=[128, 1], requires_grad=1, device=cpu) = aten::relu(%over_arch__interaction_arch__over_arch_mlp_1.1) # /mnt/xarfuse/uid-172471/481b8707-seed-c381807f-2aa1-499d-b991-439c4a485aae-ns-4026532494/torch/nn/functional.py:1442:17
[DUMP tensorexpr_fuser.cpp:538]   %Y2.54 : Float(20, 48, strides=[48, 1], requires_grad=1, device=cpu) = quantized::linear_relu_dynamic_fp16(%over_arch__interaction_arch__over_arch_mlp_2__building_blocks_0__residual_mapping_0.1, %self.main_module.over_arch._interaction_arch._over_arch_mlp.2._building_blocks.0._residual_mapping.1._packed_params._packed_params) # /mnt/xarfuse/uid-172471/481b8707-seed-c381807f-2aa1-499d-b991-439c4a485aae-ns-4026532494/torch/nn/intrinsic/quantized/dynamic/modules/linear_relu.py:35:16
[DUMP tensorexpr_fuser.cpp:538]   %2632 : int = prim::dtype(%over_arch__interaction_arch__over_arch_mlp_2__building_blocks_0__residual_mapping_0.1)
[DUMP tensorexpr_fuser.cpp:538]   %over_arch__interaction_arch__over_arch_mlp_2__building_blocks_0__residual_mapping_1.1 : Float(20, 48, strides=[48, 1], requires_grad=1, device=cpu) = aten::to(%Y2.54, %2632, %275, %275) # /mnt/xarfuse/uid-172471/481b8707-seed-c381807f-2aa1-499d-b991-439c4a485aae-ns-4026532494/torch/nn/intrinsic/quantized/dynamic/modules/linear_relu.py:39:15
[DUMP tensorexpr_fuser.cpp:538]   %Y4.48 : Float(20, 128, strides=[128, 1], requires_grad=1, device=cpu) = quantized::linear_dynamic_fp16(%over_arch__interaction_arch__over_arch_mlp_2__building_blocks_0__residual_mapping_1.1, %self.main_module.over_arch._interaction_arch._over_arch_mlp.2._building_blocks.0._residual_mapping.3._packed_params._packed_params) # /mnt/xarfuse/uid-172471/481b8707-seed-c381807f-2aa1-499d-b991-439c4a485aae-ns-4026532494/torch/nn/quantized/dynamic/modules/linear.py:51:16
[DUMP tensorexpr_fuser.cpp:538]   %2635 : int = prim::dtype(%over_arch__interaction_arch__over_arch_mlp_2__building_blocks_0__residual_mapping_1.1)
[DUMP tensorexpr_fuser.cpp:538]   %over_arch__interaction_arch__over_arch_mlp_2__building_blocks_0__residual_mapping_3.1 : Float(20, 128, strides=[128, 1], requires_grad=1, device=cpu) = aten::to(%Y4.48, %2635, %275, %275) # /mnt/xarfuse/uid-172471/481b8707-seed-c381807f-2aa1-499d-b991-439c4a485aae-ns-4026532494/torch/nn/quantized/dynamic/modules/linear.py:55:15
[DUMP tensorexpr_fuser.cpp:538]   %over_arch__interaction_arch__over_arch_mlp_2__building_blocks_1__residual_mapping_0.2 : Float(20, 128, strides=[128, 1], requires_grad=1, device=cpu), %add.2 : Float(20, 128, strides=[128, 1], requires_grad=1, device=cpu) = prim::TensorExprGroup_10(%over_arch__interaction_arch__over_arch_mlp_2__building_blocks_0__residual_mapping_3.1, %over_arch__interaction_arch__over_arch_mlp_1.1)
[DUMP tensorexpr_fuser.cpp:538]   %Y2.58 : Float(20, 48, strides=[48, 1], requires_grad=1, device=cpu) = quantized::linear_relu_dynamic_fp16(%over_arch__interaction_arch__over_arch_mlp_2__building_blocks_1__residual_mapping_0.2, %self.main_module.over_arch._interaction_arch._over_arch_mlp.2._building_blocks.1._residual_mapping.1._packed_params._packed_params) # /mnt/xarfuse/uid-172471/481b8707-seed-c381807f-2aa1-499d-b991-439c4a485aae-ns-4026532494/torch/nn/intrinsic/quantized/dynamic/modules/linear_relu.py:35:16
[DUMP tensorexpr_fuser.cpp:538]   %2640 : int = prim::dtype(%over_arch__interaction_arch__over_arch_mlp_2__building_blocks_1__residual_mapping_0.2)
[DUMP tensorexpr_fuser.cpp:538]   %over_arch__interaction_arch__over_arch_mlp_2__building_blocks_1__residual_mapping_1.1 : Float(20, 48, strides=[48, 1], requires_grad=1, device=cpu) = aten::to(%Y2.58, %2640, %275, %275) # /mnt/xarfuse/uid-172471/481b8707-seed-c381807f-2aa1-499d-b991-439c4a485aae-ns-4026532494/torch/nn/intrinsic/quantized/dynamic/modules/linear_relu.py:39:15
[DUMP tensorexpr_fuser.cpp:538]   %Y4.50 : Float(20, 128, strides=[128, 1], requires_grad=1, device=cpu) = quantized::linear_dynamic_fp16(%over_arch__interaction_arch__over_arch_mlp_2__building_blocks_1__residual_mapping_1.1, %self.main_module.over_arch._interaction_arch._over_arch_mlp.2._building_blocks.1._residual_mapping.3._packed_params._packed_params) # /mnt/xarfuse/uid-172471/481b8707-seed-c381807f-2aa1-499d-b991-439c4a485aae-ns-4026532494/torch/nn/quantized/dynamic/modules/linear.py:51:16
[DUMP tensorexpr_fuser.cpp:538]   %2643 : int = prim::dtype(%over_arch__interaction_arch__over_arch_mlp_2__building_blocks_1__residual_mapping_1.1)
[DUMP tensorexpr_fuser.cpp:538]   %over_arch__interaction_arch__over_arch_mlp_2__building_blocks_1__residual_mapping_3.1 : Float(20, 128, strides=[128, 1], requires_grad=1, device=cpu) = aten::to(%Y4.50, %2643, %275, %275) # /mnt/xarfuse/uid-172471/481b8707-seed-c381807f-2aa1-499d-b991-439c4a485aae-ns-4026532494/torch/nn/quantized/dynamic/modules/linear.py:55:15
[DUMP tensorexpr_fuser.cpp:538]   %Y4.52 : Float(20, 128, strides=[128, 1], requires_grad=1, device=cpu) = quantized::linear_dynamic_fp16(%772, %self.main_module.over_arch._task_arch._dedicated_arch._dedicated_arch.0._packed_params._packed_params) # /mnt/xarfuse/uid-172471/481b8707-seed-c381807f-2aa1-499d-b991-439c4a485aae-ns-4026532494/torch/nn/quantized/dynamic/modules/linear.py:51:16
[DUMP tensorexpr_fuser.cpp:538]   %2653 : int = prim::dtype(%772)
[DUMP tensorexpr_fuser.cpp:538]   %over_arch__task_arch__dedicated_arch__dedicated_arch_0.1 : Float(20, 128, strides=[128, 1], requires_grad=1, device=cpu) = aten::to(%Y4.52, %2653, %275, %275) # /mnt/xarfuse/uid-172471/481b8707-seed-c381807f-2aa1-499d-b991-439c4a485aae-ns-4026532494/torch/nn/quantized/dynamic/modules/linear.py:55:15
[DUMP tensorexpr_fuser.cpp:538]   %over_arch__task_arch__dedicated_arch__dedicated_arch_1__building_blocks_0__residual_mapping_0.1 : Float(20, 128, strides=[128, 1], requires_grad=1, device=cpu) = aten::relu(%over_arch__task_arch__dedicated_arch__dedicated_arch_0.1) # /mnt/xarfuse/uid-172471/481b8707-seed-c381807f-2aa1-499d-b991-439c4a485aae-ns-4026532494/torch/nn/functional.py:1442:17
[DUMP tensorexpr_fuser.cpp:538]   %Y2.64 : Float(20, 48, strides=[48, 1], requires_grad=1, device=cpu) = quantized::linear_relu_dynamic_fp16(%over_arch__task_arch__dedicated_arch__dedicated_arch_1__building_blocks_0__residual_mapping_0.1, %self.main_module.over_arch._task_arch._dedicated_arch._dedicated_arch.1._building_blocks.0._residual_mapping.1._packed_params._packed_params) # /mnt/xarfuse/uid-172471/481b8707-seed-c381807f-2aa1-499d-b991-439c4a485aae-ns-4026532494/torch/nn/intrinsic/quantized/dynamic/modules/linear_relu.py:35:16
[DUMP tensorexpr_fuser.cpp:538]   %2657 : int = prim::dtype(%over_arch__task_arch__dedicated_arch__dedicated_arch_1__building_blocks_0__residual_mapping_0.1)
[DUMP tensorexpr_fuser.cpp:538]   %over_arch__task_arch__dedicated_arch__dedicated_arch_1__building_blocks_0__residual_mapping_1.1 : Float(20, 48, strides=[48, 1], requires_grad=1, device=cpu) = aten::to(%Y2.64, %2657, %275, %275) # /mnt/xarfuse/uid-172471/481b8707-seed-c381807f-2aa1-499d-b991-439c4a485aae-ns-4026532494/torch/nn/intrinsic/quantized/dynamic/modules/linear_relu.py:39:15
[DUMP tensorexpr_fuser.cpp:538]   %Y4.54 : Float(20, 128, strides=[128, 1], requires_grad=1, device=cpu) = quantized::linear_dynamic_fp16(%over_arch__task_arch__dedicated_arch__dedicated_arch_1__building_blocks_0__residual_mapping_1.1, %self.main_module.over_arch._task_arch._dedicated_arch._dedicated_arch.1._building_blocks.0._residual_mapping.3._packed_params._packed_params) # /mnt/xarfuse/uid-172471/481b8707-seed-c381807f-2aa1-499d-b991-439c4a485aae-ns-4026532494/torch/nn/quantized/dynamic/modules/linear.py:51:16
[DUMP tensorexpr_fuser.cpp:538]   %2660 : int = prim::dtype(%over_arch__task_arch__dedicated_arch__dedicated_arch_1__building_blocks_0__residual_mapping_1.1)
[DUMP tensorexpr_fuser.cpp:538]   %over_arch__task_arch__dedicated_arch__dedicated_arch_1__building_blocks_0__residual_mapping_3.1 : Float(20, 128, strides=[128, 1], requires_grad=1, device=cpu) = aten::to(%Y4.54, %2660, %275, %275) # /mnt/xarfuse/uid-172471/481b8707-seed-c381807f-2aa1-499d-b991-439c4a485aae-ns-4026532494/torch/nn/quantized/dynamic/modules/linear.py:55:15
[DUMP tensorexpr_fuser.cpp:538]   %Y4.58 : Float(20, 128, strides=[128, 1], requires_grad=1, device=cpu) = quantized::linear_dynamic_fp16(%772, %self.main_module.over_arch._task_arch._dedicated_arch._dedicated_arch.0._packed_params._packed_params) # /mnt/xarfuse/uid-172471/481b8707-seed-c381807f-2aa1-499d-b991-439c4a485aae-ns-4026532494/torch/nn/quantized/dynamic/modules/linear.py:51:16
[DUMP tensorexpr_fuser.cpp:538]   %2673 : int = prim::dtype(%772)
[DUMP tensorexpr_fuser.cpp:538]   %over_arch__task_arch__dedicated_arch__dedicated_arch_1.1 : Float(20, 128, strides=[128, 1], requires_grad=1, device=cpu) = aten::to(%Y4.58, %2673, %275, %275) # /mnt/xarfuse/uid-172471/481b8707-seed-c381807f-2aa1-499d-b991-439c4a485aae-ns-4026532494/torch/nn/quantized/dynamic/modules/linear.py:55:15
[DUMP tensorexpr_fuser.cpp:538]   %over_arch__task_arch__dedicated_arch__dedicated_arch_1__building_blocks_0__residual_mapping_4.1 : Float(20, 128, strides=[128, 1], requires_grad=1, device=cpu) = aten::relu(%over_arch__task_arch__dedicated_arch__dedicated_arch_1.1) # /mnt/xarfuse/uid-172471/481b8707-seed-c381807f-2aa1-499d-b991-439c4a485aae-ns-4026532494/torch/nn/functional.py:1442:17
[DUMP tensorexpr_fuser.cpp:538]   %Y2.74 : Float(20, 48, strides=[48, 1], requires_grad=1, device=cpu) = quantized::linear_relu_dynamic_fp16(%over_arch__task_arch__dedicated_arch__dedicated_arch_1__building_blocks_0__residual_mapping_4.1, %self.main_module.over_arch._task_arch._dedicated_arch._dedicated_arch.1._building_blocks.0._residual_mapping.1._packed_params._packed_params) # /mnt/xarfuse/uid-172471/481b8707-seed-c381807f-2aa1-499d-b991-439c4a485aae-ns-4026532494/torch/nn/intrinsic/quantized/dynamic/modules/linear_relu.py:35:16
[DUMP tensorexpr_fuser.cpp:538]   %2677 : int = prim::dtype(%over_arch__task_arch__dedicated_arch__dedicated_arch_1__building_blocks_0__residual_mapping_4.1)
[DUMP tensorexpr_fuser.cpp:538]   %over_arch__task_arch__dedicated_arch__dedicated_arch_1__building_blocks_0__residual_mapping_2.1 : Float(20, 48, strides=[48, 1], requires_grad=1, device=cpu) = aten::to(%Y2.74, %2677, %275, %275) # /mnt/xarfuse/uid-172471/481b8707-seed-c381807f-2aa1-499d-b991-439c4a485aae-ns-4026532494/torch/nn/intrinsic/quantized/dynamic/modules/linear_relu.py:39:15
[DUMP tensorexpr_fuser.cpp:538]   %Y4.60 : Float(20, 128, strides=[128, 1], requires_grad=1, device=cpu) = quantized::linear_dynamic_fp16(%over_arch__task_arch__dedicated_arch__dedicated_arch_1__building_blocks_0__residual_mapping_2.1, %self.main_module.over_arch._task_arch._dedicated_arch._dedicated_arch.1._building_blocks.0._residual_mapping.3._packed_params._packed_params) # /mnt/xarfuse/uid-172471/481b8707-seed-c381807f-2aa1-499d-b991-439c4a485aae-ns-4026532494/torch/nn/quantized/dynamic/modules/linear.py:51:16
[DUMP tensorexpr_fuser.cpp:538]   %2680 : int = prim::dtype(%over_arch__task_arch__dedicated_arch__dedicated_arch_1__building_blocks_0__residual_mapping_2.1)
[DUMP tensorexpr_fuser.cpp:538]   %over_arch__task_arch__dedicated_arch__dedicated_arch_1__building_blocks_0__residual_mapping_5.1 : Float(20, 128, strides=[128, 1], requires_grad=1, device=cpu) = aten::to(%Y4.60, %2680, %275, %275) # /mnt/xarfuse/uid-172471/481b8707-seed-c381807f-2aa1-499d-b991-439c4a485aae-ns-4026532494/torch/nn/quantized/dynamic/modules/linear.py:55:15
[DUMP tensorexpr_fuser.cpp:538]   %Y4.64 : Float(20, 128, strides=[128, 1], requires_grad=1, device=cpu) = quantized::linear_dynamic_fp16(%772, %self.main_module.over_arch._task_arch._dedicated_arch._dedicated_arch.0._packed_params._packed_params) # /mnt/xarfuse/uid-172471/481b8707-seed-c381807f-2aa1-499d-b991-439c4a485aae-ns-4026532494/torch/nn/quantized/dynamic/modules/linear.py:51:16
[DUMP tensorexpr_fuser.cpp:538]   %2693 : int = prim::dtype(%772)
[DUMP tensorexpr_fuser.cpp:538]   %over_arch__task_arch__dedicated_arch__dedicated_arch_2.1 : Float(20, 128, strides=[128, 1], requires_grad=1, device=cpu) = aten::to(%Y4.64, %2693, %275, %275) # /mnt/xarfuse/uid-172471/481b8707-seed-c381807f-2aa1-499d-b991-439c4a485aae-ns-4026532494/torch/nn/quantized/dynamic/modules/linear.py:55:15
[DUMP tensorexpr_fuser.cpp:538]   %over_arch__task_arch__dedicated_arch__dedicated_arch_1__building_blocks_0__residual_mapping_8.1 : Float(20, 128, strides=[128, 1], requires_grad=1, device=cpu) = aten::relu(%over_arch__task_arch__dedicated_arch__dedicated_arch_2.1) # /mnt/xarfuse/uid-172471/481b8707-seed-c381807f-2aa1-499d-b991-439c4a485aae-ns-4026532494/torch/nn/functional.py:1442:17
[DUMP tensorexpr_fuser.cpp:538]   %Y2.84 : Float(20, 48, strides=[48, 1], requires_grad=1, device=cpu) = quantized::linear_relu_dynamic_fp16(%over_arch__task_arch__dedicated_arch__dedicated_arch_1__building_blocks_0__residual_mapping_8.1, %self.main_module.over_arch._task_arch._dedicated_arch._dedicated_arch.1._building_blocks.0._residual_mapping.1._packed_params._packed_params) # /mnt/xarfuse/uid-172471/481b8707-seed-c381807f-2aa1-499d-b991-439c4a485aae-ns-4026532494/torch/nn/intrinsic/quantized/dynamic/modules/linear_relu.py:35:16
[DUMP tensorexpr_fuser.cpp:538]   %2697 : int = prim::dtype(%over_arch__task_arch__dedicated_arch__dedicated_arch_1__building_blocks_0__residual_mapping_8.1)
[DUMP tensorexpr_fuser.cpp:538]   %over_arch__task_arch__dedicated_arch__dedicated_arch_1__building_blocks_0__residual_mapping_6.1 : Float(20, 48, strides=[48, 1], requires_grad=1, device=cpu) = aten::to(%Y2.84, %2697, %275, %275) # /mnt/xarfuse/uid-172471/481b8707-seed-c381807f-2aa1-499d-b991-439c4a485aae-ns-4026532494/torch/nn/intrinsic/quantized/dynamic/modules/linear_relu.py:39:15
[DUMP tensorexpr_fuser.cpp:538]   %Y4.66 : Float(20, 128, strides=[128, 1], requires_grad=1, device=cpu) = quantized::linear_dynamic_fp16(%over_arch__task_arch__dedicated_arch__dedicated_arch_1__building_blocks_0__residual_mapping_6.1, %self.main_module.over_arch._task_arch._dedicated_arch._dedicated_arch.1._building_blocks.0._residual_mapping.3._packed_params._packed_params) # /mnt/xarfuse/uid-172471/481b8707-seed-c381807f-2aa1-499d-b991-439c4a485aae-ns-4026532494/torch/nn/quantized/dynamic/modules/linear.py:51:16
[DUMP tensorexpr_fuser.cpp:538]   %2700 : int = prim::dtype(%over_arch__task_arch__dedicated_arch__dedicated_arch_1__building_blocks_0__residual_mapping_6.1)
[DUMP tensorexpr_fuser.cpp:538]   %over_arch__task_arch__dedicated_arch__dedicated_arch_1__building_blocks_0__residual_mapping_7.1 : Float(20, 128, strides=[128, 1], requires_grad=1, device=cpu) = aten::to(%Y4.66, %2700, %275, %275) # /mnt/xarfuse/uid-172471/481b8707-seed-c381807f-2aa1-499d-b991-439c4a485aae-ns-4026532494/torch/nn/quantized/dynamic/modules/linear.py:55:15
[DUMP tensorexpr_fuser.cpp:538]   %cat_7.2 : Float(20, 256, strides=[256, 1], requires_grad=1, device=cpu), %over_arch__task_arch__dedicated_arch__dedicated_arch_1__building_blocks_1__residual_mapping_0.2 : Float(20, 128, strides=[128, 1], requires_grad=1, device=cpu), %add_3.2 : Float(20, 128, strides=[128, 1], requires_grad=1, device=cpu), %over_arch__task_arch__dedicated_arch__dedicated_arch_1__building_blocks_1__residual_mapping_4.2 : Float(20, 128, strides=[128, 1], requires_grad=1, device=cpu), %add_6.2 : Float(20, 128, strides=[128, 1], requires_grad=1, device=cpu), %over_arch__task_arch__dedicated_arch__dedicated_arch_1__building_blocks_1__residual_mapping_8.2 : Float(20, 128, strides=[128, 1], requires_grad=1, device=cpu), %add_9.2 : Float(20, 128, strides=[128, 1], requires_grad=1, device=cpu) = prim::TensorExprGroup_11(%over_arch__specialized_arch_projection_net_specialized_embeddings.1, %over_arch__interaction_arch__over_arch_mlp_2__building_blocks_1__residual_mapping_3.1, %add.2, %over_arch__task_arch__dedicated_arch__dedicated_arch_1__building_blocks_0__residual_mapping_3.1, %over_arch__task_arch__dedicated_arch__dedicated_arch_0.1, %over_arch__task_arch__dedicated_arch__dedicated_arch_1__building_blocks_0__residual_mapping_5.1, %over_arch__task_arch__dedicated_arch__dedicated_arch_1.1, %over_arch__task_arch__dedicated_arch__dedicated_arch_1__building_blocks_0__residual_mapping_7.1, %over_arch__task_arch__dedicated_arch__dedicated_arch_2.1)
[DUMP tensorexpr_fuser.cpp:538]   %scale_gradient.1 : Float(20, 256, strides=[256, 1], requires_grad=1, device=cpu) = fb::scale_gradient(%cat_7.2, %89) # <eval_with_key>.47:464:21
[DUMP tensorexpr_fuser.cpp:538]   %scale_gradient_1.1 : Float(20, 256, strides=[256, 1], requires_grad=1, device=cpu) = fb::scale_gradient(%cat_7.2, %90) # <eval_with_key>.47:465:23
[DUMP tensorexpr_fuser.cpp:538]   %scale_gradient_2.1 : Float(20, 256, strides=[256, 1], requires_grad=1, device=cpu) = fb::scale_gradient(%cat_7.2, %91) # <eval_with_key>.47:466:23
[DUMP tensorexpr_fuser.cpp:538]   %Y2.68 : Float(20, 48, strides=[48, 1], requires_grad=1, device=cpu) = quantized::linear_relu_dynamic_fp16(%over_arch__task_arch__dedicated_arch__dedicated_arch_1__building_blocks_1__residual_mapping_0.2, %self.main_module.over_arch._task_arch._dedicated_arch._dedicated_arch.1._building_blocks.1._residual_mapping.1._packed_params._packed_params) # /mnt/xarfuse/uid-172471/481b8707-seed-c381807f-2aa1-499d-b991-439c4a485aae-ns-4026532494/torch/nn/intrinsic/quantized/dynamic/modules/linear_relu.py:35:16
[DUMP tensorexpr_fuser.cpp:538]   %2665 : int = prim::dtype(%over_arch__task_arch__dedicated_arch__dedicated_arch_1__building_blocks_1__residual_mapping_0.2)
[DUMP tensorexpr_fuser.cpp:538]   %over_arch__task_arch__dedicated_arch__dedicated_arch_1__building_blocks_1__residual_mapping_1.1 : Float(20, 48, strides=[48, 1], requires_grad=1, device=cpu) = aten::to(%Y2.68, %2665, %275, %275) # /mnt/xarfuse/uid-172471/481b8707-seed-c381807f-2aa1-499d-b991-439c4a485aae-ns-4026532494/torch/nn/intrinsic/quantized/dynamic/modules/linear_relu.py:39:15
[DUMP tensorexpr_fuser.cpp:538]   %Y4.56 : Float(20, 128, strides=[128, 1], requires_grad=1, device=cpu) = quantized::linear_dynamic_fp16(%over_arch__task_arch__dedicated_arch__dedicated_arch_1__building_blocks_1__residual_mapping_1.1, %self.main_module.over_arch._task_arch._dedicated_arch._dedicated_arch.1._building_blocks.1._residual_mapping.3._packed_params._packed_params) # /mnt/xarfuse/uid-172471/481b8707-seed-c381807f-2aa1-499d-b991-439c4a485aae-ns-4026532494/torch/nn/quantized/dynamic/modules/linear.py:51:16
[DUMP tensorexpr_fuser.cpp:538]   %2668 : int = prim::dtype(%over_arch__task_arch__dedicated_arch__dedicated_arch_1__building_blocks_1__residual_mapping_1.1)
[DUMP tensorexpr_fuser.cpp:538]   %over_arch__task_arch__dedicated_arch__dedicated_arch_1__building_blocks_1__residual_mapping_3.1 : Float(20, 128, strides=[128, 1], requires_grad=1, device=cpu) = aten::to(%Y4.56, %2668, %275, %275) # /mnt/xarfuse/uid-172471/481b8707-seed-c381807f-2aa1-499d-b991-439c4a485aae-ns-4026532494/torch/nn/quantized/dynamic/modules/linear.py:55:15
[DUMP tensorexpr_fuser.cpp:538]   %Y2.78 : Float(20, 48, strides=[48, 1], requires_grad=1, device=cpu) = quantized::linear_relu_dynamic_fp16(%over_arch__task_arch__dedicated_arch__dedicated_arch_1__building_blocks_1__residual_mapping_4.2, %self.main_module.over_arch._task_arch._dedicated_arch._dedicated_arch.1._building_blocks.1._residual_mapping.1._packed_params._packed_params) # /mnt/xarfuse/uid-172471/481b8707-seed-c381807f-2aa1-499d-b991-439c4a485aae-ns-4026532494/torch/nn/intrinsic/quantized/dynamic/modules/linear_relu.py:35:16
[DUMP tensorexpr_fuser.cpp:538]   %2685 : int = prim::dtype(%over_arch__task_arch__dedicated_arch__dedicated_arch_1__building_blocks_1__residual_mapping_4.2)
[DUMP tensorexpr_fuser.cpp:538]   %over_arch__task_arch__dedicated_arch__dedicated_arch_1__building_blocks_1__residual_mapping_2.1 : Float(20, 48, strides=[48, 1], requires_grad=1, device=cpu) = aten::to(%Y2.78, %2685, %275, %275) # /mnt/xarfuse/uid-172471/481b8707-seed-c381807f-2aa1-499d-b991-439c4a485aae-ns-4026532494/torch/nn/intrinsic/quantized/dynamic/modules/linear_relu.py:39:15
[DUMP tensorexpr_fuser.cpp:538]   %Y4.62 : Float(20, 128, strides=[128, 1], requires_grad=1, device=cpu) = quantized::linear_dynamic_fp16(%over_arch__task_arch__dedicated_arch__dedicated_arch_1__building_blocks_1__residual_mapping_2.1, %self.main_module.over_arch._task_arch._dedicated_arch._dedicated_arch.1._building_blocks.1._residual_mapping.3._packed_params._packed_params) # /mnt/xarfuse/uid-172471/481b8707-seed-c381807f-2aa1-499d-b991-439c4a485aae-ns-4026532494/torch/nn/quantized/dynamic/modules/linear.py:51:16
[DUMP tensorexpr_fuser.cpp:538]   %2688 : int = prim::dtype(%over_arch__task_arch__dedicated_arch__dedicated_arch_1__building_blocks_1__residual_mapping_2.1)
[DUMP tensorexpr_fuser.cpp:538]   %over_arch__task_arch__dedicated_arch__dedicated_arch_1__building_blocks_1__residual_mapping_5.1 : Float(20, 128, strides=[128, 1], requires_grad=1, device=cpu) = aten::to(%Y4.62, %2688, %275, %275) # /mnt/xarfuse/uid-172471/481b8707-seed-c381807f-2aa1-499d-b991-439c4a485aae-ns-4026532494/torch/nn/quantized/dynamic/modules/linear.py:55:15
[DUMP tensorexpr_fuser.cpp:538]   %Y2.88 : Float(20, 48, strides=[48, 1], requires_grad=1, device=cpu) = quantized::linear_relu_dynamic_fp16(%over_arch__task_arch__dedicated_arch__dedicated_arch_1__building_blocks_1__residual_mapping_8.2, %self.main_module.over_arch._task_arch._dedicated_arch._dedicated_arch.1._building_blocks.1._residual_mapping.1._packed_params._packed_params) # /mnt/xarfuse/uid-172471/481b8707-seed-c381807f-2aa1-499d-b991-439c4a485aae-ns-4026532494/torch/nn/intrinsic/quantized/dynamic/modules/linear_relu.py:35:16
[DUMP tensorexpr_fuser.cpp:538]   %2705 : int = prim::dtype(%over_arch__task_arch__dedicated_arch__dedicated_arch_1__building_blocks_1__residual_mapping_8.2)
[DUMP tensorexpr_fuser.cpp:538]   %over_arch__task_arch__dedicated_arch__dedicated_arch_1__building_blocks_1__residual_mapping_6.1 : Float(20, 48, strides=[48, 1], requires_grad=1, device=cpu) = aten::to(%Y2.88, %2705, %275, %275) # /mnt/xarfuse/uid-172471/481b8707-seed-c381807f-2aa1-499d-b991-439c4a485aae-ns-4026532494/torch/nn/intrinsic/quantized/dynamic/modules/linear_relu.py:39:15
[DUMP tensorexpr_fuser.cpp:538]   %Y4.68 : Float(20, 128, strides=[128, 1], requires_grad=1, device=cpu) = quantized::linear_dynamic_fp16(%over_arch__task_arch__dedicated_arch__dedicated_arch_1__building_blocks_1__residual_mapping_6.1, %self.main_module.over_arch._task_arch._dedicated_arch._dedicated_arch.1._building_blocks.1._residual_mapping.3._packed_params._packed_params) # /mnt/xarfuse/uid-172471/481b8707-seed-c381807f-2aa1-499d-b991-439c4a485aae-ns-4026532494/torch/nn/quantized/dynamic/modules/linear.py:51:16
[DUMP tensorexpr_fuser.cpp:538]   %2708 : int = prim::dtype(%over_arch__task_arch__dedicated_arch__dedicated_arch_1__building_blocks_1__residual_mapping_6.1)
[DUMP tensorexpr_fuser.cpp:538]   %over_arch__task_arch__dedicated_arch__dedicated_arch_1__building_blocks_1__residual_mapping_7.1 : Float(20, 128, strides=[128, 1], requires_grad=1, device=cpu) = aten::to(%Y4.68, %2708, %275, %275) # /mnt/xarfuse/uid-172471/481b8707-seed-c381807f-2aa1-499d-b991-439c4a485aae-ns-4026532494/torch/nn/quantized/dynamic/modules/linear.py:55:15
[DUMP tensorexpr_fuser.cpp:538]   %cat_8.2 : Float(20, 384, strides=[384, 1], requires_grad=1, device=cpu), %cat_9.2 : Float(20, 384, strides=[384, 1], requires_grad=1, device=cpu), %cat_10.2 : Float(20, 384, strides=[384, 1], requires_grad=1, device=cpu) = prim::TensorExprGroup_12(%scale_gradient.1, %over_arch__task_arch__dedicated_arch__dedicated_arch_1__building_blocks_1__residual_mapping_3.1, %add_3.2, %scale_gradient_1.1, %over_arch__task_arch__dedicated_arch__dedicated_arch_1__building_blocks_1__residual_mapping_5.1, %add_6.2, %scale_gradient_2.1, %over_arch__task_arch__dedicated_arch__dedicated_arch_1__building_blocks_1__residual_mapping_7.1, %add_9.2)
[DUMP tensorexpr_fuser.cpp:538]   %Y2.92 : Float(20, 128, strides=[128, 1], requires_grad=1, device=cpu) = quantized::linear_relu_dynamic_fp16(%cat_8.2, %self.main_module.over_arch._task_arch._mlp_modules.0.0._packed_params._packed_params) # /mnt/xarfuse/uid-172471/481b8707-seed-c381807f-2aa1-499d-b991-439c4a485aae-ns-4026532494/torch/nn/intrinsic/quantized/dynamic/modules/linear_relu.py:35:16
[DUMP tensorexpr_fuser.cpp:538]   %2719 : int = prim::dtype(%cat_8.2)
[DUMP tensorexpr_fuser.cpp:538]   %over_arch__task_arch__mlp_modules_0_0.1 : Float(20, 128, strides=[128, 1], requires_grad=1, device=cpu) = aten::to(%Y2.92, %2719, %275, %275) # /mnt/xarfuse/uid-172471/481b8707-seed-c381807f-2aa1-499d-b991-439c4a485aae-ns-4026532494/torch/nn/intrinsic/quantized/dynamic/modules/linear_relu.py:39:15
[DUMP tensorexpr_fuser.cpp:538]   %Y2.94 : Float(20, 128, strides=[128, 1], requires_grad=1, device=cpu) = quantized::linear_relu_dynamic_fp16(%cat_9.2, %self.main_module.over_arch._task_arch._mlp_modules.1.0._packed_params._packed_params) # /mnt/xarfuse/uid-172471/481b8707-seed-c381807f-2aa1-499d-b991-439c4a485aae-ns-4026532494/torch/nn/intrinsic/quantized/dynamic/modules/linear_relu.py:35:16
[DUMP tensorexpr_fuser.cpp:538]   %2722 : int = prim::dtype(%cat_9.2)
[DUMP tensorexpr_fuser.cpp:538]   %over_arch__task_arch__mlp_modules_1_0.1 : Float(20, 128, strides=[128, 1], requires_grad=1, device=cpu) = aten::to(%Y2.94, %2722, %275, %275) # /mnt/xarfuse/uid-172471/481b8707-seed-c381807f-2aa1-499d-b991-439c4a485aae-ns-4026532494/torch/nn/intrinsic/quantized/dynamic/modules/linear_relu.py:39:15
[DUMP tensorexpr_fuser.cpp:538]   %Y2.96 : Float(20, 128, strides=[128, 1], requires_grad=1, device=cpu) = quantized::linear_relu_dynamic_fp16(%cat_10.2, %self.main_module.over_arch._task_arch._mlp_modules.2.0._packed_params._packed_params) # /mnt/xarfuse/uid-172471/481b8707-seed-c381807f-2aa1-499d-b991-439c4a485aae-ns-4026532494/torch/nn/intrinsic/quantized/dynamic/modules/linear_relu.py:35:16
[DUMP tensorexpr_fuser.cpp:538]   %2725 : int = prim::dtype(%cat_10.2)
[DUMP tensorexpr_fuser.cpp:538]   %over_arch__task_arch__mlp_modules_2_0.1 : Float(20, 128, strides=[128, 1], requires_grad=1, device=cpu) = aten::to(%Y2.96, %2725, %275, %275) # /mnt/xarfuse/uid-172471/481b8707-seed-c381807f-2aa1-499d-b991-439c4a485aae-ns-4026532494/torch/nn/intrinsic/quantized/dynamic/modules/linear_relu.py:39:15
[DUMP tensorexpr_fuser.cpp:538]   %Y4.70 : Float(20, 1, strides=[1, 1], requires_grad=1, device=cpu) = quantized::linear_dynamic_fp16(%over_arch__task_arch__mlp_modules_0_0.1, %self.main_module.over_arch._task_arch._last_layer.0._packed_params._packed_params) # /mnt/xarfuse/uid-172471/481b8707-seed-c381807f-2aa1-499d-b991-439c4a485aae-ns-4026532494/torch/nn/quantized/dynamic/modules/linear.py:51:16
[DUMP tensorexpr_fuser.cpp:538]   %2728 : int = prim::dtype(%over_arch__task_arch__mlp_modules_0_0.1)
[DUMP tensorexpr_fuser.cpp:538]   %over_arch__task_arch__last_layer_0.1 : Float(20, 1, strides=[1, 1], requires_grad=1, device=cpu) = aten::to(%Y4.70, %2728, %275, %275) # /mnt/xarfuse/uid-172471/481b8707-seed-c381807f-2aa1-499d-b991-439c4a485aae-ns-4026532494/torch/nn/quantized/dynamic/modules/linear.py:55:15
[DUMP tensorexpr_fuser.cpp:538]   %Y4.72 : Float(20, 1, strides=[1, 1], requires_grad=1, device=cpu) = quantized::linear_dynamic_fp16(%over_arch__task_arch__mlp_modules_1_0.1, %self.main_module.over_arch._task_arch._last_layer.1._packed_params._packed_params) # /mnt/xarfuse/uid-172471/481b8707-seed-c381807f-2aa1-499d-b991-439c4a485aae-ns-4026532494/torch/nn/quantized/dynamic/modules/linear.py:51:16
[DUMP tensorexpr_fuser.cpp:538]   %2731 : int = prim::dtype(%over_arch__task_arch__mlp_modules_1_0.1)
[DUMP tensorexpr_fuser.cpp:538]   %over_arch__task_arch__last_layer_1.1 : Float(20, 1, strides=[1, 1], requires_grad=1, device=cpu) = aten::to(%Y4.72, %2731, %275, %275) # /mnt/xarfuse/uid-172471/481b8707-seed-c381807f-2aa1-499d-b991-439c4a485aae-ns-4026532494/torch/nn/quantized/dynamic/modules/linear.py:55:15
[DUMP tensorexpr_fuser.cpp:538]   %Y4.1 : Float(20, 1, strides=[1, 1], requires_grad=1, device=cpu) = quantized::linear_dynamic_fp16(%over_arch__task_arch__mlp_modules_2_0.1, %self.main_module.over_arch._task_arch._last_layer.2._packed_params._packed_params) # /mnt/xarfuse/uid-172471/481b8707-seed-c381807f-2aa1-499d-b991-439c4a485aae-ns-4026532494/torch/nn/quantized/dynamic/modules/linear.py:51:16
[DUMP tensorexpr_fuser.cpp:538]   %2734 : int = prim::dtype(%over_arch__task_arch__mlp_modules_2_0.1)
[DUMP tensorexpr_fuser.cpp:538]   %over_arch__task_arch__last_layer_2.1 : Float(20, 1, strides=[1, 1], requires_grad=1, device=cpu) = aten::to(%Y4.1, %2734, %275, %275) # /mnt/xarfuse/uid-172471/481b8707-seed-c381807f-2aa1-499d-b991-439c4a485aae-ns-4026532494/torch/nn/quantized/dynamic/modules/linear.py:55:15
[DUMP tensorexpr_fuser.cpp:538]   %sigmoid.1 : Float(20, 1, strides=[1, 1], requires_grad=1, device=cpu) = aten::sigmoid(%over_arch__task_arch__last_layer_0.1) # <eval_with_key>.47:511:14
[DUMP tensorexpr_fuser.cpp:538]   %sigmoid_1.1 : Float(20, 1, strides=[1, 1], requires_grad=1, device=cpu) = aten::sigmoid(%over_arch__task_arch__last_layer_1.1) # <eval_with_key>.47:512:16
[DUMP tensorexpr_fuser.cpp:538]   %2738 : Tensor[] = prim::ListConstruct(%sigmoid.1, %sigmoid_1.1, %over_arch__task_arch__last_layer_2.1)
[DUMP tensorexpr_fuser.cpp:538]   %stack_5.1 : Float(3, 20, 1, strides=[20, 1, 1], requires_grad=1, device=cpu) = aten::stack(%2738, %176) # <eval_with_key>.47:513:14
[DUMP tensorexpr_fuser.cpp:538]   %squeeze_1.1 : Float(3, 20, strides=[20, 1], requires_grad=1, device=cpu) = aten::squeeze(%stack_5.1) # <eval_with_key>.47:514:16
[DUMP tensorexpr_fuser.cpp:538]   %new_zeros.1 : Float(1, strides=[1], requires_grad=0, device=cpu) = aten::new_zeros(%squeeze_1.1, %175, %self.max_ind_range, %self.max_ind_range, %self.max_ind_range, %self.max_ind_range) # <eval_with_key>.47:515:16
[DUMP tensorexpr_fuser.cpp:538]   %add_12.1 : Float(1, strides=[1], requires_grad=0, device=cpu) = aten::add(%new_zeros.1, %213, %213) # <eval_with_key>.47:516:13
[DUMP tensorexpr_fuser.cpp:538]   %getitem_73.1 : Float(20, strides=[1], requires_grad=1, device=cpu) = aten::select(%squeeze_1.1, %176, %176) # <eval_with_key>.47:517:17
[DUMP tensorexpr_fuser.cpp:538]   %getitem_74.1 : Float(20, strides=[1], requires_grad=1, device=cpu) = aten::select(%squeeze_1.1, %176, %213) # <eval_with_key>.47:518:17
[DUMP tensorexpr_fuser.cpp:538]   %getitem_75.1 : Float(20, strides=[1], requires_grad=1, device=cpu) = aten::select(%squeeze_1.1, %176, %278) # <eval_with_key>.47:519:17
[DUMP tensorexpr_fuser.cpp:538]   %2746 : (Tensor, Tensor) = prim::TupleConstruct(%getitem_73.1, %add_12.1)
[DUMP tensorexpr_fuser.cpp:538]   %2747 : (Tensor, Tensor) = prim::TupleConstruct(%getitem_74.1, %add_12.1)
[DUMP tensorexpr_fuser.cpp:538]   %2748 : (Tensor, Tensor) = prim::TupleConstruct(%getitem_75.1, %add_12.1)
[DUMP tensorexpr_fuser.cpp:538]   %2749 : Dict(str, (Tensor, Tensor)) = prim::DictConstruct(%15, %2746, %14, %2747, %13, %2748)
[DUMP tensorexpr_fuser.cpp:538]   return (%2749)
[DUMP tensorexpr_fuser.cpp:538] with prim::TensorExprGroup_0 = graph(%10 : Float(20, 606, strides=[1976, 1], requires_grad=0, device=cpu),
[DUMP tensorexpr_fuser.cpp:538]       %11 : Float(20, 85, strides=[85, 1], requires_grad=0, device=cpu),
[DUMP tensorexpr_fuser.cpp:538]       %12 : Float(20, 1284, strides=[1284, 1], requires_grad=0, device=cpu),
[DUMP tensorexpr_fuser.cpp:538]       %sparse_arch_embedding_modules_table_0.1 : Float(20, 512, strides=[512, 1], requires_grad=0, device=cpu),
[DUMP tensorexpr_fuser.cpp:538]       %sparse_arch_embedding_modules_table_1.1 : Float(20, 256, strides=[256, 1], requires_grad=0, device=cpu),
[DUMP tensorexpr_fuser.cpp:538]       %sparse_arch_embedding_modules_table_2.1 : Float(20, 256, strides=[256, 1], requires_grad=0, device=cpu),
[DUMP tensorexpr_fuser.cpp:538]       %sparse_arch_embedding_modules_table_3.1 : Float(20, 128, strides=[128, 1], requires_grad=0, device=cpu),
[DUMP tensorexpr_fuser.cpp:538]       %sparse_arch_embedding_modules_table_4.1 : Float(20, 256, strides=[256, 1], requires_grad=0, device=cpu),
[DUMP tensorexpr_fuser.cpp:538]       %sparse_arch_embedding_modules_table_5.1 : Float(20, 64, strides=[64, 1], requires_grad=0, device=cpu),
[DUMP tensorexpr_fuser.cpp:538]       %sparse_arch_embedding_modules_table_6.1 : Float(20, 128, strides=[128, 1], requires_grad=0, device=cpu),
[DUMP tensorexpr_fuser.cpp:538]       %sparse_arch_embedding_modules_table_7.1 : Float(20, 64, strides=[64, 1], requires_grad=0, device=cpu),
[DUMP tensorexpr_fuser.cpp:538]       %sparse_arch_embedding_modules_table_8.1 : Float(20, 64, strides=[64, 1], requires_grad=0, device=cpu),
[DUMP tensorexpr_fuser.cpp:538]       %sparse_arch_embedding_modules_table_9.1 : Float(20, 64, strides=[64, 1], requires_grad=0, device=cpu),
[DUMP tensorexpr_fuser.cpp:538]       %sparse_arch_embedding_modules_table_10.1 : Float(20, 64, strides=[64, 1], requires_grad=0, device=cpu),
[DUMP tensorexpr_fuser.cpp:538]       %sparse_arch_embedding_modules_table_11.1 : Float(20, 64, strides=[64, 1], requires_grad=0, device=cpu),
[DUMP tensorexpr_fuser.cpp:538]       %sparse_arch_embedding_modules_table_12.1 : Float(20, 128, strides=[128, 1], requires_grad=0, device=cpu),
[DUMP tensorexpr_fuser.cpp:538]       %sparse_arch_embedding_modules_table_13.1 : Float(20, 64, strides=[64, 1], requires_grad=0, device=cpu),
[DUMP tensorexpr_fuser.cpp:538]       %sparse_arch_embedding_modules_table_14.1 : Float(20, 64, strides=[64, 1], requires_grad=0, device=cpu),
[DUMP tensorexpr_fuser.cpp:538]       %sparse_arch_embedding_modules_table_15.1 : Float(20, 128, strides=[128, 1], requires_grad=0, device=cpu),
[DUMP tensorexpr_fuser.cpp:538]       %sparse_arch_embedding_modules_table_16.1 : Float(20, 64, strides=[64, 1], requires_grad=0, device=cpu),
[DUMP tensorexpr_fuser.cpp:538]       %sparse_arch_embedding_modules_table_17.1 : Float(20, 64, strides=[64, 1], requires_grad=0, device=cpu),
[DUMP tensorexpr_fuser.cpp:538]       %sparse_arch_embedding_modules_table_18.1 : Float(20, 64, strides=[64, 1], requires_grad=0, device=cpu),
[DUMP tensorexpr_fuser.cpp:538]       %sparse_arch_embedding_modules_table_19.1 : Float(20, 64, strides=[64, 1], requires_grad=0, device=cpu),
[DUMP tensorexpr_fuser.cpp:538]       %sparse_arch_embedding_modules_table_20.1 : Float(20, 64, strides=[64, 1], requires_grad=0, device=cpu),
[DUMP tensorexpr_fuser.cpp:538]       %sparse_arch_embedding_modules_table_21.1 : Float(20, 64, strides=[64, 1], requires_grad=0, device=cpu),
[DUMP tensorexpr_fuser.cpp:538]       %sparse_arch_embedding_modules_table_22.1 : Float(20, 64, strides=[64, 1], requires_grad=0, device=cpu),
[DUMP tensorexpr_fuser.cpp:538]       %sparse_arch_embedding_modules_table_23.1 : Float(20, 128, strides=[128, 1], requires_grad=0, device=cpu),
[DUMP tensorexpr_fuser.cpp:538]       %sparse_arch_embedding_modules_table_24.1 : Float(20, 128, strides=[128, 1], requires_grad=0, device=cpu),
[DUMP tensorexpr_fuser.cpp:538]       %sparse_arch_embedding_modules_table_25.1 : Float(20, 64, strides=[64, 1], requires_grad=0, device=cpu),
[DUMP tensorexpr_fuser.cpp:538]       %sparse_arch_embedding_modules_table_26.1 : Float(20, 64, strides=[64, 1], requires_grad=0, device=cpu),
[DUMP tensorexpr_fuser.cpp:538]       %sparse_arch_embedding_modules_table_27.1 : Float(20, 64, strides=[64, 1], requires_grad=0, device=cpu),
[DUMP tensorexpr_fuser.cpp:538]       %sparse_arch_embedding_modules_table_28.1 : Float(20, 64, strides=[64, 1], requires_grad=0, device=cpu),
[DUMP tensorexpr_fuser.cpp:538]       %sparse_arch_embedding_modules_table_29.1 : Float(20, 64, strides=[64, 1], requires_grad=0, device=cpu),
[DUMP tensorexpr_fuser.cpp:538]       %sparse_arch_embedding_modules_table_30.1 : Float(20, 384, strides=[384, 1], requires_grad=0, device=cpu),
[DUMP tensorexpr_fuser.cpp:538]       %sparse_arch_embedding_modules_table_31.1 : Float(20, 64, strides=[64, 1], requires_grad=0, device=cpu),
[DUMP tensorexpr_fuser.cpp:538]       %sparse_arch_embedding_modules_table_32.1 : Float(20, 64, strides=[64, 1], requires_grad=0, device=cpu),
[DUMP tensorexpr_fuser.cpp:538]       %sparse_arch_embedding_modules_table_33.1 : Float(20, 64, strides=[64, 1], requires_grad=0, device=cpu),
[DUMP tensorexpr_fuser.cpp:538]       %sparse_arch_embedding_modules_table_34.1 : Float(20, 64, strides=[64, 1], requires_grad=0, device=cpu),
[DUMP tensorexpr_fuser.cpp:538]       %sparse_arch_embedding_modules_table_35.1 : Float(20, 64, strides=[64, 1], requires_grad=0, device=cpu),
[DUMP tensorexpr_fuser.cpp:538]       %sparse_arch_embedding_modules_table_36.1 : Float(20, 64, strides=[64, 1], requires_grad=0, device=cpu),
[DUMP tensorexpr_fuser.cpp:538]       %sparse_arch_embedding_modules_table_37.1 : Float(20, 64, strides=[64, 1], requires_grad=0, device=cpu),
[DUMP tensorexpr_fuser.cpp:538]       %sparse_arch_embedding_modules_table_38.1 : Float(20, 64, strides=[64, 1], requires_grad=0, device=cpu),
[DUMP tensorexpr_fuser.cpp:538]       %sparse_arch_embedding_modules_table_39.1 : Float(20, 64, strides=[64, 1], requires_grad=0, device=cpu),
[DUMP tensorexpr_fuser.cpp:538]       %sparse_arch_embedding_modules_table_40.1 : Float(20, 64, strides=[64, 1], requires_grad=0, device=cpu),
[DUMP tensorexpr_fuser.cpp:538]       %sparse_arch_embedding_modules_table_41.1 : Float(20, 64, strides=[64, 1], requires_grad=0, device=cpu),
[DUMP tensorexpr_fuser.cpp:538]       %sparse_arch_embedding_modules_table_42.1 : Float(20, 64, strides=[64, 1], requires_grad=0, device=cpu),
[DUMP tensorexpr_fuser.cpp:538]       %sparse_arch_embedding_modules_table_43.1 : Float(20, 64, strides=[64, 1], requires_grad=0, device=cpu),
[DUMP tensorexpr_fuser.cpp:538]       %sparse_arch_embedding_modules_table_44.1 : Float(20, 64, strides=[64, 1], requires_grad=0, device=cpu),
[DUMP tensorexpr_fuser.cpp:538]       %sparse_arch_embedding_modules_table_45.1 : Float(20, 64, strides=[64, 1], requires_grad=0, device=cpu),
[DUMP tensorexpr_fuser.cpp:538]       %sparse_arch_embedding_modules_table_46.1 : Float(20, 64, strides=[64, 1], requires_grad=0, device=cpu),
[DUMP tensorexpr_fuser.cpp:538]       %sparse_arch_embedding_modules_table_47.1 : Float(20, 64, strides=[64, 1], requires_grad=0, device=cpu),
[DUMP tensorexpr_fuser.cpp:538]       %sparse_arch_embedding_modules_table_48.1 : Float(20, 64, strides=[64, 1], requires_grad=0, device=cpu),
[DUMP tensorexpr_fuser.cpp:538]       %sparse_arch_embedding_modules_table_49.1 : Float(20, 64, strides=[64, 1], requires_grad=0, device=cpu),
[DUMP tensorexpr_fuser.cpp:538]       %sparse_arch_embedding_modules_table_50.1 : Float(20, 64, strides=[64, 1], requires_grad=0, device=cpu),
[DUMP tensorexpr_fuser.cpp:538]       %sparse_arch_embedding_modules_table_51.1 : Float(20, 64, strides=[64, 1], requires_grad=0, device=cpu),
[DUMP tensorexpr_fuser.cpp:538]       %sparse_arch_embedding_modules_table_52.1 : Float(20, 64, strides=[64, 1], requires_grad=0, device=cpu),
[DUMP tensorexpr_fuser.cpp:538]       %sparse_arch_embedding_modules_table_53.1 : Float(20, 64, strides=[64, 1], requires_grad=0, device=cpu),
[DUMP tensorexpr_fuser.cpp:538]       %sparse_arch_embedding_modules_table_54.1 : Float(20, 64, strides=[64, 1], requires_grad=0, device=cpu),
[DUMP tensorexpr_fuser.cpp:538]       %sparse_arch_embedding_modules_table_55.1 : Float(20, 64, strides=[64, 1], requires_grad=0, device=cpu),
[DUMP tensorexpr_fuser.cpp:538]       %sparse_arch_embedding_modules_table_56.1 : Float(20, 64, strides=[64, 1], requires_grad=0, device=cpu),
[DUMP tensorexpr_fuser.cpp:538]       %sparse_arch_embedding_modules_table_57.1 : Float(20, 64, strides=[64, 1], requires_grad=0, device=cpu),
[DUMP tensorexpr_fuser.cpp:538]       %sparse_arch_embedding_modules_table_58.1 : Float(20, 64, strides=[64, 1], requires_grad=0, device=cpu),
[DUMP tensorexpr_fuser.cpp:538]       %sparse_arch_embedding_modules_table_59.1 : Float(20, 64, strides=[64, 1], requires_grad=0, device=cpu),
[DUMP tensorexpr_fuser.cpp:538]       %sparse_arch_embedding_modules_table_60.1 : Float(20, 64, strides=[64, 1], requires_grad=0, device=cpu),
[DUMP tensorexpr_fuser.cpp:538]       %sparse_arch_embedding_modules_table_61.1 : Float(20, 64, strides=[64, 1], requires_grad=0, device=cpu),
[DUMP tensorexpr_fuser.cpp:538]       %sparse_arch_embedding_modules_table_62.1 : Float(20, 64, strides=[64, 1], requires_grad=0, device=cpu),
[DUMP tensorexpr_fuser.cpp:538]       %sparse_arch_embedding_modules_table_63.1 : Float(20, 64, strides=[64, 1], requires_grad=0, device=cpu),
[DUMP tensorexpr_fuser.cpp:538]       %sparse_arch_embedding_modules_table_64.1 : Float(20, 64, strides=[64, 1], requires_grad=0, device=cpu),
[DUMP tensorexpr_fuser.cpp:538]       %sparse_arch_embedding_modules_table_65.1 : Float(20, 64, strides=[64, 1], requires_grad=0, device=cpu),
[DUMP tensorexpr_fuser.cpp:538]       %sparse_arch_embedding_modules_table_66.1 : Float(20, 64, strides=[64, 1], requires_grad=0, device=cpu),
[DUMP tensorexpr_fuser.cpp:538]       %sparse_arch_embedding_modules_table_67.1 : Float(20, 64, strides=[64, 1], requires_grad=0, device=cpu),
[DUMP tensorexpr_fuser.cpp:538]       %sparse_arch_embedding_modules_table_68.1 : Float(20, 64, strides=[64, 1], requires_grad=0, device=cpu),
[DUMP tensorexpr_fuser.cpp:538]       %sparse_arch_embedding_modules_table_69.1 : Float(20, 64, strides=[64, 1], requires_grad=0, device=cpu),
[DUMP tensorexpr_fuser.cpp:538]       %sparse_arch_embedding_modules_table_70.1 : Float(20, 64, strides=[64, 1], requires_grad=0, device=cpu),
[DUMP tensorexpr_fuser.cpp:538]       %sparse_arch_embedding_modules_table_71.1 : Float(20, 64, strides=[64, 1], requires_grad=0, device=cpu),
[DUMP tensorexpr_fuser.cpp:538]       %sparse_arch_embedding_modules_table_72.1 : Float(20, 64, strides=[64, 1], requires_grad=0, device=cpu)):
[DUMP tensorexpr_fuser.cpp:538]   %101 : Tensor[] = prim::ListConstruct(%sparse_arch_embedding_modules_table_66.1, %sparse_arch_embedding_modules_table_67.1, %sparse_arch_embedding_modules_table_68.1, %sparse_arch_embedding_modules_table_69.1, %sparse_arch_embedding_modules_table_70.1, %sparse_arch_embedding_modules_table_71.1, %sparse_arch_embedding_modules_table_72.1)
[DUMP tensorexpr_fuser.cpp:538]   %93 : int = prim::Constant[value=1]()
[DUMP tensorexpr_fuser.cpp:538]   %91 : int = prim::Constant[value=1]()
[DUMP tensorexpr_fuser.cpp:538]   %cat_2.2 : Float(20, 448, strides=[448, 1], requires_grad=0, device=cpu) = aten::cat(%101, %91) # <eval_with_key>.47:374:12
[DUMP tensorexpr_fuser.cpp:538]   %89 : Tensor[] = prim::ListConstruct(%sparse_arch_embedding_modules_table_61.1, %sparse_arch_embedding_modules_table_62.1, %sparse_arch_embedding_modules_table_63.1, %sparse_arch_embedding_modules_table_64.1, %sparse_arch_embedding_modules_table_65.1)
[DUMP tensorexpr_fuser.cpp:538]   %83 : int = prim::Constant[value=1]()
[DUMP tensorexpr_fuser.cpp:538]   %81 : int = prim::Constant[value=1]()
[DUMP tensorexpr_fuser.cpp:538]   %cat_1.2 : Float(20, 320, strides=[320, 1], requires_grad=0, device=cpu) = aten::cat(%89, %81) # <eval_with_key>.47:373:12
[DUMP tensorexpr_fuser.cpp:538]   %79 : Tensor[] = prim::ListConstruct(%sparse_arch_embedding_modules_table_0.1, %sparse_arch_embedding_modules_table_1.1, %sparse_arch_embedding_modules_table_2.1, %sparse_arch_embedding_modules_table_3.1, %sparse_arch_embedding_modules_table_4.1, %sparse_arch_embedding_modules_table_5.1, %sparse_arch_embedding_modules_table_6.1, %sparse_arch_embedding_modules_table_7.1, %sparse_arch_embedding_modules_table_8.1, %sparse_arch_embedding_modules_table_9.1, %sparse_arch_embedding_modules_table_10.1, %sparse_arch_embedding_modules_table_11.1, %sparse_arch_embedding_modules_table_12.1, %sparse_arch_embedding_modules_table_13.1, %sparse_arch_embedding_modules_table_14.1, %sparse_arch_embedding_modules_table_15.1, %sparse_arch_embedding_modules_table_16.1, %sparse_arch_embedding_modules_table_17.1, %sparse_arch_embedding_modules_table_18.1, %sparse_arch_embedding_modules_table_19.1, %sparse_arch_embedding_modules_table_20.1, %sparse_arch_embedding_modules_table_21.1, %sparse_arch_embedding_modules_table_22.1, %sparse_arch_embedding_modules_table_23.1, %sparse_arch_embedding_modules_table_24.1, %sparse_arch_embedding_modules_table_25.1, %sparse_arch_embedding_modules_table_26.1, %sparse_arch_embedding_modules_table_27.1, %sparse_arch_embedding_modules_table_28.1, %sparse_arch_embedding_modules_table_29.1, %sparse_arch_embedding_modules_table_30.1, %sparse_arch_embedding_modules_table_31.1, %sparse_arch_embedding_modules_table_32.1, %sparse_arch_embedding_modules_table_33.1, %sparse_arch_embedding_modules_table_34.1, %sparse_arch_embedding_modules_table_35.1, %sparse_arch_embedding_modules_table_36.1, %sparse_arch_embedding_modules_table_37.1, %sparse_arch_embedding_modules_table_38.1, %sparse_arch_embedding_modules_table_39.1, %sparse_arch_embedding_modules_table_40.1, %sparse_arch_embedding_modules_table_41.1, %sparse_arch_embedding_modules_table_42.1, %sparse_arch_embedding_modules_table_43.1, %sparse_arch_embedding_modules_table_44.1, %sparse_arch_embedding_modules_table_45.1, %sparse_arch_embedding_modules_table_46.1, %sparse_arch_embedding_modules_table_47.1, %sparse_arch_embedding_modules_table_48.1, %sparse_arch_embedding_modules_table_49.1, %sparse_arch_embedding_modules_table_50.1, %sparse_arch_embedding_modules_table_51.1, %sparse_arch_embedding_modules_table_52.1, %sparse_arch_embedding_modules_table_53.1, %sparse_arch_embedding_modules_table_54.1, %sparse_arch_embedding_modules_table_55.1, %sparse_arch_embedding_modules_table_56.1, %sparse_arch_embedding_modules_table_57.1, %sparse_arch_embedding_modules_table_58.1, %sparse_arch_embedding_modules_table_59.1, %sparse_arch_embedding_modules_table_60.1)
[DUMP tensorexpr_fuser.cpp:538]   %17 : int = prim::Constant[value=1]()
[DUMP tensorexpr_fuser.cpp:538]   %15 : int = prim::Constant[value=1]()
[DUMP tensorexpr_fuser.cpp:538]   %cat.2 : Float(20, 5632, strides=[5632, 1], requires_grad=0, device=cpu) = aten::cat(%79, %15) # <eval_with_key>.47:372:10
[DUMP tensorexpr_fuser.cpp:538]   %13 : Tensor[] = prim::ListConstruct(%10, %11, %12)
[DUMP tensorexpr_fuser.cpp:538]   %8 : int = prim::Constant[value=1]()
[DUMP tensorexpr_fuser.cpp:538]   %9 : Float(20, 1975, strides=[1975, 1], requires_grad=0, device=cpu) = aten::cat(%13, %8) # /data/users/xichen/fbsource/fbcode/dper3/dper3/modules/low_level_modules/concat.py:157:0
[DUMP tensorexpr_fuser.cpp:538]   %self.preproc.preproc_impl.impl.transforms_list.1.shift_blob : Float(1975, strides=[1], requires_grad=0, device=cpu) = prim::Constant[value=<Tensor>]()
[DUMP tensorexpr_fuser.cpp:538]   %5 : int = prim::Constant[value=1]()
[DUMP tensorexpr_fuser.cpp:538]   %6 : Float(20, 1975, strides=[1975, 1], requires_grad=0, device=cpu) = aten::add(%9, %self.preproc.preproc_impl.impl.transforms_list.1.shift_blob, %5) # /data/users/xichen/fbsource/fbcode/dper3/dper3/modules/low_level_modules/single_operators.py:1171:0
[DUMP tensorexpr_fuser.cpp:538]   %self.preproc.preproc_impl.impl.transforms_list.1.scale_blob : Float(1975, strides=[1], requires_grad=0, device=cpu) = prim::Constant[value=<Tensor>]()
[DUMP tensorexpr_fuser.cpp:538]   %2 : Float(20, 1975, strides=[1975, 1], requires_grad=0, device=cpu) = aten::mul(%6, %self.preproc.preproc_impl.impl.transforms_list.1.scale_blob) # /data/users/xichen/fbsource/fbcode/dper3/dper3/modules/low_level_modules/single_operators.py:1177:0
[DUMP tensorexpr_fuser.cpp:538]   return (%2, %cat.2, %cat_1.2, %cat_2.2)
[DUMP tensorexpr_fuser.cpp:538] with prim::TensorExprGroup_1 = graph(%dense_arch_gated_net_gate_net_0_mlp_net_0.1 : Float(20, 512, strides=[512, 1], requires_grad=1, device=cpu),
[DUMP tensorexpr_fuser.cpp:538]       %dense_arch_gated_net_gate_net_0_mlp_net_1_norm_0.1 : Float(20, 512, strides=[512, 1], requires_grad=1, device=cpu)):
[DUMP tensorexpr_fuser.cpp:538]   %dense_arch_gated_net_gate_net_0_mlp_net_1_norm_1.2 : Float(20, 512, strides=[512, 1], requires_grad=1, device=cpu) = aten::sigmoid(%dense_arch_gated_net_gate_net_0_mlp_net_1_norm_0.1) # /mnt/xarfuse/uid-172471/481b8707-seed-c381807f-2aa1-499d-b991-439c4a485aae-ns-4026532494/torch/nn/modules/activation.py:293:15
[DUMP tensorexpr_fuser.cpp:538]   %mul.2 : Float(20, 512, strides=[512, 1], requires_grad=1, device=cpu) = aten::mul(%dense_arch_gated_net_gate_net_0_mlp_net_0.1, %dense_arch_gated_net_gate_net_0_mlp_net_1_norm_1.2) # <eval_with_key>.47:379:10
[DUMP tensorexpr_fuser.cpp:538]   return (%mul.2)
[DUMP tensorexpr_fuser.cpp:538] with prim::TensorExprGroup_2 = graph(%1 : Float(20, 1975, strides=[1975, 1], requires_grad=0, device=cpu),
[DUMP tensorexpr_fuser.cpp:538]       %dense_arch_gated_net_gate_net_1.1 : Float(20, 1975, strides=[1975, 1], requires_grad=1, device=cpu)):
[DUMP tensorexpr_fuser.cpp:538]   %dense_arch_gated_net_gate_net_2.2 : Float(20, 1975, strides=[1975, 1], requires_grad=1, device=cpu) = aten::sigmoid(%dense_arch_gated_net_gate_net_1.1) # /mnt/xarfuse/uid-172471/481b8707-seed-c381807f-2aa1-499d-b991-439c4a485aae-ns-4026532494/torch/nn/modules/activation.py:293:15
[DUMP tensorexpr_fuser.cpp:538]   %mul_1.2 : Float(20, 1975, strides=[1975, 1], requires_grad=1, device=cpu) = aten::mul(%dense_arch_gated_net_gate_net_2.2, %1) # <eval_with_key>.47:382:12
[DUMP tensorexpr_fuser.cpp:538]   return (%mul_1.2)
[DUMP tensorexpr_fuser.cpp:538] with prim::TensorExprGroup_3 = graph(%dense_arch_mlp_mlp_net_0.1 : Float(20, 512, strides=[512, 1], requires_grad=1, device=cpu),
[DUMP tensorexpr_fuser.cpp:538]       %dense_arch_mlp_mlp_net_1_norm_0.1 : Float(20, 512, strides=[512, 1], requires_grad=1, device=cpu)):
[DUMP tensorexpr_fuser.cpp:538]   %dense_arch_mlp_mlp_net_1_norm_1.2 : Float(20, 512, strides=[512, 1], requires_grad=1, device=cpu) = aten::sigmoid(%dense_arch_mlp_mlp_net_1_norm_0.1) # /mnt/xarfuse/uid-172471/481b8707-seed-c381807f-2aa1-499d-b991-439c4a485aae-ns-4026532494/torch/nn/modules/activation.py:293:15
…
[DUMP tensorexpr_fuser.cpp:538]   %over_arch__interaction_arch__over_arch_mlp_2__building_blocks_1__residual_mapping_0.2 : Float(20, 128, strides=[128, 1], requires_grad=1, device=cpu) = aten::relu(%add.2) # /mnt/xarfuse/uid-172471/481b8707-seed-c381807f-2aa1-499d-b991-439c4a485aae-ns-4026532494/torch/nn/functional.py:1442:17
[DUMP tensorexpr_fuser.cpp:538]   return (%over_arch__interaction_arch__over_arch_mlp_2__building_blocks_1__residual_mapping_0.2, %add.2)
[DUMP tensorexpr_fuser.cpp:538] with prim::TensorExprGroup_11 = graph(%over_arch__specialized_arch_projection_net_specialized_embeddings.1 : Float(20, 128, strides=[128, 1], requires_grad=1, device=cpu),
[DUMP tensorexpr_fuser.cpp:538]       %over_arch__interaction_arch__over_arch_mlp_2__building_blocks_1__residual_mapping_3.1 : Float(20, 128, strides=[128, 1], requires_grad=1, device=cpu),
[DUMP tensorexpr_fuser.cpp:538]       %add.1 : Float(20, 128, strides=[128, 1], requires_grad=1, device=cpu),
[DUMP tensorexpr_fuser.cpp:538]       %over_arch__task_arch__dedicated_arch__dedicated_arch_1__building_blocks_0__residual_mapping_3.1 : Float(20, 128, strides=[128, 1], requires_grad=1, device=cpu),
[DUMP tensorexpr_fuser.cpp:538]       %over_arch__task_arch__dedicated_arch__dedicated_arch_0.1 : Float(20, 128, strides=[128, 1], requires_grad=1, device=cpu),
[DUMP tensorexpr_fuser.cpp:538]       %over_arch__task_arch__dedicated_arch__dedicated_arch_1__building_blocks_0__residual_mapping_5.1 : Float(20, 128, strides=[128, 1], requires_grad=1, device=cpu),
[DUMP tensorexpr_fuser.cpp:538]       %over_arch__task_arch__dedicated_arch__dedicated_arch_1.1 : Float(20, 128, strides=[128, 1], requires_grad=1, device=cpu),
[DUMP tensorexpr_fuser.cpp:538]       %over_arch__task_arch__dedicated_arch__dedicated_arch_1__building_blocks_0__residual_mapping_7.1 : Float(20, 128, strides=[128, 1], requires_grad=1, device=cpu),
[DUMP tensorexpr_fuser.cpp:538]       %over_arch__task_arch__dedicated_arch__dedicated_arch_2.1 : Float(20, 128, strides=[128, 1], requires_grad=1, device=cpu)):
[DUMP tensorexpr_fuser.cpp:538]   %32 : int = prim::Constant[value=1]()
[DUMP tensorexpr_fuser.cpp:538]   %30 : int = prim::Constant[value=1]()
[DUMP tensorexpr_fuser.cpp:538]   %add_9.2 : Float(20, 128, strides=[128, 1], requires_grad=1, device=cpu) = aten::add(%over_arch__task_arch__dedicated_arch__dedicated_arch_1__building_blocks_0__residual_mapping_7.1, %over_arch__task_arch__dedicated_arch__dedicated_arch_2.1, %30) # <eval_with_key>.47:493:12
[DUMP tensorexpr_fuser.cpp:538]   %over_arch__task_arch__dedicated_arch__dedicated_arch_1__building_blocks_1__residual_mapping_8.2 : Float(20, 128, strides=[128, 1], requires_grad=1, device=cpu) = aten::relu(%add_9.2) # /mnt/xarfuse/uid-172471/481b8707-seed-c381807f-2aa1-499d-b991-439c4a485aae-ns-4026532494/torch/nn/functional.py:1442:17
[DUMP tensorexpr_fuser.cpp:538]   %25 : int = prim::Constant[value=1]()
[DUMP tensorexpr_fuser.cpp:538]   %23 : int = prim::Constant[value=1]()
[DUMP tensorexpr_fuser.cpp:538]   %add_6.2 : Float(20, 128, strides=[128, 1], requires_grad=1, device=cpu) = aten::add(%over_arch__task_arch__dedicated_arch__dedicated_arch_1__building_blocks_0__residual_mapping_5.1, %over_arch__task_arch__dedicated_arch__dedicated_arch_1.1, %23) # <eval_with_key>.47:482:12
[DUMP tensorexpr_fuser.cpp:538]   %over_arch__task_arch__dedicated_arch__dedicated_arch_1__building_blocks_1__residual_mapping_4.2 : Float(20, 128, strides=[128, 1], requires_grad=1, device=cpu) = aten::relu(%add_6.2) # /mnt/xarfuse/uid-172471/481b8707-seed-c381807f-2aa1-499d-b991-439c4a485aae-ns-4026532494/torch/nn/functional.py:1442:17
[DUMP tensorexpr_fuser.cpp:538]   %18 : int = prim::Constant[value=1]()
[DUMP tensorexpr_fuser.cpp:538]   %16 : int = prim::Constant[value=1]()
[DUMP tensorexpr_fuser.cpp:538]   %add_3.2 : Float(20, 128, strides=[128, 1], requires_grad=1, device=cpu) = aten::add(%over_arch__task_arch__dedicated_arch__dedicated_arch_1__building_blocks_0__residual_mapping_3.1, %over_arch__task_arch__dedicated_arch__dedicated_arch_0.1, %16) # <eval_with_key>.47:471:12
[DUMP tensorexpr_fuser.cpp:538]   %over_arch__task_arch__dedicated_arch__dedicated_arch_1__building_blocks_1__residual_mapping_0.2 : Float(20, 128, strides=[128, 1], requires_grad=1, device=cpu) = aten::relu(%add_3.2) # /mnt/xarfuse/uid-172471/481b8707-seed-c381807f-2aa1-499d-b991-439c4a485aae-ns-4026532494/torch/nn/functional.py:1442:17
[DUMP tensorexpr_fuser.cpp:538]   %10 : int = prim::Constant[value=1]()
[DUMP tensorexpr_fuser.cpp:538]   %add_2.2 : Float(20, 128, strides=[128, 1], requires_grad=1, device=cpu) = aten::add(%over_arch__interaction_arch__over_arch_mlp_2__building_blocks_1__residual_mapping_3.1, %add.1, %10) # <eval_with_key>.47:461:12
[DUMP tensorexpr_fuser.cpp:538]   %result.21 : Float(20, 128, strides=[128, 1], requires_grad=1, device=cpu) = aten::relu(%add_2.2) # /mnt/xarfuse/uid-172471/481b8707-seed-c381807f-2aa1-499d-b991-439c4a485aae-ns-4026532494/torch/nn/functional.py:1442:17
[DUMP tensorexpr_fuser.cpp:538]   %5 : Tensor[] = prim::ListConstruct(%result.21, %over_arch__specialized_arch_projection_net_specialized_embeddings.1)
[DUMP tensorexpr_fuser.cpp:538]   %1 : int = prim::Constant[value=1]()
[DUMP tensorexpr_fuser.cpp:538]   %cat_7.2 : Float(20, 256, strides=[256, 1], requires_grad=1, device=cpu) = aten::cat(%5, %1) # <eval_with_key>.47:463:12
[DUMP tensorexpr_fuser.cpp:538]   return (%cat_7.2, %over_arch__task_arch__dedicated_arch__dedicated_arch_1__building_blocks_1__residual_mapping_0.2, %add_3.2, %over_arch__task_arch__dedicated_arch__dedicated_arch_1__building_blocks_1__residual_mapping_4.2, %add_6.2, %over_arch__task_arch__dedicated_arch__dedicated_arch_1__building_blocks_1__residual_mapping_8.2, %add_9.2)
[DUMP tensorexpr_fuser.cpp:538] with prim::TensorExprGroup_12 = graph(%scale_gradient.1 : Float(20, 256, strides=[256, 1], requires_grad=1, device=cpu),
[DUMP tensorexpr_fuser.cpp:538]       %over_arch__task_arch__dedicated_arch__dedicated_arch_1__building_blocks_1__residual_mapping_3.1 : Float(20, 128, strides=[128, 1], requires_grad=1, device=cpu),
[DUMP tensorexpr_fuser.cpp:538]       %add_3.1 : Float(20, 128, strides=[128, 1], requires_grad=1, device=cpu),
[DUMP tensorexpr_fuser.cpp:538]       %scale_gradient_1.1 : Float(20, 256, strides=[256, 1], requires_grad=1, device=cpu),
[DUMP tensorexpr_fuser.cpp:538]       %over_arch__task_arch__dedicated_arch__dedicated_arch_1__building_blocks_1__residual_mapping_5.1 : Float(20, 128, strides=[128, 1], requires_grad=1, device=cpu),
[DUMP tensorexpr_fuser.cpp:538]       %add_6.2 : Float(20, 128, strides=[128, 1], requires_grad=1, device=cpu),
[DUMP tensorexpr_fuser.cpp:538]       %scale_gradient_2.1 : Float(20, 256, strides=[256, 1], requires_grad=1, device=cpu),
[DUMP tensorexpr_fuser.cpp:538]       %over_arch__task_arch__dedicated_arch__dedicated_arch_1__building_blocks_1__residual_mapping_7.1 : Float(20, 128, strides=[128, 1], requires_grad=1, device=cpu),
[DUMP tensorexpr_fuser.cpp:538]       %add_9.2 : Float(20, 128, strides=[128, 1], requires_grad=1, device=cpu)):
[DUMP tensorexpr_fuser.cpp:538]   %39 : int = prim::Constant[value=1]()
[DUMP tensorexpr_fuser.cpp:538]   %37 : int = prim::Constant[value=1]()
[DUMP tensorexpr_fuser.cpp:538]   %add_11.2 : Float(20, 128, strides=[128, 1], requires_grad=1, device=cpu) = aten::add(%over_arch__task_arch__dedicated_arch__dedicated_arch_1__building_blocks_1__residual_mapping_7.1, %add_9.2, %37) # <eval_with_key>.47:498:13
[DUMP tensorexpr_fuser.cpp:538]   %result.5 : Float(20, 128, strides=[128, 1], requires_grad=1, device=cpu) = aten::relu(%add_11.2) # /mnt/xarfuse/uid-172471/481b8707-seed-c381807f-2aa1-499d-b991-439c4a485aae-ns-4026532494/torch/nn/functional.py:1442:17
[DUMP tensorexpr_fuser.cpp:538]   %32 : Tensor[] = prim::ListConstruct(%scale_gradient_2.1, %result.5)
[DUMP tensorexpr_fuser.cpp:538]   %29 : int = prim::Constant[value=1]()
[DUMP tensorexpr_fuser.cpp:538]   %27 : int = prim::Constant[value=1]()
[DUMP tensorexpr_fuser.cpp:538]   %cat_10.2 : Float(20, 384, strides=[384, 1], requires_grad=1, device=cpu) = aten::cat(%32, %27) # <eval_with_key>.47:502:13
[DUMP tensorexpr_fuser.cpp:538]   %25 : int = prim::Constant[value=1]()
[DUMP tensorexpr_fuser.cpp:538]   %23 : int = prim::Constant[value=1]()
[DUMP tensorexpr_fuser.cpp:538]   %add_8.2 : Float(20, 128, strides=[128, 1], requires_grad=1, device=cpu) = aten::add(%over_arch__task_arch__dedicated_arch__dedicated_arch_1__building_blocks_1__residual_mapping_5.1, %add_6.2, %23) # <eval_with_key>.47:487:12
[DUMP tensorexpr_fuser.cpp:538]   %result.13 : Float(20, 128, strides=[128, 1], requires_grad=1, device=cpu) = aten::relu(%add_8.2) # /mnt/xarfuse/uid-172471/481b8707-seed-c381807f-2aa1-499d-b991-439c4a485aae-ns-4026532494/torch/nn/functional.py:1442:17
[DUMP tensorexpr_fuser.cpp:538]   %18 : Tensor[] = prim::ListConstruct(%scale_gradient_1.1, %result.13)
[DUMP tensorexpr_fuser.cpp:538]   %15 : int = prim::Constant[value=1]()
[DUMP tensorexpr_fuser.cpp:538]   %13 : int = prim::Constant[value=1]()
[DUMP tensorexpr_fuser.cpp:538]   %cat_9.2 : Float(20, 384, strides=[384, 1], requires_grad=1, device=cpu) = aten::cat(%18, %13) # <eval_with_key>.47:501:12
[DUMP tensorexpr_fuser.cpp:538]   %10 : int = prim::Constant[value=1]()
[DUMP tensorexpr_fuser.cpp:538]   %add_5.2 : Float(20, 128, strides=[128, 1], requires_grad=1, device=cpu) = aten::add(%over_arch__task_arch__dedicated_arch__dedicated_arch_1__building_blocks_1__residual_mapping_3.1, %add_3.1, %10) # <eval_with_key>.47:476:12
[DUMP tensorexpr_fuser.cpp:538]   %result.17 : Float(20, 128, strides=[128, 1], requires_grad=1, device=cpu) = aten::relu(%add_5.2) # /mnt/xarfuse/uid-172471/481b8707-seed-c381807f-2aa1-499d-b991-439c4a485aae-ns-4026532494/torch/nn/functional.py:1442:17
[DUMP tensorexpr_fuser.cpp:538]   %5 : Tensor[] = prim::ListConstruct(%scale_gradient.1, %result.17)
[DUMP tensorexpr_fuser.cpp:538]   %1 : int = prim::Constant[value=1]()
[DUMP tensorexpr_fuser.cpp:538]   %cat_8.2 : Float(20, 384, strides=[384, 1], requires_grad=1, device=cpu) = aten::cat(%5, %1) # <eval_with_key>.47:500:12
[DUMP tensorexpr_fuser.cpp:538]   return (%cat_8.2, %cat_9.2, %cat_10.2)
[DEBUG tensorexpr_fuser.cpp:749]
[DEBUG tensorexpr_fuser.cpp:749] <GRAPH_EXPORT>
[DEBUG tensorexpr_fuser.cpp:749] graph(%10 : Float(20, 606, strides=[1976, 1], requires_grad=0, device=cpu),
[DEBUG tensorexpr_fuser.cpp:749]       %11 : Float(20, 85, strides=[85, 1], requires_grad=0, device=cpu),
[DEBUG tensorexpr_fuser.cpp:749]       %12 : Float(20, 1284, strides=[1284, 1], requires_grad=0, device=cpu),
[DEBUG tensorexpr_fuser.cpp:749]       %sparse_arch_embedding_modules_table_0.1 : Float(20, 512, strides=[512, 1], requires_grad=0, device=cpu),
[DEBUG tensorexpr_fuser.cpp:749]       %sparse_arch_embedding_modules_table_1.1 : Float(20, 256, strides=[256, 1], requires_grad=0, device=cpu),
[DEBUG tensorexpr_fuser.cpp:749]       %sparse_arch_embedding_modules_table_2.1 : Float(20, 256, strides=[256, 1], requires_grad=0, device=cpu),
[DEBUG tensorexpr_fuser.cpp:749]       %sparse_arch_embedding_modules_table_3.1 : Float(20, 128, strides=[128, 1], requires_grad=0, device=cpu),
[DEBUG tensorexpr_fuser.cpp:749]       %sparse_arch_embedding_modules_table_4.1 : Float(20, 256, strides=[256, 1], requires_grad=0, device=cpu),
[DEBUG tensorexpr_fuser.cpp:749]       %sparse_arch_embedding_modules_table_5.1 : Float(20, 64, strides=[64, 1], requires_grad=0, device=cpu),
[DEBUG tensorexpr_fuser.cpp:749]       %sparse_arch_embedding_modules_table_6.1 : Float(20, 128, strides=[128, 1], requires_grad=0, device=cpu),
[DEBUG tensorexpr_fuser.cpp:749]       %sparse_arch_embedding_modules_table_7.1 : Float(20, 64, strides=[64, 1], requires_grad=0, device=cpu),
[DEBUG tensorexpr_fuser.cpp:749]       %sparse_arch_embedding_modules_table_8.1 : Float(20, 64, strides=[64, 1], requires_grad=0, device=cpu),
[DEBUG tensorexpr_fuser.cpp:749]       %sparse_arch_embedding_modules_table_9.1 : Float(20, 64, strides=[64, 1], requires_grad=0, device=cpu),
[DEBUG tensorexpr_fuser.cpp:749]       %sparse_arch_embedding_modules_table_10.1 : Float(20, 64, strides=[64, 1], requires_grad=0, device=cpu),
[DEBUG tensorexpr_fuser.cpp:749]       %sparse_arch_embedding_modules_table_11.1 : Float(20, 64, strides=[64, 1], requires_grad=0, device=cpu),
[DEBUG tensorexpr_fuser.cpp:749]       %sparse_arch_embedding_modules_table_12.1 : Float(20, 128, strides=[128, 1], requires_grad=0, device=cpu),
[DEBUG tensorexpr_fuser.cpp:749]       %sparse_arch_embedding_modules_table_13.1 : Float(20, 64, strides=[64, 1], requires_grad=0, device=cpu),
[DEBUG tensorexpr_fuser.cpp:749]       %sparse_arch_embedding_modules_table_14.1 : Float(20, 64, strides=[64, 1], requires_grad=0, device=cpu),
[DEBUG tensorexpr_fuser.cpp:749]       %sparse_arch_embedding_modules_table_15.1 : Float(20, 128, strides=[128, 1], requires_grad=0, device=cpu),
[DEBUG tensorexpr_fuser.cpp:749]       %sparse_arch_embedding_modules_table_16.1 : Float(20, 64, strides=[64, 1], requires_grad=0, device=cpu),
[DEBUG tensorexpr_fuser.cpp:749]       %sparse_arch_embedding_modules_table_17.1 : Float(20, 64, strides=[64, 1], requires_grad=0, device=cpu),
[DEBUG tensorexpr_fuser.cpp:749]       %sparse_arch_embedding_modules_table_18.1 : Float(20, 64, strides=[64, 1], requires_grad=0, device=cpu),
[DEBUG tensorexpr_fuser.cpp:749]       %sparse_arch_embedding_modules_table_19.1 : Float(20, 64, strides=[64, 1], requires_grad=0, device=cpu),
[DEBUG tensorexpr_fuser.cpp:749]       %sparse_arch_embedding_modules_table_20.1 : Float(20, 64, strides=[64, 1], requires_grad=0, device=cpu),
[DEBUG tensorexpr_fuser.cpp:749]       %sparse_arch_embedding_modules_table_21.1 : Float(20, 64, strides=[64, 1], requires_grad=0, device=cpu),
[DEBUG tensorexpr_fuser.cpp:749]       %sparse_arch_embedding_modules_table_22.1 : Float(20, 64, strides=[64, 1], requires_grad=0, device=cpu),
[DEBUG tensorexpr_fuser.cpp:749]       %sparse_arch_embedding_modules_table_23.1 : Float(20, 128, strides=[128, 1], requires_grad=0, device=cpu),
[DEBUG tensorexpr_fuser.cpp:749]       %sparse_arch_embedding_modules_table_24.1 : Float(20, 128, strides=[128, 1], requires_grad=0, device=cpu),
[DEBUG tensorexpr_fuser.cpp:749]       %sparse_arch_embedding_modules_table_25.1 : Float(20, 64, strides=[64, 1], requires_grad=0, device=cpu),
[DEBUG tensorexpr_fuser.cpp:749]       %sparse_arch_embedding_modules_table_26.1 : Float(20, 64, strides=[64, 1], requires_grad=0, device=cpu),
[DEBUG tensorexpr_fuser.cpp:749]       %sparse_arch_embedding_modules_table_27.1 : Float(20, 64, strides=[64, 1], requires_grad=0, device=cpu),
[DEBUG tensorexpr_fuser.cpp:749]       %sparse_arch_embedding_modules_table_28.1 : Float(20, 64, strides=[64, 1], requires_grad=0, device=cpu),
[DEBUG tensorexpr_fuser.cpp:749]       %sparse_arch_embedding_modules_table_29.1 : Float(20, 64, strides=[64, 1], requires_grad=0, device=cpu),
[DEBUG tensorexpr_fuser.cpp:749]       %sparse_arch_embedding_modules_table_30.1 : Float(20, 384, strides=[384, 1], requires_grad=0, device=cpu),
[DEBUG tensorexpr_fuser.cpp:749]       %sparse_arch_embedding_modules_table_31.1 : Float(20, 64, strides=[64, 1], requires_grad=0, device=cpu),
[DEBUG tensorexpr_fuser.cpp:749]       %sparse_arch_embedding_modules_table_32.1 : Float(20, 64, strides=[64, 1], requires_grad=0, device=cpu),
[DEBUG tensorexpr_fuser.cpp:749]       %sparse_arch_embedding_modules_table_33.1 : Float(20, 64, strides=[64, 1], requires_grad=0, device=cpu),
[DEBUG tensorexpr_fuser.cpp:749]       %sparse_arch_embedding_modules_table_34.1 : Float(20, 64, strides=[64, 1], requires_grad=0, device=cpu),
[DEBUG tensorexpr_fuser.cpp:749]       %sparse_arch_embedding_modules_table_35.1 : Float(20, 64, strides=[64, 1], requires_grad=0, device=cpu),
[DEBUG tensorexpr_fuser.cpp:749]       %sparse_arch_embedding_modules_table_36.1 : Float(20, 64, strides=[64, 1], requires_grad=0, device=cpu),
[DEBUG tensorexpr_fuser.cpp:749]       %sparse_arch_embedding_modules_table_37.1 : Float(20, 64, strides=[64, 1], requires_grad=0, device=cpu),
[DEBUG tensorexpr_fuser.cpp:749]       %sparse_arch_embedding_modules_table_38.1 : Float(20, 64, strides=[64, 1], requires_grad=0, device=cpu),
[DEBUG tensorexpr_fuser.cpp:749]       %sparse_arch_embedding_modules_table_39.1 : Float(20, 64, strides=[64, 1], requires_grad=0, device=cpu),
[DEBUG tensorexpr_fuser.cpp:749]       %sparse_arch_embedding_modules_table_40.1 : Float(20, 64, strides=[64, 1], requires_grad=0, device=cpu),
[DEBUG tensorexpr_fuser.cpp:749]       %sparse_arch_embedding_modules_table_41.1 : Float(20, 64, strides=[64, 1], requires_grad=0, device=cpu),
[DEBUG tensorexpr_fuser.cpp:749]       %sparse_arch_embedding_modules_table_42.1 : Float(20, 64, strides=[64, 1], requires_grad=0, device=cpu),
[DEBUG tensorexpr_fuser.cpp:749]       %sparse_arch_embedding_modules_table_43.1 : Float(20, 64, strides=[64, 1], requires_grad=0, device=cpu),
[DEBUG tensorexpr_fuser.cpp:749]       %sparse_arch_embedding_modules_table_44.1 : Float(20, 64, strides=[64, 1], requires_grad=0, device=cpu),
[DEBUG tensorexpr_fuser.cpp:749]       %sparse_arch_embedding_modules_table_45.1 : Float(20, 64, strides=[64, 1], requires_grad=0, device=cpu),
[DEBUG tensorexpr_fuser.cpp:749]       %sparse_arch_embedding_modules_table_46.1 : Float(20, 64, strides=[64, 1], requires_grad=0, device=cpu),
[DEBUG tensorexpr_fuser.cpp:749]       %sparse_arch_embedding_modules_table_47.1 : Float(20, 64, strides=[64, 1], requires_grad=0, device=cpu),
[DEBUG tensorexpr_fuser.cpp:749]       %sparse_arch_embedding_modules_table_48.1 : Float(20, 64, strides=[64, 1], requires_grad=0, device=cpu),
[DEBUG tensorexpr_fuser.cpp:749]       %sparse_arch_embedding_modules_table_49.1 : Float(20, 64, strides=[64, 1], requires_grad=0, device=cpu),
[DEBUG tensorexpr_fuser.cpp:749]       %sparse_arch_embedding_modules_table_50.1 : Float(20, 64, strides=[64, 1], requires_grad=0, device=cpu),
[DEBUG tensorexpr_fuser.cpp:749]       %sparse_arch_embedding_modules_table_51.1 : Float(20, 64, strides=[64, 1], requires_grad=0, device=cpu),
[DEBUG tensorexpr_fuser.cpp:749]       %sparse_arch_embedding_modules_table_52.1 : Float(20, 64, strides=[64, 1], requires_grad=0, device=cpu),
[DEBUG tensorexpr_fuser.cpp:749]       %sparse_arch_embedding_modules_table_53.1 : Float(20, 64, strides=[64, 1], requires_grad=0, device=cpu),
[DEBUG tensorexpr_fuser.cpp:749]       %sparse_arch_embedding_modules_table_54.1 : Float(20, 64, strides=[64, 1], requires_grad=0, device=cpu),
[DEBUG tensorexpr_fuser.cpp:749]       %sparse_arch_embedding_modules_table_55.1 : Float(20, 64, strides=[64, 1], requires_grad=0, device=cpu),
[DEBUG tensorexpr_fuser.cpp:749]       %sparse_arch_embedding_modules_table_56.1 : Float(20, 64, strides=[64, 1], requires_grad=0, device=cpu),
[DEBUG tensorexpr_fuser.cpp:749]       %sparse_arch_embedding_modules_table_57.1 : Float(20, 64, strides=[64, 1], requires_grad=0, device=cpu),
[DEBUG tensorexpr_fuser.cpp:749]       %sparse_arch_embedding_modules_table_58.1 : Float(20, 64, strides=[64, 1], requires_grad=0, device=cpu),
[DEBUG tensorexpr_fuser.cpp:749]       %sparse_arch_embedding_modules_table_59.1 : Float(20, 64, strides=[64, 1], requires_grad=0, device=cpu),
[DEBUG tensorexpr_fuser.cpp:749]       %sparse_arch_embedding_modules_table_60.1 : Float(20, 64, strides=[64, 1], requires_grad=0, device=cpu),
[DEBUG tensorexpr_fuser.cpp:749]       %sparse_arch_embedding_modules_table_61.1 : Float(20, 64, strides=[64, 1], requires_grad=0, device=cpu),
[DEBUG tensorexpr_fuser.cpp:749]       %sparse_arch_embedding_modules_table_62.1 : Float(20, 64, strides=[64, 1], requires_grad=0, device=cpu),
[DEBUG tensorexpr_fuser.cpp:749]       %sparse_arch_embedding_modules_table_63.1 : Float(20, 64, strides=[64, 1], requires_grad=0, device=cpu),
[DEBUG tensorexpr_fuser.cpp:749]       %sparse_arch_embedding_modules_table_64.1 : Float(20, 64, strides=[64, 1], requires_grad=0, device=cpu),
[DEBUG tensorexpr_fuser.cpp:749]       %sparse_arch_embedding_modules_table_65.1 : Float(20, 64, strides=[64, 1], requires_grad=0, device=cpu),
[DEBUG tensorexpr_fuser.cpp:749]       %sparse_arch_embedding_modules_table_66.1 : Float(20, 64, strides=[64, 1], requires_grad=0, device=cpu),
[DEBUG tensorexpr_fuser.cpp:749]       %sparse_arch_embedding_modules_table_67.1 : Float(20, 64, strides=[64, 1], requires_grad=0, device=cpu),
[DEBUG tensorexpr_fuser.cpp:749]       %sparse_arch_embedding_modules_table_68.1 : Float(20, 64, strides=[64, 1], requires_grad=0, device=cpu),
[DEBUG tensorexpr_fuser.cpp:749]       %sparse_arch_embedding_modules_table_69.1 : Float(20, 64, strides=[64, 1], requires_grad=0, device=cpu),
[DEBUG tensorexpr_fuser.cpp:749]       %sparse_arch_embedding_modules_table_70.1 : Float(20, 64, strides=[64, 1], requires_grad=0, device=cpu),
[DEBUG tensorexpr_fuser.cpp:749]       %sparse_arch_embedding_modules_table_71.1 : Float(20, 64, strides=[64, 1], requires_grad=0, device=cpu),
[DEBUG tensorexpr_fuser.cpp:749]       %sparse_arch_embedding_modules_table_72.1 : Float(20, 64, strides=[64, 1], requires_grad=0, device=cpu)):
[DEBUG tensorexpr_fuser.cpp:749]   %self.preproc.preproc_impl.impl.transforms_list.1.scale_blob : Float(1975, strides=[1], requires_grad=0, device=cpu) = prim::Constant[value=<Tensor>]()
[DEBUG tensorexpr_fuser.cpp:749]   %self.preproc.preproc_impl.impl.transforms_list.1.shift_blob : Float(1975, strides=[1], requires_grad=0, device=cpu) = prim::Constant[value=<Tensor>]()
[DEBUG tensorexpr_fuser.cpp:749]   %93 : int = prim::Constant[value=1]()
[DEBUG tensorexpr_fuser.cpp:749]   %101 : Tensor[] = prim::ListConstruct(%sparse_arch_embedding_modules_table_66.1, %sparse_arch_embedding_modules_table_67.1, %sparse_arch_embedding_modules_table_68.1, %sparse_arch_embedding_modules_table_69.1, %sparse_arch_embedding_modules_table_70.1, %sparse_arch_embedding_modules_table_71.1, %sparse_arch_embedding_modules_table_72.1)
[DEBUG tensorexpr_fuser.cpp:749]   %cat_2.2 : Float(20, 448, strides=[448, 1], requires_grad=0, device=cpu) = aten::cat(%101, %93) # <eval_with_key>.47:374:12
[DEBUG tensorexpr_fuser.cpp:749]   %89 : Tensor[] = prim::ListConstruct(%sparse_arch_embedding_modules_table_61.1, %sparse_arch_embedding_modules_table_62.1, %sparse_arch_embedding_modules_table_63.1, %sparse_arch_embedding_modules_table_64.1, %sparse_arch_embedding_modules_table_65.1)
[DEBUG tensorexpr_fuser.cpp:749]   %cat_1.2 : Float(20, 320, strides=[320, 1], requires_grad=0, device=cpu) = aten::cat(%89, %93) # <eval_with_key>.47:373:12
[DEBUG tensorexpr_fuser.cpp:749]   %79 : Tensor[] = prim::ListConstruct(%sparse_arch_embedding_modules_table_0.1, %sparse_arch_embedding_modules_table_1.1, %sparse_arch_embedding_modules_table_2.1, %sparse_arch_embedding_modules_table_3.1, %sparse_arch_embedding_modules_table_4.1, %sparse_arch_embedding_modules_table_5.1, %sparse_arch_embedding_modules_table_6.1, %sparse_arch_embedding_modules_table_7.1, %sparse_arch_embedding_modules_table_8.1, %sparse_arch_embedding_modules_table_9.1, %sparse_arch_embedding_modules_table_10.1, %sparse_arch_embedding_modules_table_11.1, %sparse_arch_embedding_modules_table_12.1, %sparse_arch_embedding_modules_table_13.1, %sparse_arch_embedding_modules_table_14.1, %sparse_arch_embedding_modules_table_15.1, %sparse_arch_embedding_modules_table_16.1, %sparse_arch_embedding_modules_table_17.1, %sparse_arch_embedding_modules_table_18.1, %sparse_arch_embedding_modules_table_19.1, %sparse_arch_embedding_modules_table_20.1, %sparse_arch_embedding_modules_table_21.1, %sparse_arch_embedding_modules_table_22.1, %sparse_arch_embedding_modules_table_23.1, %sparse_arch_embedding_modules_table_24.1, %sparse_arch_embedding_modules_table_25.1, %sparse_arch_embedding_modules_table_26.1, %sparse_arch_embedding_modules_table_27.1, %sparse_arch_embedding_modules_table_28.1, %sparse_arch_embedding_modules_table_29.1, %sparse_arch_embedding_modules_table_30.1, %sparse_arch_embedding_modules_table_31.1, %sparse_arch_embedding_modules_table_32.1, %sparse_arch_embedding_modules_table_33.1, %sparse_arch_embedding_modules_table_34.1, %sparse_arch_embedding_modules_table_35.1, %sparse_arch_embedding_modules_table_36.1, %sparse_arch_embedding_modules_table_37.1, %sparse_arch_embedding_modules_table_38.1, %sparse_arch_embedding_modules_table_39.1, %sparse_arch_embedding_modules_table_40.1, %sparse_arch_embedding_modules_table_41.1, %sparse_arch_embedding_modules_table_42.1, %sparse_arch_embedding_modules_table_43.1, %sparse_arch_embedding_modules_table_44.1, %sparse_arch_embedding_modules_table_45.1, %sparse_arch_embedding_modules_table_46.1, %sparse_arch_embedding_modules_table_47.1, %sparse_arch_embedding_modules_table_48.1, %sparse_arch_embedding_modules_table_49.1, %sparse_arch_embedding_modules_table_50.1, %sparse_arch_embedding_modules_table_51.1, %sparse_arch_embedding_modules_table_52.1, %sparse_arch_embedding_modules_table_53.1, %sparse_arch_embedding_modules_table_54.1, %sparse_arch_embedding_modules_table_55.1, %sparse_arch_embedding_modules_table_56.1, %sparse_arch_embedding_modules_table_57.1, %sparse_arch_embedding_modules_table_58.1, %sparse_arch_embedding_modules_table_59.1, %sparse_arch_embedding_modules_table_60.1)
[DEBUG tensorexpr_fuser.cpp:749]   %cat.2 : Float(20, 5632, strides=[5632, 1], requires_grad=0, device=cpu) = aten::cat(%79, %93) # <eval_with_key>.47:372:10
[DEBUG tensorexpr_fuser.cpp:749]   %13 : Tensor[] = prim::ListConstruct(%10, %11, %12)
[DEBUG tensorexpr_fuser.cpp:749]   %9 : Float(20, 1975, strides=[1975, 1], requires_grad=0, device=cpu) = aten::cat(%13, %93) # /data/users/xichen/fbsource/fbcode/dper3/dper3/modules/low_level_modules/concat.py:157:0
[DEBUG tensorexpr_fuser.cpp:749]   %6 : Float(20, 1975, strides=[1975, 1], requires_grad=0, device=cpu) = aten::add(%9, %self.preproc.preproc_impl.impl.transforms_list.1.shift_blob, %93) # /data/users/xichen/fbsource/fbcode/dper3/dper3/modules/low_level_modules/single_operators.py:1171:0
[DEBUG tensorexpr_fuser.cpp:749]   %2 : Float(20, 1975, strides=[1975, 1], requires_grad=0, device=cpu) = aten::mul(%6, %self.preproc.preproc_impl.impl.transforms_list.1.scale_blob) # /data/users/xichen/fbsource/fbcode/dper3/dper3/modules/low_level_modules/single_operators.py:1177:0
[DEBUG tensorexpr_fuser.cpp:749]   return (%2, %cat.2, %cat_1.2, %cat_2.2)
[DEBUG tensorexpr_fuser.cpp:749] </GRAPH_EXPORT>
[DEBUG tensorexpr_fuser.cpp:749]
[DEBUG tensorexpr_fuser.cpp:749] <GRAPH_EXPORT>
[DEBUG tensorexpr_fuser.cpp:749] graph(%dense_arch_gated_net_gate_net_0_mlp_net_0.1 : Float(20, 512, strides=[512, 1], requires_grad=1, device=cpu),
[DEBUG tensorexpr_fuser.cpp:749]       %dense_arch_gated_net_gate_net_0_mlp_net_1_norm_0.1 : Float(20, 512, strides=[512, 1], requires_grad=1, device=cpu)):
[DEBUG tensorexpr_fuser.cpp:749]   %dense_arch_gated_net_gate_net_0_mlp_net_1_norm_1.2 : Float(20, 512, strides=[512, 1], requires_grad=1, device=cpu) = aten::sigmoid(%dense_arch_gated_net_gate_net_0_mlp_net_1_norm_0.1) # /mnt/xarfuse/uid-172471/481b8707-seed-c381807f-2aa1-499d-b991-439c4a485aae-ns-4026532494/torch/nn/modules/activation.py:293:15
[DEBUG tensorexpr_fuser.cpp:749]   %mul.2 : Float(20, 512, strides=[512, 1], requires_grad=1, device=cpu) = aten::mul(%dense_arch_gated_net_gate_net_0_mlp_net_0.1, %dense_arch_gated_net_gate_net_0_mlp_net_1_norm_1.2) # <eval_with_key>.47:379:10
[DEBUG tensorexpr_fuser.cpp:749]   return (%mul.2)
[DEBUG tensorexpr_fuser.cpp:749] </GRAPH_EXPORT>
[DEBUG tensorexpr_fuser.cpp:749]
[DEBUG tensorexpr_fuser.cpp:749] <GRAPH_EXPORT>
[DEBUG tensorexpr_fuser.cpp:749] graph(%1 : Float(20, 1975, strides=[1975, 1], requires_grad=0, device=cpu),
[DEBUG tensorexpr_fuser.cpp:749]       %dense_arch_gated_net_gate_net_1.1 : Float(20, 1975, strides=[1975, 1], requires_grad=1, device=cpu)):
[DEBUG tensorexpr_fuser.cpp:749]   %dense_arch_gated_net_gate_net_2.2 : Float(20, 1975, strides=[1975, 1], requires_grad=1, device=cpu) = aten::sigmoid(%dense_arch_gated_net_gate_net_1.1) # /mnt/xarfuse/uid-172471/481b8707-seed-c381807f-2aa1-499d-b991-439c4a485aae-ns-4026532494/torch/nn/modules/activation.py:293:15
[DEBUG tensorexpr_fuser.cpp:749]   %mul_1.2 : Float(20, 1975, strides=[1975, 1], requires_grad=1, device=cpu) = aten::mul(%dense_arch_gated_net_gate_net_2.2, %1) # <eval_with_key>.47:382:12
[DEBUG tensorexpr_fuser.cpp:749]   return (%mul_1.2)
[DEBUG tensorexpr_fuser.cpp:749] </GRAPH_EXPORT>
[DEBUG tensorexpr_fuser.cpp:749]
[DEBUG tensorexpr_fuser.cpp:749] <GRAPH_EXPORT>
[DEBUG tensorexpr_fuser.cpp:749] graph(%dense_arch_mlp_mlp_net_0.1 : Float(20, 512, strides=[512, 1], requires_grad=1, device=cpu),
[DEBUG tensorexpr_fuser.cpp:749]       %dense_arch_mlp_mlp_net_1_norm_0.1 : Float(20, 512, strides=[512, 1], requires_grad=1, device=cpu)):
[DEBUG tensorexpr_fuser.cpp:749]   %dense_arch_mlp_mlp_net_1_norm_1.2 : Float(20, 512, strides=[512, 1], requires_grad=1, device=cpu) = aten::sigmoid(%dense_arch_mlp_mlp_net_1_norm_0.1) # /mnt/xarfuse/uid-172471/481b8707-seed-c381807f-2aa1-499d-b991-439c4a485aae-ns-4026532494/torch/nn/modules/activation.py:293:15
[DEBUG tensorexpr_fuser.cpp:749]   %mul_2.2 : Float(20, 512, strides=[512, 1], requires_grad=1, device=cpu) = aten::mul(%dense_arch_mlp_mlp_net_0.1, %dense_arch_mlp_mlp_net_1_norm_1.2) # <eval_with_key>.47:386:12
[DEBUG tensorexpr_fuser.cpp:749]   return (%mul_2.2)
[DEBUG tensorexpr_fuser.cpp:749] </GRAPH_EXPORT>
[DEBUG tensorexpr_fuser.cpp:749]
[DEBUG tensorexpr_fuser.cpp:749] <GRAPH_EXPORT>
[DEBUG tensorexpr_fuser.cpp:749] graph(%dense_arch_parallel_reduce_submodules_0_submodules_0_gate_net_0_mlp_net_0.1 : Float(20, 64, strides=[64, 1], requires_grad=1, device=cpu),
[DEBUG tensorexpr_fuser.cpp:749]       %dense_arch_parallel_reduce_submodules_0_submodules_0_gate_net_0_mlp_net_1_norm_0.1 : Float(20, 64, strides=[64, 1], requires_grad=1, device=cpu)):
[DEBUG tensorexpr_fuser.cpp:749]   %dense_arch_parallel_reduce_submodules_0_submodules_0_gate_net_0_mlp_net_1_norm_1.2 : Float(20, 64, strides=[64, 1], requires_grad=1, device=cpu) = aten::sigmoid(%dense_arch_parallel_reduce_submodules_0_submodules_0_gate_net_0_mlp_net_1_norm_0.1) # /mnt/xarfuse/uid-172471/481b8707-seed-c381807f-2aa1-499d-b991-439c4a485aae-ns-4026532494/torch/nn/modules/activation.py:293:15
[DEBUG tensorexpr_fuser.cpp:749]   %mul_3.2 : Float(20, 64, strides=[64, 1], requires_grad=1, device=cpu) = aten::mul(%dense_arch_parallel_reduce_submodules_0_submodules_0_gate_net_0_mlp_net_0.1, %dense_arch_parallel_reduce_submodules_0_submodules_0_gate_net_0_mlp_net_1_norm_1.2) # <eval_with_key>.47:390:12
[DEBUG tensorexpr_fuser.cpp:749]   return (%mul_3.2)
[DEBUG tensorexpr_fuser.cpp:749] </GRAPH_EXPORT>
[DEBUG tensorexpr_fuser.cpp:749]
[DEBUG tensorexpr_fuser.cpp:749] <GRAPH_EXPORT>
[DEBUG tensorexpr_fuser.cpp:749] graph(%mul_2.1 : Float(20, 512, strides=[512, 1], requires_grad=1, device=cpu),
[DEBUG tensorexpr_fuser.cpp:749]       %dense_arch_parallel_reduce_submodules_0_submodules_0_gate_net_1.1 : Float(20, 512, strides=[512, 1], requires_grad=1, device=cpu),
[DEBUG tensorexpr_fuser.cpp:749]       %dense_arch_parallel_reduce_submodules_0_submodules_1_mlp_net_0.1 : Float(20, 512, strides=[512, 1], requires_grad=1, device=cpu),
[DEBUG tensorexpr_fuser.cpp:749]       %dense_arch_parallel_reduce_submodules_0_submodules_1_mlp_net_1_norm_0.1 : Float(20, 512, strides=[512, 1], requires_grad=1, device=cpu),
[DEBUG tensorexpr_fuser.cpp:749]       %dense_arch_parallel_reduce_submodules_1_submodules_0_gate_net_0_mlp_net_0.1 : Float(20, 64, strides=[64, 1], requires_grad=1, device=cpu),
[DEBUG tensorexpr_fuser.cpp:749]       %dense_arch_parallel_reduce_submodules_1_submodules_0_gate_net_0_mlp_net_1_norm_0.1 : Float(20, 64, strides=[64, 1], requires_grad=1, device=cpu)):
[DEBUG tensorexpr_fuser.cpp:749]   %dense_arch_parallel_reduce_submodules_1_submodules_0_gate_net_0_mlp_net_1_norm_1.2 : Float(20, 64, strides=[64, 1], requires_grad=1, device=cpu) = aten::sigmoid(%dense_arch_parallel_reduce_submodules_1_submodules_0_gate_net_0_mlp_net_1_norm_0.1) # /mnt/xarfuse/uid-172471/481b8707-seed-c381807f-2aa1-499d-b991-439c4a485aae-ns-4026532494/torch/nn/modules/activation.py:293:15
[DEBUG tensorexpr_fuser.cpp:749]   %mul_6.2 : Float(20, 64, strides=[64, 1], requires_grad=1, device=cpu) = aten::mul(%dense_arch_parallel_reduce_submodules_1_submodules_0_gate_net_0_mlp_net_0.1, %dense_arch_parallel_reduce_submodules_1_submodules_0_gate_net_0_mlp_net_1_norm_1.2) # <eval_with_key>.47:403:12
[DEBUG tensorexpr_fuser.cpp:749]   %dense_arch_parallel_reduce_submodules_0_submodules_1_mlp_net_1_norm_1.2 : Float(20, 512, strides=[512, 1], requires_grad=1, device=cpu) = aten::sigmoid(%dense_arch_parallel_reduce_submodules_0_submodules_1_mlp_net_1_norm_0.1) # /mnt/xarfuse/uid-172471/481b8707-seed-c381807f-2aa1-499d-b991-439c4a485aae-ns-4026532494/torch/nn/modules/activation.py:293:15
[DEBUG tensorexpr_fuser.cpp:749]   %mul_5.2 : Float(20, 512, strides=[512, 1], requires_grad=1, device=cpu) = aten::mul(%dense_arch_parallel_reduce_submodules_0_submodules_1_mlp_net_0.1, %dense_arch_parallel_reduce_submodules_0_submodules_1_mlp_net_1_norm_1.2) # <eval_with_key>.47:397:12
[DEBUG tensorexpr_fuser.cpp:749]   %dense_arch_parallel_reduce_submodules_0_submodules_0_gate_net_2.2 : Float(20, 512, strides=[512, 1], requires_grad=1, device=cpu) = aten::sigmoid(%dense_arch_parallel_reduce_submodules_0_submodules_0_gate_net_1.1) # /mnt/xarfuse/uid-172471/481b8707-seed-c381807f-2aa1-499d-b991-439c4a485aae-ns-4026532494/torch/nn/modules/activation.py:293:15
[DEBUG tensorexpr_fuser.cpp:749]   %mul_4.2 : Float(20, 512, strides=[512, 1], requires_grad=1, device=cpu) = aten::mul(%dense_arch_parallel_reduce_submodules_0_submodules_0_gate_net_2.2, %mul_2.1) # <eval_with_key>.47:393:12
[DEBUG tensorexpr_fuser.cpp:749]   return (%mul_4.2, %mul_5.2, %mul_6.2)
[DEBUG tensorexpr_fuser.cpp:749] </GRAPH_EXPORT>
[DEBUG tensorexpr_fuser.cpp:749]
[DEBUG tensorexpr_fuser.cpp:749] <GRAPH_EXPORT>
[DEBUG tensorexpr_fuser.cpp:749] graph(%mul_2.1 : Float(20, 512, strides=[512, 1], requires_grad=1, device=cpu),
[DEBUG tensorexpr_fuser.cpp:749]       %dense_arch_parallel_reduce_submodules_1_submodules_0_gate_net_1.1 : Float(20, 512, strides=[512, 1], requires_grad=1, device=cpu),
[DEBUG tensorexpr_fuser.cpp:749]       %dense_arch_parallel_reduce_submodules_1_submodules_1_mlp_net_0.1 : Float(20, 512, strides=[512, 1], requires_grad=1, device=cpu),
[DEBUG tensorexpr_fuser.cpp:749]       %dense_arch_parallel_reduce_submodules_1_submodules_1_mlp_net_1_norm_0.1 : Float(20, 512, strides=[512, 1], requires_grad=1, device=cpu)):
[DEBUG tensorexpr_fuser.cpp:749]   %dense_arch_parallel_reduce_submodules_1_submodules_1_mlp_net_1_norm_1.2 : Float(20, 512, strides=[512, 1], requires_grad=1, device=cpu) = aten::sigmoid(%dense_arch_parallel_reduce_submodules_1_submodules_1_mlp_net_1_norm_0.1) # /mnt/xarfuse/uid-172471/481b8707-seed-c381807f-2aa1-499d-b991-439c4a485aae-ns-4026532494/torch/nn/modules/activation.py:293:15
[DEBUG tensorexpr_fuser.cpp:749]   %mul_8.2 : Float(20, 512, strides=[512, 1], requires_grad=1, device=cpu) = aten::mul(%dense_arch_parallel_reduce_submodules_1_submodules_1_mlp_net_0.1, %dense_arch_parallel_reduce_submodules_1_submodules_1_mlp_net_1_norm_1.2) # <eval_with_key>.47:410:12
[DEBUG tensorexpr_fuser.cpp:749]   %dense_arch_parallel_reduce_submodules_1_submodules_0_gate_net_2.2 : Float(20, 512, strides=[512, 1], requires_grad=1, device=cpu) = aten::sigmoid(%dense_arch_parallel_reduce_submodules_1_submodules_0_gate_net_1.1) # /mnt/xarfuse/uid-172471/481b8707-seed-c381807f-2aa1-499d-b991-439c4a485aae-ns-4026532494/torch/nn/modules/activation.py:293:15
[DEBUG tensorexpr_fuser.cpp:749]   %mul_7.2 : Float(20, 512, strides=[512, 1], requires_grad=1, device=cpu) = aten::mul(%dense_arch_parallel_reduce_submodules_1_submodules_0_gate_net_2.2, %mul_2.1) # <eval_with_key>.47:406:12
[DEBUG tensorexpr_fuser.cpp:749]   return (%mul_7.2, %mul_8.2)
[DEBUG tensorexpr_fuser.cpp:749] </GRAPH_EXPORT>
[UPDATE tensorexpr_fuser.cpp:742] Fusion group is too small, unmerging: %cat_5.2 : Float(20, 99, 64, strides=[6336, 64, 1], requires_grad=1, device=cpu) = prim::TensorExprGroup[Subgraph=<Graph>](%permute.1, %view.1, %sum_4.1, %reshape.1)
[DEBUG tensorexpr_fuser.cpp:749]
[DEBUG tensorexpr_fuser.cpp:749] <GRAPH_EXPORT>
[DEBUG tensorexpr_fuser.cpp:749] graph(%sum_3.1 : Float(20, 512, strides=[512, 1], requires_grad=1, device=cpu),
[DEBUG tensorexpr_fuser.cpp:749]       %over_arch__interaction_arch__cat_embedding_module_0.1 : Float(20, 512, strides=[512, 1], requires_grad=1, device=cpu),
[DEBUG tensorexpr_fuser.cpp:749]       %sum_5.1 : Float(20, 64, strides=[64, 1], requires_grad=0, device=cpu),
[DEBUG tensorexpr_fuser.cpp:749]       %flatten.1 : Float(20, 1485, strides=[1485, 1], requires_grad=1, device=cpu),
[DEBUG tensorexpr_fuser.cpp:749]       %reshape_1.1 : Float(20, 960, strides=[960, 1], requires_grad=1, device=cpu),
[DEBUG tensorexpr_fuser.cpp:749]       %dense_arch_attention_weight_1.1 : Float(20, 1485, strides=[1485, 1], requires_grad=1, device=cpu)):
[DEBUG tensorexpr_fuser.cpp:749]   %1 : int = prim::Constant[value=1]()
[DEBUG tensorexpr_fuser.cpp:749]   %dense_arch_attention_weight_2.2 : Float(20, 1485, strides=[1485, 1], requires_grad=1, device=cpu) = aten::sigmoid(%dense_arch_attention_weight_1.1) # /mnt/xarfuse/uid-172471/481b8707-seed-c381807f-2aa1-499d-b991-439c4a485aae-ns-4026532494/torch/nn/modules/activation.py:293:15
[DEBUG tensorexpr_fuser.cpp:749]   %over_arch__interaction_arch__compress_emb_transform.2 : Float(20, 960, strides=[960, 1], requires_grad=1, device=cpu) = aten::relu(%reshape_1.1) # /mnt/xarfuse/uid-172471/481b8707-seed-c381807f-2aa1-499d-b991-439c4a485aae-ns-4026532494/torch/nn/functional.py:1442:17
[DEBUG tensorexpr_fuser.cpp:749]   %mul_9.2 : Float(20, 1485, strides=[1485, 1], requires_grad=1, device=cpu) = aten::mul(%flatten.1, %dense_arch_attention_weight_2.2) # <eval_with_key>.47:445:12
[DEBUG tensorexpr_fuser.cpp:749]   %over_arch__interaction_arch__dot_products_transform.2 : Float(20, 1485, strides=[1485, 1], requires_grad=1, device=cpu) = aten::tanh(%mul_9.2) # /mnt/xarfuse/uid-172471/481b8707-seed-c381807f-2aa1-499d-b991-439c4a485aae-ns-4026532494/torch/nn/modules/activation.py:357:15
[DEBUG tensorexpr_fuser.cpp:749]   %8 : Tensor[] = prim::ListConstruct(%sum_3.1, %over_arch__interaction_arch__dot_products_transform.2, %over_arch__interaction_arch__cat_embedding_module_0.1, %over_arch__interaction_arch__compress_emb_transform.2, %sum_5.1)
[DEBUG tensorexpr_fuser.cpp:749]   %cat_6.2 : Float(20, 3533, strides=[3533, 1], requires_grad=1, device=cpu) = aten::cat(%8, %1) # <eval_with_key>.47:447:12
[DEBUG tensorexpr_fuser.cpp:749]   return (%cat_6.2)
[DEBUG tensorexpr_fuser.cpp:749] </GRAPH_EXPORT>
[DEBUG tensorexpr_fuser.cpp:749]
[DEBUG tensorexpr_fuser.cpp:749] <GRAPH_EXPORT>
[DEBUG tensorexpr_fuser.cpp:749] graph(%cat_6.1 : Float(20, 3533, strides=[3533, 1], requires_grad=1, device=cpu),
[DEBUG tensorexpr_fuser.cpp:749]       %over_arch__interaction_arch__over_arch_mlp_0_gate_net_1.1 : Float(20, 3533, strides=[3533, 1], requires_grad=1, device=cpu)):
[DEBUG tensorexpr_fuser.cpp:749]   %over_arch__interaction_arch__over_arch_mlp_0_gate_net_2.2 : Float(20, 3533, strides=[3533, 1], requires_grad=1, device=cpu) = aten::sigmoid(%over_arch__interaction_arch__over_arch_mlp_0_gate_net_1.1) # /mnt/xarfuse/uid-172471/481b8707-seed-c381807f-2aa1-499d-b991-439c4a485aae-ns-4026532494/torch/nn/modules/activation.py:293:15
[DEBUG tensorexpr_fuser.cpp:749]   %mul_10.2 : Float(20, 3533, strides=[3533, 1], requires_grad=1, device=cpu) = aten::mul(%over_arch__interaction_arch__over_arch_mlp_0_gate_net_2.2, %cat_6.1) # <eval_with_key>.47:451:13
[DEBUG tensorexpr_fuser.cpp:749]   return (%mul_10.2)
[DEBUG tensorexpr_fuser.cpp:749] </GRAPH_EXPORT>
[DEBUG tensorexpr_fuser.cpp:749]
[DEBUG tensorexpr_fuser.cpp:749] <GRAPH_EXPORT>
[DEBUG tensorexpr_fuser.cpp:749] graph(%over_arch__interaction_arch__over_arch_mlp_2__building_blocks_0__residual_mapping_3.1 : Float(20, 128, strides=[128, 1], requires_grad=1, device=cpu),
[DEBUG tensorexpr_fuser.cpp:749]       %over_arch__interaction_arch__over_arch_mlp_1.1 : Float(20, 128, strides=[128, 1], requires_grad=1, device=cpu)):
[DEBUG tensorexpr_fuser.cpp:749]   %4 : int = prim::Constant[value=1]()
[DEBUG tensorexpr_fuser.cpp:749]   %add.2 : Float(20, 128, strides=[128, 1], requires_grad=1, device=cpu) = aten::add(%over_arch__interaction_arch__over_arch_mlp_2__building_blocks_0__residual_mapping_3.1, %over_arch__interaction_arch__over_arch_mlp_1.1, %4) # <eval_with_key>.47:456:10
[DEBUG tensorexpr_fuser.cpp:749]   %over_arch__interaction_arch__over_arch_mlp_2__building_blocks_1__residual_mapping_0.2 : Float(20, 128, strides=[128, 1], requires_grad=1, device=cpu) = aten::relu(%add.2) # /mnt/xarfuse/uid-172471/481b8707-seed-c381807f-2aa1-499d-b991-439c4a485aae-ns-4026532494/torch/nn/functional.py:1442:17
[DEBUG tensorexpr_fuser.cpp:749]   return (%over_arch__interaction_arch__over_arch_mlp_2__building_blocks_1__residual_mapping_0.2, %add.2)
[DEBUG tensorexpr_fuser.cpp:749] </GRAPH_EXPORT>
[DEBUG tensorexpr_fuser.cpp:749]
[DEBUG tensorexpr_fuser.cpp:749] <GRAPH_EXPORT>
[DEBUG tensorexpr_fuser.cpp:749] graph(%over_arch__specialized_arch_projection_net_specialized_embeddings.1 : Float(20, 128, strides=[128, 1], requires_grad=1, device=cpu),
[DEBUG tensorexpr_fuser.cpp:749]       %over_arch__interaction_arch__over_arch_mlp_2__building_blocks_1__residual_mapping_3.1 : Float(20, 128, strides=[128, 1], requires_grad=1, device=cpu),
[DEBUG tensorexpr_fuser.cpp:749]       %add.1 : Float(20, 128, strides=[128, 1], requires_grad=1, device=cpu),
[DEBUG tensorexpr_fuser.cpp:749]       %over_arch__task_arch__dedicated_arch__dedicated_arch_1__building_blocks_0__residual_mapping_3.1 : Float(20, 128, strides=[128, 1], requires_grad=1, device=cpu),
[DEBUG tensorexpr_fuser.cpp:749]       %over_arch__task_arch__dedicated_arch__dedicated_arch_0.1 : Float(20, 128, strides=[128, 1], requires_grad=1, device=cpu),
[DEBUG tensorexpr_fuser.cpp:749]       %over_arch__task_arch__dedicated_arch__dedicated_arch_1__building_blocks_0__residual_mapping_5.1 : Float(20, 128, strides=[128, 1], requires_grad=1, device=cpu),
[DEBUG tensorexpr_fuser.cpp:749]       %over_arch__task_arch__dedicated_arch__dedicated_arch_1.1 : Float(20, 128, strides=[128, 1], requires_grad=1, device=cpu),
[DEBUG tensorexpr_fuser.cpp:749]       %over_arch__task_arch__dedicated_arch__dedicated_arch_1__building_blocks_0__residual_mapping_7.1 : Float(20, 128, strides=[128, 1], requires_grad=1, device=cpu),
[DEBUG tensorexpr_fuser.cpp:749]       %over_arch__task_arch__dedicated_arch__dedicated_arch_2.1 : Float(20, 128, strides=[128, 1], requires_grad=1, device=cpu)):
[DEBUG tensorexpr_fuser.cpp:749]   %32 : int = prim::Constant[value=1]()
[DEBUG tensorexpr_fuser.cpp:749]   %add_9.2 : Float(20, 128, strides=[128, 1], requires_grad=1, device=cpu) = aten::add(%over_arch__task_arch__dedicated_arch__dedicated_arch_1__building_blocks_0__residual_mapping_7.1, %over_arch__task_arch__dedicated_arch__dedicated_arch_2.1, %32) # <eval_with_key>.47:493:12
[DEBUG tensorexpr_fuser.cpp:749]   %over_arch__task_arch__dedicated_arch__dedicated_arch_1__building_blocks_1__residual_mapping_8.2 : Float(20, 128, strides=[128, 1], requires_grad=1, device=cpu) = aten::relu(%add_9.2) # /mnt/xarfuse/uid-172471/481b8707-seed-c381807f-2aa1-499d-b991-439c4a485aae-ns-4026532494/torch/nn/functional.py:1442:17
[DEBUG tensorexpr_fuser.cpp:749]   %add_6.2 : Float(20, 128, strides=[128, 1], requires_grad=1, device=cpu) = aten::add(%over_arch__task_arch__dedicated_arch__dedicated_arch_1__building_blocks_0__residual_mapping_5.1, %over_arch__task_arch__dedicated_arch__dedicated_arch_1.1, %32) # <eval_with_key>.47:482:12
[DEBUG tensorexpr_fuser.cpp:749]   %over_arch__task_arch__dedicated_arch__dedicated_arch_1__building_blocks_1__residual_mapping_4.2 : Float(20, 128, strides=[128, 1], requires_grad=1, device=cpu) = aten::relu(%add_6.2) # /mnt/xarfuse/uid-172471/481b8707-seed-c381807f-2aa1-499d-b991-439c4a485aae-ns-4026532494/torch/nn/functional.py:1442:17
[DEBUG tensorexpr_fuser.cpp:749]   %add_3.2 : Float(20, 128, strides=[128, 1], requires_grad=1, device=cpu) = aten::add(%over_arch__task_arch__dedicated_arch__dedicated_arch_1__building_blocks_0__residual_mapping_3.1, %over_arch__task_arch__dedicated_arch__dedicated_arch_0.1, %32) # <eval_with_key>.47:471:12
[DEBUG tensorexpr_fuser.cpp:749]   %over_arch__task_arch__dedicated_arch__dedicated_arch_1__building_blocks_1__residual_mapping_0.2 : Float(20, 128, strides=[128, 1], requires_grad=1, device=cpu) = aten::relu(%add_3.2) # /mnt/xarfuse/uid-172471/481b8707-seed-c381807f-2aa1-499d-b991-439c4a485aae-ns-4026532494/torch/nn/functional.py:1442:17
[DEBUG tensorexpr_fuser.cpp:749]   %add_2.2 : Float(20, 128, strides=[128, 1], requires_grad=1, device=cpu) = aten::add(%over_arch__interaction_arch__over_arch_mlp_2__building_blocks_1__residual_mapping_3.1, %add.1, %32) # <eval_with_key>.47:461:12
[DEBUG tensorexpr_fuser.cpp:749]   %result.21 : Float(20, 128, strides=[128, 1], requires_grad=1, device=cpu) = aten::relu(%add_2.2) # /mnt/xarfuse/uid-172471/481b8707-seed-c381807f-2aa1-499d-b991-439c4a485aae-ns-4026532494/torch/nn/functional.py:1442:17
[DEBUG tensorexpr_fuser.cpp:749]   %5 : Tensor[] = prim::ListConstruct(%result.21, %over_arch__specialized_arch_projection_net_specialized_embeddings.1)
[DEBUG tensorexpr_fuser.cpp:749]   %cat_7.2 : Float(20, 256, strides=[256, 1], requires_grad=1, device=cpu) = aten::cat(%5, %32) # <eval_with_key>.47:463:12
[DEBUG tensorexpr_fuser.cpp:749]   return (%cat_7.2, %over_arch__task_arch__dedicated_arch__dedicated_arch_1__building_blocks_1__residual_mapping_0.2, %add_3.2, %over_arch__task_arch__dedicated_arch__dedicated_arch_1__building_blocks_1__residual_mapping_4.2, %add_6.2, %over_arch__task_arch__dedicated_arch__dedicated_arch_1__building_blocks_1__residual_mapping_8.2, %add_9.2)
[DEBUG tensorexpr_fuser.cpp:749] </GRAPH_EXPORT>
[DEBUG tensorexpr_fuser.cpp:749]
[DEBUG tensorexpr_fuser.cpp:749] <GRAPH_EXPORT>
[DEBUG tensorexpr_fuser.cpp:749] graph(%scale_gradient.1 : Float(20, 256, strides=[256, 1], requires_grad=1, device=cpu),
[DEBUG tensorexpr_fuser.cpp:749]       %over_arch__task_arch__dedicated_arch__dedicated_arch_1__building_blocks_1__residual_mapping_3.1 : Float(20, 128, strides=[128, 1], requires_grad=1, device=cpu),
[DEBUG tensorexpr_fuser.cpp:749]       %add_3.1 : Float(20, 128, strides=[128, 1], requires_grad=1, device=cpu),
[DEBUG tensorexpr_fuser.cpp:749]       %scale_gradient_1.1 : Float(20, 256, strides=[256, 1], requires_grad=1, device=cpu),
[DEBUG tensorexpr_fuser.cpp:749]       %over_arch__task_arch__dedicated_arch__dedicated_arch_1__building_blocks_1__residual_mapping_5.1 : Float(20, 128, strides=[128, 1], requires_grad=1, device=cpu),
[DEBUG tensorexpr_fuser.cpp:749]       %add_6.2 : Float(20, 128, strides=[128, 1], requires_grad=1, device=cpu),
[DEBUG tensorexpr_fuser.cpp:749]       %scale_gradient_2.1 : Float(20, 256, strides=[256, 1], requires_grad=1, device=cpu),
[DEBUG tensorexpr_fuser.cpp:749]       %over_arch__task_arch__dedicated_arch__dedicated_arch_1__building_blocks_1__residual_mapping_7.1 : Float(20, 128, strides=[128, 1], requires_grad=1, device=cpu),
[DEBUG tensorexpr_fuser.cpp:749]       %add_9.2 : Float(20, 128, strides=[128, 1], requires_grad=1, device=cpu)):
[DEBUG tensorexpr_fuser.cpp:749]   %39 : int = prim::Constant[value=1]()
[DEBUG tensorexpr_fuser.cpp:749]   %add_11.2 : Float(20, 128, strides=[128, 1], requires_grad=1, device=cpu) = aten::add(%over_arch__task_arch__dedicated_arch__dedicated_arch_1__building_blocks_1__residual_mapping_7.1, %add_9.2, %39) # <eval_with_key>.47:498:13
[DEBUG tensorexpr_fuser.cpp:749]   %result.5 : Float(20, 128, strides=[128, 1], requires_grad=1, device=cpu) = aten::relu(%add_11.2) # /mnt/xarfuse/uid-172471/481b8707-seed-c381807f-2aa1-499d-b991-439c4a485aae-ns-4026532494/torch/nn/functional.py:1442:17
[DEBUG tensorexpr_fuser.cpp:749]   %32 : Tensor[] = prim::ListConstruct(%scale_gradient_2.1, %result.5)
[DEBUG tensorexpr_fuser.cpp:749]   %cat_10.2 : Float(20, 384, strides=[384, 1], requires_grad=1, device=cpu) = aten::cat(%32, %39) # <eval_with_key>.47:502:13
[DEBUG tensorexpr_fuser.cpp:749]   %add_8.2 : Float(20, 128, strides=[128, 1], requires_grad=1, device=cpu) = aten::add(%over_arch__task_arch__dedicated_arch__dedicated_arch_1__building_blocks_1__residual_mapping_5.1, %add_6.2, %39) # <eval_with_key>.47:487:12
[DEBUG tensorexpr_fuser.cpp:749]   %result.13 : Float(20, 128, strides=[128, 1], requires_grad=1, device=cpu) = aten::relu(%add_8.2) # /mnt/xarfuse/uid-172471/481b8707-seed-c381807f-2aa1-499d-b991-439c4a485aae-ns-4026532494/torch/nn/functional.py:1442:17
[DEBUG tensorexpr_fuser.cpp:749]   %18 : Tensor[] = prim::ListConstruct(%scale_gradient_1.1, %result.13)
[DEBUG tensorexpr_fuser.cpp:749]   %cat_9.2 : Float(20, 384, strides=[384, 1], requires_grad=1, device=cpu) = aten::cat(%18, %39) # <eval_with_key>.47:501:12
[DEBUG tensorexpr_fuser.cpp:749]   %add_5.2 : Float(20, 128, strides=[128, 1], requires_grad=1, device=cpu) = aten::add(%over_arch__task_arch__dedicated_arch__dedicated_arch_1__building_blocks_1__residual_mapping_3.1, %add_3.1, %39) # <eval_with_key>.47:476:12
[DEBUG tensorexpr_fuser.cpp:749]   %result.17 : Float(20, 128, strides=[128, 1], requires_grad=1, device=cpu) = aten::relu(%add_5.2) # /mnt/xarfuse/uid-172471/481b8707-seed-c381807f-2aa1-499d-b991-439c4a485aae-ns-4026532494/torch/nn/functional.py:1442:17
[DEBUG tensorexpr_fuser.cpp:749]   %5 : Tensor[] = prim::ListConstruct(%scale_gradient.1, %result.17)
[DEBUG tensorexpr_fuser.cpp:749]   %cat_8.2 : Float(20, 384, strides=[384, 1], requires_grad=1, device=cpu) = aten::cat(%5, %39) # <eval_with_key>.47:500:12
[DEBUG tensorexpr_fuser.cpp:749]   return (%cat_8.2, %cat_9.2, %cat_10.2)
[DEBUG tensorexpr_fuser.cpp:749] </GRAPH_EXPORT>
[DUMP tensorexpr_fuser.cpp:543] After inlining small fusion groups:
[DUMP tensorexpr_fuser.cpp:543] graph(%self.1 : __torch__._torch_package_0_.hpc.torchrec.models.video.video_watch.___torch_mangle_0.VideoWatchFull,
