graph torch-jit-export (
  %0[FLOAT, 2x3x224x224]
  %1[FLOAT, 64x3x7x7]
  %2[FLOAT, 64]
  %3[FLOAT, 64]
  %4[FLOAT, 64]
  %5[FLOAT, 64]
  %6[FLOAT, 64]
  %7[FLOAT, 64]
  %8[FLOAT, 64]
  %9[FLOAT, 64]
  %10[FLOAT, 128x64x1x1]
  %11[FLOAT, 128]
  %12[FLOAT, 128]
  %13[FLOAT, 128]
  %14[FLOAT, 128]
  %15[FLOAT, 32x128x3x3]
  %16[FLOAT, 96]
  %17[FLOAT, 96]
  %18[FLOAT, 96]
  %19[FLOAT, 96]
  %20[FLOAT, 128x96x1x1]
  %21[FLOAT, 128]
  %22[FLOAT, 128]
  %23[FLOAT, 128]
  %24[FLOAT, 128]
  %25[FLOAT, 32x128x3x3]
  %26[FLOAT, 128]
  %27[FLOAT, 128]
  %28[FLOAT, 128]
  %29[FLOAT, 128]
  %30[FLOAT, 128x128x1x1]
  %31[FLOAT, 128]
  %32[FLOAT, 128]
  %33[FLOAT, 128]
  %34[FLOAT, 128]
  %35[FLOAT, 32x128x3x3]
  %36[FLOAT, 160]
  %37[FLOAT, 160]
  %38[FLOAT, 160]
  %39[FLOAT, 160]
  %40[FLOAT, 128x160x1x1]
  %41[FLOAT, 128]
  %42[FLOAT, 128]
  %43[FLOAT, 128]
  %44[FLOAT, 128]
  %45[FLOAT, 32x128x3x3]
  %46[FLOAT, 192]
  %47[FLOAT, 192]
  %48[FLOAT, 192]
  %49[FLOAT, 192]
  %50[FLOAT, 128x192x1x1]
  %51[FLOAT, 128]
  %52[FLOAT, 128]
  %53[FLOAT, 128]
  %54[FLOAT, 128]
  %55[FLOAT, 32x128x3x3]
  %56[FLOAT, 224]
  %57[FLOAT, 224]
  %58[FLOAT, 224]
  %59[FLOAT, 224]
  %60[FLOAT, 128x224x1x1]
  %61[FLOAT, 128]
  %62[FLOAT, 128]
  %63[FLOAT, 128]
  %64[FLOAT, 128]
  %65[FLOAT, 32x128x3x3]
  %66[FLOAT, 256]
  %67[FLOAT, 256]
  %68[FLOAT, 256]
  %69[FLOAT, 256]
  %70[FLOAT, 128x256x1x1]
  %71[FLOAT, 128]
  %72[FLOAT, 128]
  %73[FLOAT, 128]
  %74[FLOAT, 128]
  %75[FLOAT, 128x128x1x1]
  %76[FLOAT, 128]
  %77[FLOAT, 128]
  %78[FLOAT, 128]
  %79[FLOAT, 128]
  %80[FLOAT, 32x128x3x3]
  %81[FLOAT, 160]
  %82[FLOAT, 160]
  %83[FLOAT, 160]
  %84[FLOAT, 160]
  %85[FLOAT, 128x160x1x1]
  %86[FLOAT, 128]
  %87[FLOAT, 128]
  %88[FLOAT, 128]
  %89[FLOAT, 128]
  %90[FLOAT, 32x128x3x3]
  %91[FLOAT, 192]
  %92[FLOAT, 192]
  %93[FLOAT, 192]
  %94[FLOAT, 192]
  %95[FLOAT, 128x192x1x1]
  %96[FLOAT, 128]
  %97[FLOAT, 128]
  %98[FLOAT, 128]
  %99[FLOAT, 128]
  %100[FLOAT, 32x128x3x3]
  %101[FLOAT, 224]
  %102[FLOAT, 224]
  %103[FLOAT, 224]
  %104[FLOAT, 224]
  %105[FLOAT, 128x224x1x1]
  %106[FLOAT, 128]
  %107[FLOAT, 128]
  %108[FLOAT, 128]
  %109[FLOAT, 128]
  %110[FLOAT, 32x128x3x3]
  %111[FLOAT, 256]
  %112[FLOAT, 256]
  %113[FLOAT, 256]
  %114[FLOAT, 256]
  %115[FLOAT, 128x256x1x1]
  %116[FLOAT, 128]
  %117[FLOAT, 128]
  %118[FLOAT, 128]
  %119[FLOAT, 128]
  %120[FLOAT, 32x128x3x3]
  %121[FLOAT, 288]
  %122[FLOAT, 288]
  %123[FLOAT, 288]
  %124[FLOAT, 288]
  %125[FLOAT, 128x288x1x1]
  %126[FLOAT, 128]
  %127[FLOAT, 128]
  %128[FLOAT, 128]
  %129[FLOAT, 128]
  %130[FLOAT, 32x128x3x3]
  %131[FLOAT, 320]
  %132[FLOAT, 320]
  %133[FLOAT, 320]
  %134[FLOAT, 320]
  %135[FLOAT, 128x320x1x1]
  %136[FLOAT, 128]
  %137[FLOAT, 128]
  %138[FLOAT, 128]
  %139[FLOAT, 128]
  %140[FLOAT, 32x128x3x3]
  %141[FLOAT, 352]
  %142[FLOAT, 352]
  %143[FLOAT, 352]
  %144[FLOAT, 352]
  %145[FLOAT, 128x352x1x1]
  %146[FLOAT, 128]
  %147[FLOAT, 128]
  %148[FLOAT, 128]
  %149[FLOAT, 128]
  %150[FLOAT, 32x128x3x3]
  %151[FLOAT, 384]
  %152[FLOAT, 384]
  %153[FLOAT, 384]
  %154[FLOAT, 384]
  %155[FLOAT, 128x384x1x1]
  %156[FLOAT, 128]
  %157[FLOAT, 128]
  %158[FLOAT, 128]
  %159[FLOAT, 128]
  %160[FLOAT, 32x128x3x3]
  %161[FLOAT, 416]
  %162[FLOAT, 416]
  %163[FLOAT, 416]
  %164[FLOAT, 416]
  %165[FLOAT, 128x416x1x1]
  %166[FLOAT, 128]
  %167[FLOAT, 128]
  %168[FLOAT, 128]
  %169[FLOAT, 128]
  %170[FLOAT, 32x128x3x3]
  %171[FLOAT, 448]
  %172[FLOAT, 448]
  %173[FLOAT, 448]
  %174[FLOAT, 448]
  %175[FLOAT, 128x448x1x1]
  %176[FLOAT, 128]
  %177[FLOAT, 128]
  %178[FLOAT, 128]
  %179[FLOAT, 128]
  %180[FLOAT, 32x128x3x3]
  %181[FLOAT, 480]
  %182[FLOAT, 480]
  %183[FLOAT, 480]
  %184[FLOAT, 480]
  %185[FLOAT, 128x480x1x1]
  %186[FLOAT, 128]
  %187[FLOAT, 128]
  %188[FLOAT, 128]
  %189[FLOAT, 128]
  %190[FLOAT, 32x128x3x3]
  %191[FLOAT, 512]
  %192[FLOAT, 512]
  %193[FLOAT, 512]
  %194[FLOAT, 512]
  %195[FLOAT, 256x512x1x1]
  %196[FLOAT, 256]
  %197[FLOAT, 256]
  %198[FLOAT, 256]
  %199[FLOAT, 256]
  %200[FLOAT, 128x256x1x1]
  %201[FLOAT, 128]
  %202[FLOAT, 128]
  %203[FLOAT, 128]
  %204[FLOAT, 128]
  %205[FLOAT, 32x128x3x3]
  %206[FLOAT, 288]
  %207[FLOAT, 288]
  %208[FLOAT, 288]
  %209[FLOAT, 288]
  %210[FLOAT, 128x288x1x1]
  %211[FLOAT, 128]
  %212[FLOAT, 128]
  %213[FLOAT, 128]
  %214[FLOAT, 128]
  %215[FLOAT, 32x128x3x3]
  %216[FLOAT, 320]
  %217[FLOAT, 320]
  %218[FLOAT, 320]
  %219[FLOAT, 320]
  %220[FLOAT, 128x320x1x1]
  %221[FLOAT, 128]
  %222[FLOAT, 128]
  %223[FLOAT, 128]
  %224[FLOAT, 128]
  %225[FLOAT, 32x128x3x3]
  %226[FLOAT, 352]
  %227[FLOAT, 352]
  %228[FLOAT, 352]
  %229[FLOAT, 352]
  %230[FLOAT, 128x352x1x1]
  %231[FLOAT, 128]
  %232[FLOAT, 128]
  %233[FLOAT, 128]
  %234[FLOAT, 128]
  %235[FLOAT, 32x128x3x3]
  %236[FLOAT, 384]
  %237[FLOAT, 384]
  %238[FLOAT, 384]
  %239[FLOAT, 384]
  %240[FLOAT, 128x384x1x1]
  %241[FLOAT, 128]
  %242[FLOAT, 128]
  %243[FLOAT, 128]
  %244[FLOAT, 128]
  %245[FLOAT, 32x128x3x3]
  %246[FLOAT, 416]
  %247[FLOAT, 416]
  %248[FLOAT, 416]
  %249[FLOAT, 416]
  %250[FLOAT, 128x416x1x1]
  %251[FLOAT, 128]
  %252[FLOAT, 128]
  %253[FLOAT, 128]
  %254[FLOAT, 128]
  %255[FLOAT, 32x128x3x3]
  %256[FLOAT, 448]
  %257[FLOAT, 448]
  %258[FLOAT, 448]
  %259[FLOAT, 448]
  %260[FLOAT, 128x448x1x1]
  %261[FLOAT, 128]
  %262[FLOAT, 128]
  %263[FLOAT, 128]
  %264[FLOAT, 128]
  %265[FLOAT, 32x128x3x3]
  %266[FLOAT, 480]
  %267[FLOAT, 480]
  %268[FLOAT, 480]
  %269[FLOAT, 480]
  %270[FLOAT, 128x480x1x1]
  %271[FLOAT, 128]
  %272[FLOAT, 128]
  %273[FLOAT, 128]
  %274[FLOAT, 128]
  %275[FLOAT, 32x128x3x3]
  %276[FLOAT, 512]
  %277[FLOAT, 512]
  %278[FLOAT, 512]
  %279[FLOAT, 512]
  %280[FLOAT, 128x512x1x1]
  %281[FLOAT, 128]
  %282[FLOAT, 128]
  %283[FLOAT, 128]
  %284[FLOAT, 128]
  %285[FLOAT, 32x128x3x3]
  %286[FLOAT, 544]
  %287[FLOAT, 544]
  %288[FLOAT, 544]
  %289[FLOAT, 544]
  %290[FLOAT, 128x544x1x1]
  %291[FLOAT, 128]
  %292[FLOAT, 128]
  %293[FLOAT, 128]
  %294[FLOAT, 128]
  %295[FLOAT, 32x128x3x3]
  %296[FLOAT, 576]
  %297[FLOAT, 576]
  %298[FLOAT, 576]
  %299[FLOAT, 576]
  %300[FLOAT, 128x576x1x1]
  %301[FLOAT, 128]
  %302[FLOAT, 128]
  %303[FLOAT, 128]
  %304[FLOAT, 128]
  %305[FLOAT, 32x128x3x3]
  %306[FLOAT, 608]
  %307[FLOAT, 608]
  %308[FLOAT, 608]
  %309[FLOAT, 608]
  %310[FLOAT, 128x608x1x1]
  %311[FLOAT, 128]
  %312[FLOAT, 128]
  %313[FLOAT, 128]
  %314[FLOAT, 128]
  %315[FLOAT, 32x128x3x3]
  %316[FLOAT, 640]
  %317[FLOAT, 640]
  %318[FLOAT, 640]
  %319[FLOAT, 640]
  %320[FLOAT, 128x640x1x1]
  %321[FLOAT, 128]
  %322[FLOAT, 128]
  %323[FLOAT, 128]
  %324[FLOAT, 128]
  %325[FLOAT, 32x128x3x3]
  %326[FLOAT, 672]
  %327[FLOAT, 672]
  %328[FLOAT, 672]
  %329[FLOAT, 672]
  %330[FLOAT, 128x672x1x1]
  %331[FLOAT, 128]
  %332[FLOAT, 128]
  %333[FLOAT, 128]
  %334[FLOAT, 128]
  %335[FLOAT, 32x128x3x3]
  %336[FLOAT, 704]
  %337[FLOAT, 704]
  %338[FLOAT, 704]
  %339[FLOAT, 704]
  %340[FLOAT, 128x704x1x1]
  %341[FLOAT, 128]
  %342[FLOAT, 128]
  %343[FLOAT, 128]
  %344[FLOAT, 128]
  %345[FLOAT, 32x128x3x3]
  %346[FLOAT, 736]
  %347[FLOAT, 736]
  %348[FLOAT, 736]
  %349[FLOAT, 736]
  %350[FLOAT, 128x736x1x1]
  %351[FLOAT, 128]
  %352[FLOAT, 128]
  %353[FLOAT, 128]
  %354[FLOAT, 128]
  %355[FLOAT, 32x128x3x3]
  %356[FLOAT, 768]
  %357[FLOAT, 768]
  %358[FLOAT, 768]
  %359[FLOAT, 768]
  %360[FLOAT, 128x768x1x1]
  %361[FLOAT, 128]
  %362[FLOAT, 128]
  %363[FLOAT, 128]
  %364[FLOAT, 128]
  %365[FLOAT, 32x128x3x3]
  %366[FLOAT, 800]
  %367[FLOAT, 800]
  %368[FLOAT, 800]
  %369[FLOAT, 800]
  %370[FLOAT, 128x800x1x1]
  %371[FLOAT, 128]
  %372[FLOAT, 128]
  %373[FLOAT, 128]
  %374[FLOAT, 128]
  %375[FLOAT, 32x128x3x3]
  %376[FLOAT, 832]
  %377[FLOAT, 832]
  %378[FLOAT, 832]
  %379[FLOAT, 832]
  %380[FLOAT, 128x832x1x1]
  %381[FLOAT, 128]
  %382[FLOAT, 128]
  %383[FLOAT, 128]
  %384[FLOAT, 128]
  %385[FLOAT, 32x128x3x3]
  %386[FLOAT, 864]
  %387[FLOAT, 864]
  %388[FLOAT, 864]
  %389[FLOAT, 864]
  %390[FLOAT, 128x864x1x1]
  %391[FLOAT, 128]
  %392[FLOAT, 128]
  %393[FLOAT, 128]
  %394[FLOAT, 128]
  %395[FLOAT, 32x128x3x3]
  %396[FLOAT, 896]
  %397[FLOAT, 896]
  %398[FLOAT, 896]
  %399[FLOAT, 896]
  %400[FLOAT, 128x896x1x1]
  %401[FLOAT, 128]
  %402[FLOAT, 128]
  %403[FLOAT, 128]
  %404[FLOAT, 128]
  %405[FLOAT, 32x128x3x3]
  %406[FLOAT, 928]
  %407[FLOAT, 928]
  %408[FLOAT, 928]
  %409[FLOAT, 928]
  %410[FLOAT, 128x928x1x1]
  %411[FLOAT, 128]
  %412[FLOAT, 128]
  %413[FLOAT, 128]
  %414[FLOAT, 128]
  %415[FLOAT, 32x128x3x3]
  %416[FLOAT, 960]
  %417[FLOAT, 960]
  %418[FLOAT, 960]
  %419[FLOAT, 960]
  %420[FLOAT, 128x960x1x1]
  %421[FLOAT, 128]
  %422[FLOAT, 128]
  %423[FLOAT, 128]
  %424[FLOAT, 128]
  %425[FLOAT, 32x128x3x3]
  %426[FLOAT, 992]
  %427[FLOAT, 992]
  %428[FLOAT, 992]
  %429[FLOAT, 992]
  %430[FLOAT, 128x992x1x1]
  %431[FLOAT, 128]
  %432[FLOAT, 128]
  %433[FLOAT, 128]
  %434[FLOAT, 128]
  %435[FLOAT, 32x128x3x3]
  %436[FLOAT, 1024]
  %437[FLOAT, 1024]
  %438[FLOAT, 1024]
  %439[FLOAT, 1024]
  %440[FLOAT, 512x1024x1x1]
  %441[FLOAT, 512]
  %442[FLOAT, 512]
  %443[FLOAT, 512]
  %444[FLOAT, 512]
  %445[FLOAT, 128x512x1x1]
  %446[FLOAT, 128]
  %447[FLOAT, 128]
  %448[FLOAT, 128]
  %449[FLOAT, 128]
  %450[FLOAT, 32x128x3x3]
  %451[FLOAT, 544]
  %452[FLOAT, 544]
  %453[FLOAT, 544]
  %454[FLOAT, 544]
  %455[FLOAT, 128x544x1x1]
  %456[FLOAT, 128]
  %457[FLOAT, 128]
  %458[FLOAT, 128]
  %459[FLOAT, 128]
  %460[FLOAT, 32x128x3x3]
  %461[FLOAT, 576]
  %462[FLOAT, 576]
  %463[FLOAT, 576]
  %464[FLOAT, 576]
  %465[FLOAT, 128x576x1x1]
  %466[FLOAT, 128]
  %467[FLOAT, 128]
  %468[FLOAT, 128]
  %469[FLOAT, 128]
  %470[FLOAT, 32x128x3x3]
  %471[FLOAT, 608]
  %472[FLOAT, 608]
  %473[FLOAT, 608]
  %474[FLOAT, 608]
  %475[FLOAT, 128x608x1x1]
  %476[FLOAT, 128]
  %477[FLOAT, 128]
  %478[FLOAT, 128]
  %479[FLOAT, 128]
  %480[FLOAT, 32x128x3x3]
  %481[FLOAT, 640]
  %482[FLOAT, 640]
  %483[FLOAT, 640]
  %484[FLOAT, 640]
  %485[FLOAT, 128x640x1x1]
  %486[FLOAT, 128]
  %487[FLOAT, 128]
  %488[FLOAT, 128]
  %489[FLOAT, 128]
  %490[FLOAT, 32x128x3x3]
  %491[FLOAT, 672]
  %492[FLOAT, 672]
  %493[FLOAT, 672]
  %494[FLOAT, 672]
  %495[FLOAT, 128x672x1x1]
  %496[FLOAT, 128]
  %497[FLOAT, 128]
  %498[FLOAT, 128]
  %499[FLOAT, 128]
  %500[FLOAT, 32x128x3x3]
  %501[FLOAT, 704]
  %502[FLOAT, 704]
  %503[FLOAT, 704]
  %504[FLOAT, 704]
  %505[FLOAT, 128x704x1x1]
  %506[FLOAT, 128]
  %507[FLOAT, 128]
  %508[FLOAT, 128]
  %509[FLOAT, 128]
  %510[FLOAT, 32x128x3x3]
  %511[FLOAT, 736]
  %512[FLOAT, 736]
  %513[FLOAT, 736]
  %514[FLOAT, 736]
  %515[FLOAT, 128x736x1x1]
  %516[FLOAT, 128]
  %517[FLOAT, 128]
  %518[FLOAT, 128]
  %519[FLOAT, 128]
  %520[FLOAT, 32x128x3x3]
  %521[FLOAT, 768]
  %522[FLOAT, 768]
  %523[FLOAT, 768]
  %524[FLOAT, 768]
  %525[FLOAT, 128x768x1x1]
  %526[FLOAT, 128]
  %527[FLOAT, 128]
  %528[FLOAT, 128]
  %529[FLOAT, 128]
  %530[FLOAT, 32x128x3x3]
  %531[FLOAT, 800]
  %532[FLOAT, 800]
  %533[FLOAT, 800]
  %534[FLOAT, 800]
  %535[FLOAT, 128x800x1x1]
  %536[FLOAT, 128]
  %537[FLOAT, 128]
  %538[FLOAT, 128]
  %539[FLOAT, 128]
  %540[FLOAT, 32x128x3x3]
  %541[FLOAT, 832]
  %542[FLOAT, 832]
  %543[FLOAT, 832]
  %544[FLOAT, 832]
  %545[FLOAT, 128x832x1x1]
  %546[FLOAT, 128]
  %547[FLOAT, 128]
  %548[FLOAT, 128]
  %549[FLOAT, 128]
  %550[FLOAT, 32x128x3x3]
  %551[FLOAT, 864]
  %552[FLOAT, 864]
  %553[FLOAT, 864]
  %554[FLOAT, 864]
  %555[FLOAT, 128x864x1x1]
  %556[FLOAT, 128]
  %557[FLOAT, 128]
  %558[FLOAT, 128]
  %559[FLOAT, 128]
  %560[FLOAT, 32x128x3x3]
  %561[FLOAT, 896]
  %562[FLOAT, 896]
  %563[FLOAT, 896]
  %564[FLOAT, 896]
  %565[FLOAT, 128x896x1x1]
  %566[FLOAT, 128]
  %567[FLOAT, 128]
  %568[FLOAT, 128]
  %569[FLOAT, 128]
  %570[FLOAT, 32x128x3x3]
  %571[FLOAT, 928]
  %572[FLOAT, 928]
  %573[FLOAT, 928]
  %574[FLOAT, 928]
  %575[FLOAT, 128x928x1x1]
  %576[FLOAT, 128]
  %577[FLOAT, 128]
  %578[FLOAT, 128]
  %579[FLOAT, 128]
  %580[FLOAT, 32x128x3x3]
  %581[FLOAT, 960]
  %582[FLOAT, 960]
  %583[FLOAT, 960]
  %584[FLOAT, 960]
  %585[FLOAT, 128x960x1x1]
  %586[FLOAT, 128]
  %587[FLOAT, 128]
  %588[FLOAT, 128]
  %589[FLOAT, 128]
  %590[FLOAT, 32x128x3x3]
  %591[FLOAT, 992]
  %592[FLOAT, 992]
  %593[FLOAT, 992]
  %594[FLOAT, 992]
  %595[FLOAT, 128x992x1x1]
  %596[FLOAT, 128]
  %597[FLOAT, 128]
  %598[FLOAT, 128]
  %599[FLOAT, 128]
  %600[FLOAT, 32x128x3x3]
  %601[FLOAT, 1024]
  %602[FLOAT, 1024]
  %603[FLOAT, 1024]
  %604[FLOAT, 1024]
  %605[FLOAT, 1000x1024]
  %606[FLOAT, 1000]
) {
  %607 = Conv[dilations = [1, 1], group = 1, kernel_shape = [7, 7], pads = [3, 3, 3, 3], strides = [2, 2]](%0, %1)
  %608 = BatchNormalization[epsilon = 9.99999974737875e-06, is_test = 1, momentum = 0.899999976158142](%607, %2, %3, %4, %5)
  %609 = Relu(%608)
  %610 = MaxPool[kernel_shape = [3, 3], pads = [1, 1, 1, 1], strides = [2, 2]](%609)
  %611 = BatchNormalization[epsilon = 9.99999974737875e-06, is_test = 1, momentum = 0.899999976158142](%610, %6, %7, %8, %9)
  %612 = Relu(%611)
  %613 = Conv[dilations = [1, 1], group = 1, kernel_shape = [1, 1], pads = [0, 0, 0, 0], strides = [1, 1]](%612, %10)
  %614 = BatchNormalization[epsilon = 9.99999974737875e-06, is_test = 1, momentum = 0.899999976158142](%613, %11, %12, %13, %14)
  %615 = Relu(%614)
  %616 = Conv[dilations = [1, 1], group = 1, kernel_shape = [3, 3], pads = [1, 1, 1, 1], strides = [1, 1]](%615, %15)
  %617 = Concat[axis = 1](%610, %616)
  %618 = BatchNormalization[epsilon = 9.99999974737875e-06, is_test = 1, momentum = 0.899999976158142](%617, %16, %17, %18, %19)
  %619 = Relu(%618)
  %620 = Conv[dilations = [1, 1], group = 1, kernel_shape = [1, 1], pads = [0, 0, 0, 0], strides = [1, 1]](%619, %20)
  %621 = BatchNormalization[epsilon = 9.99999974737875e-06, is_test = 1, momentum = 0.899999976158142](%620, %21, %22, %23, %24)
  %622 = Relu(%621)
  %623 = Conv[dilations = [1, 1], group = 1, kernel_shape = [3, 3], pads = [1, 1, 1, 1], strides = [1, 1]](%622, %25)
  %624 = Concat[axis = 1](%617, %623)
  %625 = BatchNormalization[epsilon = 9.99999974737875e-06, is_test = 1, momentum = 0.899999976158142](%624, %26, %27, %28, %29)
  %626 = Relu(%625)
  %627 = Conv[dilations = [1, 1], group = 1, kernel_shape = [1, 1], pads = [0, 0, 0, 0], strides = [1, 1]](%626, %30)
  %628 = BatchNormalization[epsilon = 9.99999974737875e-06, is_test = 1, momentum = 0.899999976158142](%627, %31, %32, %33, %34)
  %629 = Relu(%628)
  %630 = Conv[dilations = [1, 1], group = 1, kernel_shape = [3, 3], pads = [1, 1, 1, 1], strides = [1, 1]](%629, %35)
  %631 = Concat[axis = 1](%624, %630)
  %632 = BatchNormalization[epsilon = 9.99999974737875e-06, is_test = 1, momentum = 0.899999976158142](%631, %36, %37, %38, %39)
  %633 = Relu(%632)
  %634 = Conv[dilations = [1, 1], group = 1, kernel_shape = [1, 1], pads = [0, 0, 0, 0], strides = [1, 1]](%633, %40)
  %635 = BatchNormalization[epsilon = 9.99999974737875e-06, is_test = 1, momentum = 0.899999976158142](%634, %41, %42, %43, %44)
  %636 = Relu(%635)
  %637 = Conv[dilations = [1, 1], group = 1, kernel_shape = [3, 3], pads = [1, 1, 1, 1], strides = [1, 1]](%636, %45)
  %638 = Concat[axis = 1](%631, %637)
  %639 = BatchNormalization[epsilon = 9.99999974737875e-06, is_test = 1, momentum = 0.899999976158142](%638, %46, %47, %48, %49)
  %640 = Relu(%639)
  %641 = Conv[dilations = [1, 1], group = 1, kernel_shape = [1, 1], pads = [0, 0, 0, 0], strides = [1, 1]](%640, %50)
  %642 = BatchNormalization[epsilon = 9.99999974737875e-06, is_test = 1, momentum = 0.899999976158142](%641, %51, %52, %53, %54)
  %643 = Relu(%642)
  %644 = Conv[dilations = [1, 1], group = 1, kernel_shape = [3, 3], pads = [1, 1, 1, 1], strides = [1, 1]](%643, %55)
  %645 = Concat[axis = 1](%638, %644)
  %646 = BatchNormalization[epsilon = 9.99999974737875e-06, is_test = 1, momentum = 0.899999976158142](%645, %56, %57, %58, %59)
  %647 = Relu(%646)
  %648 = Conv[dilations = [1, 1], group = 1, kernel_shape = [1, 1], pads = [0, 0, 0, 0], strides = [1, 1]](%647, %60)
  %649 = BatchNormalization[epsilon = 9.99999974737875e-06, is_test = 1, momentum = 0.899999976158142](%648, %61, %62, %63, %64)
  %650 = Relu(%649)
  %651 = Conv[dilations = [1, 1], group = 1, kernel_shape = [3, 3], pads = [1, 1, 1, 1], strides = [1, 1]](%650, %65)
  %652 = Concat[axis = 1](%645, %651)
  %653 = BatchNormalization[epsilon = 9.99999974737875e-06, is_test = 1, momentum = 0.899999976158142](%652, %66, %67, %68, %69)
  %654 = Relu(%653)
  %655 = Conv[dilations = [1, 1], group = 1, kernel_shape = [1, 1], pads = [0, 0, 0, 0], strides = [1, 1]](%654, %70)
  %656 = AveragePool[kernel_shape = [2, 2], pads = [0, 0, 0, 0], strides = [2, 2]](%655)
  %657 = BatchNormalization[epsilon = 9.99999974737875e-06, is_test = 1, momentum = 0.899999976158142](%656, %71, %72, %73, %74)
  %658 = Relu(%657)
  %659 = Conv[dilations = [1, 1], group = 1, kernel_shape = [1, 1], pads = [0, 0, 0, 0], strides = [1, 1]](%658, %75)
  %660 = BatchNormalization[epsilon = 9.99999974737875e-06, is_test = 1, momentum = 0.899999976158142](%659, %76, %77, %78, %79)
  %661 = Relu(%660)
  %662 = Conv[dilations = [1, 1], group = 1, kernel_shape = [3, 3], pads = [1, 1, 1, 1], strides = [1, 1]](%661, %80)
  %663 = Concat[axis = 1](%656, %662)
  %664 = BatchNormalization[epsilon = 9.99999974737875e-06, is_test = 1, momentum = 0.899999976158142](%663, %81, %82, %83, %84)
  %665 = Relu(%664)
  %666 = Conv[dilations = [1, 1], group = 1, kernel_shape = [1, 1], pads = [0, 0, 0, 0], strides = [1, 1]](%665, %85)
  %667 = BatchNormalization[epsilon = 9.99999974737875e-06, is_test = 1, momentum = 0.899999976158142](%666, %86, %87, %88, %89)
  %668 = Relu(%667)
  %669 = Conv[dilations = [1, 1], group = 1, kernel_shape = [3, 3], pads = [1, 1, 1, 1], strides = [1, 1]](%668, %90)
  %670 = Concat[axis = 1](%663, %669)
  %671 = BatchNormalization[epsilon = 9.99999974737875e-06, is_test = 1, momentum = 0.899999976158142](%670, %91, %92, %93, %94)
  %672 = Relu(%671)
  %673 = Conv[dilations = [1, 1], group = 1, kernel_shape = [1, 1], pads = [0, 0, 0, 0], strides = [1, 1]](%672, %95)
  %674 = BatchNormalization[epsilon = 9.99999974737875e-06, is_test = 1, momentum = 0.899999976158142](%673, %96, %97, %98, %99)
  %675 = Relu(%674)
  %676 = Conv[dilations = [1, 1], group = 1, kernel_shape = [3, 3], pads = [1, 1, 1, 1], strides = [1, 1]](%675, %100)
  %677 = Concat[axis = 1](%670, %676)
  %678 = BatchNormalization[epsilon = 9.99999974737875e-06, is_test = 1, momentum = 0.899999976158142](%677, %101, %102, %103, %104)
  %679 = Relu(%678)
  %680 = Conv[dilations = [1, 1], group = 1, kernel_shape = [1, 1], pads = [0, 0, 0, 0], strides = [1, 1]](%679, %105)
  %681 = BatchNormalization[epsilon = 9.99999974737875e-06, is_test = 1, momentum = 0.899999976158142](%680, %106, %107, %108, %109)
  %682 = Relu(%681)
  %683 = Conv[dilations = [1, 1], group = 1, kernel_shape = [3, 3], pads = [1, 1, 1, 1], strides = [1, 1]](%682, %110)
  %684 = Concat[axis = 1](%677, %683)
  %685 = BatchNormalization[epsilon = 9.99999974737875e-06, is_test = 1, momentum = 0.899999976158142](%684, %111, %112, %113, %114)
  %686 = Relu(%685)
  %687 = Conv[dilations = [1, 1], group = 1, kernel_shape = [1, 1], pads = [0, 0, 0, 0], strides = [1, 1]](%686, %115)
  %688 = BatchNormalization[epsilon = 9.99999974737875e-06, is_test = 1, momentum = 0.899999976158142](%687, %116, %117, %118, %119)
  %689 = Relu(%688)
  %690 = Conv[dilations = [1, 1], group = 1, kernel_shape = [3, 3], pads = [1, 1, 1, 1], strides = [1, 1]](%689, %120)
  %691 = Concat[axis = 1](%684, %690)
  %692 = BatchNormalization[epsilon = 9.99999974737875e-06, is_test = 1, momentum = 0.899999976158142](%691, %121, %122, %123, %124)
  %693 = Relu(%692)
  %694 = Conv[dilations = [1, 1], group = 1, kernel_shape = [1, 1], pads = [0, 0, 0, 0], strides = [1, 1]](%693, %125)
  %695 = BatchNormalization[epsilon = 9.99999974737875e-06, is_test = 1, momentum = 0.899999976158142](%694, %126, %127, %128, %129)
  %696 = Relu(%695)
  %697 = Conv[dilations = [1, 1], group = 1, kernel_shape = [3, 3], pads = [1, 1, 1, 1], strides = [1, 1]](%696, %130)
  %698 = Concat[axis = 1](%691, %697)
  %699 = BatchNormalization[epsilon = 9.99999974737875e-06, is_test = 1, momentum = 0.899999976158142](%698, %131, %132, %133, %134)
  %700 = Relu(%699)
  %701 = Conv[dilations = [1, 1], group = 1, kernel_shape = [1, 1], pads = [0, 0, 0, 0], strides = [1, 1]](%700, %135)
  %702 = BatchNormalization[epsilon = 9.99999974737875e-06, is_test = 1, momentum = 0.899999976158142](%701, %136, %137, %138, %139)
  %703 = Relu(%702)
  %704 = Conv[dilations = [1, 1], group = 1, kernel_shape = [3, 3], pads = [1, 1, 1, 1], strides = [1, 1]](%703, %140)
  %705 = Concat[axis = 1](%698, %704)
  %706 = BatchNormalization[epsilon = 9.99999974737875e-06, is_test = 1, momentum = 0.899999976158142](%705, %141, %142, %143, %144)
  %707 = Relu(%706)
  %708 = Conv[dilations = [1, 1], group = 1, kernel_shape = [1, 1], pads = [0, 0, 0, 0], strides = [1, 1]](%707, %145)
  %709 = BatchNormalization[epsilon = 9.99999974737875e-06, is_test = 1, momentum = 0.899999976158142](%708, %146, %147, %148, %149)
  %710 = Relu(%709)
  %711 = Conv[dilations = [1, 1], group = 1, kernel_shape = [3, 3], pads = [1, 1, 1, 1], strides = [1, 1]](%710, %150)
  %712 = Concat[axis = 1](%705, %711)
  %713 = BatchNormalization[epsilon = 9.99999974737875e-06, is_test = 1, momentum = 0.899999976158142](%712, %151, %152, %153, %154)
  %714 = Relu(%713)
  %715 = Conv[dilations = [1, 1], group = 1, kernel_shape = [1, 1], pads = [0, 0, 0, 0], strides = [1, 1]](%714, %155)
  %716 = BatchNormalization[epsilon = 9.99999974737875e-06, is_test = 1, momentum = 0.899999976158142](%715, %156, %157, %158, %159)
  %717 = Relu(%716)
  %718 = Conv[dilations = [1, 1], group = 1, kernel_shape = [3, 3], pads = [1, 1, 1, 1], strides = [1, 1]](%717, %160)
  %719 = Concat[axis = 1](%712, %718)
  %720 = BatchNormalization[epsilon = 9.99999974737875e-06, is_test = 1, momentum = 0.899999976158142](%719, %161, %162, %163, %164)
  %721 = Relu(%720)
  %722 = Conv[dilations = [1, 1], group = 1, kernel_shape = [1, 1], pads = [0, 0, 0, 0], strides = [1, 1]](%721, %165)
  %723 = BatchNormalization[epsilon = 9.99999974737875e-06, is_test = 1, momentum = 0.899999976158142](%722, %166, %167, %168, %169)
  %724 = Relu(%723)
  %725 = Conv[dilations = [1, 1], group = 1, kernel_shape = [3, 3], pads = [1, 1, 1, 1], strides = [1, 1]](%724, %170)
  %726 = Concat[axis = 1](%719, %725)
  %727 = BatchNormalization[epsilon = 9.99999974737875e-06, is_test = 1, momentum = 0.899999976158142](%726, %171, %172, %173, %174)
  %728 = Relu(%727)
  %729 = Conv[dilations = [1, 1], group = 1, kernel_shape = [1, 1], pads = [0, 0, 0, 0], strides = [1, 1]](%728, %175)
  %730 = BatchNormalization[epsilon = 9.99999974737875e-06, is_test = 1, momentum = 0.899999976158142](%729, %176, %177, %178, %179)
  %731 = Relu(%730)
  %732 = Conv[dilations = [1, 1], group = 1, kernel_shape = [3, 3], pads = [1, 1, 1, 1], strides = [1, 1]](%731, %180)
  %733 = Concat[axis = 1](%726, %732)
  %734 = BatchNormalization[epsilon = 9.99999974737875e-06, is_test = 1, momentum = 0.899999976158142](%733, %181, %182, %183, %184)
  %735 = Relu(%734)
  %736 = Conv[dilations = [1, 1], group = 1, kernel_shape = [1, 1], pads = [0, 0, 0, 0], strides = [1, 1]](%735, %185)
  %737 = BatchNormalization[epsilon = 9.99999974737875e-06, is_test = 1, momentum = 0.899999976158142](%736, %186, %187, %188, %189)
  %738 = Relu(%737)
  %739 = Conv[dilations = [1, 1], group = 1, kernel_shape = [3, 3], pads = [1, 1, 1, 1], strides = [1, 1]](%738, %190)
  %740 = Concat[axis = 1](%733, %739)
  %741 = BatchNormalization[epsilon = 9.99999974737875e-06, is_test = 1, momentum = 0.899999976158142](%740, %191, %192, %193, %194)
  %742 = Relu(%741)
  %743 = Conv[dilations = [1, 1], group = 1, kernel_shape = [1, 1], pads = [0, 0, 0, 0], strides = [1, 1]](%742, %195)
  %744 = AveragePool[kernel_shape = [2, 2], pads = [0, 0, 0, 0], strides = [2, 2]](%743)
  %745 = BatchNormalization[epsilon = 9.99999974737875e-06, is_test = 1, momentum = 0.899999976158142](%744, %196, %197, %198, %199)
  %746 = Relu(%745)
  %747 = Conv[dilations = [1, 1], group = 1, kernel_shape = [1, 1], pads = [0, 0, 0, 0], strides = [1, 1]](%746, %200)
  %748 = BatchNormalization[epsilon = 9.99999974737875e-06, is_test = 1, momentum = 0.899999976158142](%747, %201, %202, %203, %204)
  %749 = Relu(%748)
  %750 = Conv[dilations = [1, 1], group = 1, kernel_shape = [3, 3], pads = [1, 1, 1, 1], strides = [1, 1]](%749, %205)
  %751 = Concat[axis = 1](%744, %750)
  %752 = BatchNormalization[epsilon = 9.99999974737875e-06, is_test = 1, momentum = 0.899999976158142](%751, %206, %207, %208, %209)
  %753 = Relu(%752)
  %754 = Conv[dilations = [1, 1], group = 1, kernel_shape = [1, 1], pads = [0, 0, 0, 0], strides = [1, 1]](%753, %210)
  %755 = BatchNormalization[epsilon = 9.99999974737875e-06, is_test = 1, momentum = 0.899999976158142](%754, %211, %212, %213, %214)
  %756 = Relu(%755)
  %757 = Conv[dilations = [1, 1], group = 1, kernel_shape = [3, 3], pads = [1, 1, 1, 1], strides = [1, 1]](%756, %215)
  %758 = Concat[axis = 1](%751, %757)
  %759 = BatchNormalization[epsilon = 9.99999974737875e-06, is_test = 1, momentum = 0.899999976158142](%758, %216, %217, %218, %219)
  %760 = Relu(%759)
  %761 = Conv[dilations = [1, 1], group = 1, kernel_shape = [1, 1], pads = [0, 0, 0, 0], strides = [1, 1]](%760, %220)
  %762 = BatchNormalization[epsilon = 9.99999974737875e-06, is_test = 1, momentum = 0.899999976158142](%761, %221, %222, %223, %224)
  %763 = Relu(%762)
  %764 = Conv[dilations = [1, 1], group = 1, kernel_shape = [3, 3], pads = [1, 1, 1, 1], strides = [1, 1]](%763, %225)
  %765 = Concat[axis = 1](%758, %764)
  %766 = BatchNormalization[epsilon = 9.99999974737875e-06, is_test = 1, momentum = 0.899999976158142](%765, %226, %227, %228, %229)
  %767 = Relu(%766)
  %768 = Conv[dilations = [1, 1], group = 1, kernel_shape = [1, 1], pads = [0, 0, 0, 0], strides = [1, 1]](%767, %230)
  %769 = BatchNormalization[epsilon = 9.99999974737875e-06, is_test = 1, momentum = 0.899999976158142](%768, %231, %232, %233, %234)
  %770 = Relu(%769)
  %771 = Conv[dilations = [1, 1], group = 1, kernel_shape = [3, 3], pads = [1, 1, 1, 1], strides = [1, 1]](%770, %235)
  %772 = Concat[axis = 1](%765, %771)
  %773 = BatchNormalization[epsilon = 9.99999974737875e-06, is_test = 1, momentum = 0.899999976158142](%772, %236, %237, %238, %239)
  %774 = Relu(%773)
  %775 = Conv[dilations = [1, 1], group = 1, kernel_shape = [1, 1], pads = [0, 0, 0, 0], strides = [1, 1]](%774, %240)
  %776 = BatchNormalization[epsilon = 9.99999974737875e-06, is_test = 1, momentum = 0.899999976158142](%775, %241, %242, %243, %244)
  %777 = Relu(%776)
  %778 = Conv[dilations = [1, 1], group = 1, kernel_shape = [3, 3], pads = [1, 1, 1, 1], strides = [1, 1]](%777, %245)
  %779 = Concat[axis = 1](%772, %778)
  %780 = BatchNormalization[epsilon = 9.99999974737875e-06, is_test = 1, momentum = 0.899999976158142](%779, %246, %247, %248, %249)
  %781 = Relu(%780)
  %782 = Conv[dilations = [1, 1], group = 1, kernel_shape = [1, 1], pads = [0, 0, 0, 0], strides = [1, 1]](%781, %250)
  %783 = BatchNormalization[epsilon = 9.99999974737875e-06, is_test = 1, momentum = 0.899999976158142](%782, %251, %252, %253, %254)
  %784 = Relu(%783)
  %785 = Conv[dilations = [1, 1], group = 1, kernel_shape = [3, 3], pads = [1, 1, 1, 1], strides = [1, 1]](%784, %255)
  %786 = Concat[axis = 1](%779, %785)
  %787 = BatchNormalization[epsilon = 9.99999974737875e-06, is_test = 1, momentum = 0.899999976158142](%786, %256, %257, %258, %259)
  %788 = Relu(%787)
  %789 = Conv[dilations = [1, 1], group = 1, kernel_shape = [1, 1], pads = [0, 0, 0, 0], strides = [1, 1]](%788, %260)
  %790 = BatchNormalization[epsilon = 9.99999974737875e-06, is_test = 1, momentum = 0.899999976158142](%789, %261, %262, %263, %264)
  %791 = Relu(%790)
  %792 = Conv[dilations = [1, 1], group = 1, kernel_shape = [3, 3], pads = [1, 1, 1, 1], strides = [1, 1]](%791, %265)
  %793 = Concat[axis = 1](%786, %792)
  %794 = BatchNormalization[epsilon = 9.99999974737875e-06, is_test = 1, momentum = 0.899999976158142](%793, %266, %267, %268, %269)
  %795 = Relu(%794)
  %796 = Conv[dilations = [1, 1], group = 1, kernel_shape = [1, 1], pads = [0, 0, 0, 0], strides = [1, 1]](%795, %270)
  %797 = BatchNormalization[epsilon = 9.99999974737875e-06, is_test = 1, momentum = 0.899999976158142](%796, %271, %272, %273, %274)
  %798 = Relu(%797)
  %799 = Conv[dilations = [1, 1], group = 1, kernel_shape = [3, 3], pads = [1, 1, 1, 1], strides = [1, 1]](%798, %275)
  %800 = Concat[axis = 1](%793, %799)
  %801 = BatchNormalization[epsilon = 9.99999974737875e-06, is_test = 1, momentum = 0.899999976158142](%800, %276, %277, %278, %279)
  %802 = Relu(%801)
  %803 = Conv[dilations = [1, 1], group = 1, kernel_shape = [1, 1], pads = [0, 0, 0, 0], strides = [1, 1]](%802, %280)
  %804 = BatchNormalization[epsilon = 9.99999974737875e-06, is_test = 1, momentum = 0.899999976158142](%803, %281, %282, %283, %284)
  %805 = Relu(%804)
  %806 = Conv[dilations = [1, 1], group = 1, kernel_shape = [3, 3], pads = [1, 1, 1, 1], strides = [1, 1]](%805, %285)
  %807 = Concat[axis = 1](%800, %806)
  %808 = BatchNormalization[epsilon = 9.99999974737875e-06, is_test = 1, momentum = 0.899999976158142](%807, %286, %287, %288, %289)
  %809 = Relu(%808)
  %810 = Conv[dilations = [1, 1], group = 1, kernel_shape = [1, 1], pads = [0, 0, 0, 0], strides = [1, 1]](%809, %290)
  %811 = BatchNormalization[epsilon = 9.99999974737875e-06, is_test = 1, momentum = 0.899999976158142](%810, %291, %292, %293, %294)
  %812 = Relu(%811)
  %813 = Conv[dilations = [1, 1], group = 1, kernel_shape = [3, 3], pads = [1, 1, 1, 1], strides = [1, 1]](%812, %295)
  %814 = Concat[axis = 1](%807, %813)
  %815 = BatchNormalization[epsilon = 9.99999974737875e-06, is_test = 1, momentum = 0.899999976158142](%814, %296, %297, %298, %299)
  %816 = Relu(%815)
  %817 = Conv[dilations = [1, 1], group = 1, kernel_shape = [1, 1], pads = [0, 0, 0, 0], strides = [1, 1]](%816, %300)
  %818 = BatchNormalization[epsilon = 9.99999974737875e-06, is_test = 1, momentum = 0.899999976158142](%817, %301, %302, %303, %304)
  %819 = Relu(%818)
  %820 = Conv[dilations = [1, 1], group = 1, kernel_shape = [3, 3], pads = [1, 1, 1, 1], strides = [1, 1]](%819, %305)
  %821 = Concat[axis = 1](%814, %820)
  %822 = BatchNormalization[epsilon = 9.99999974737875e-06, is_test = 1, momentum = 0.899999976158142](%821, %306, %307, %308, %309)
  %823 = Relu(%822)
  %824 = Conv[dilations = [1, 1], group = 1, kernel_shape = [1, 1], pads = [0, 0, 0, 0], strides = [1, 1]](%823, %310)
  %825 = BatchNormalization[epsilon = 9.99999974737875e-06, is_test = 1, momentum = 0.899999976158142](%824, %311, %312, %313, %314)
  %826 = Relu(%825)
  %827 = Conv[dilations = [1, 1], group = 1, kernel_shape = [3, 3], pads = [1, 1, 1, 1], strides = [1, 1]](%826, %315)
  %828 = Concat[axis = 1](%821, %827)
  %829 = BatchNormalization[epsilon = 9.99999974737875e-06, is_test = 1, momentum = 0.899999976158142](%828, %316, %317, %318, %319)
  %830 = Relu(%829)
  %831 = Conv[dilations = [1, 1], group = 1, kernel_shape = [1, 1], pads = [0, 0, 0, 0], strides = [1, 1]](%830, %320)
  %832 = BatchNormalization[epsilon = 9.99999974737875e-06, is_test = 1, momentum = 0.899999976158142](%831, %321, %322, %323, %324)
  %833 = Relu(%832)
  %834 = Conv[dilations = [1, 1], group = 1, kernel_shape = [3, 3], pads = [1, 1, 1, 1], strides = [1, 1]](%833, %325)
  %835 = Concat[axis = 1](%828, %834)
  %836 = BatchNormalization[epsilon = 9.99999974737875e-06, is_test = 1, momentum = 0.899999976158142](%835, %326, %327, %328, %329)
  %837 = Relu(%836)
  %838 = Conv[dilations = [1, 1], group = 1, kernel_shape = [1, 1], pads = [0, 0, 0, 0], strides = [1, 1]](%837, %330)
  %839 = BatchNormalization[epsilon = 9.99999974737875e-06, is_test = 1, momentum = 0.899999976158142](%838, %331, %332, %333, %334)
  %840 = Relu(%839)
  %841 = Conv[dilations = [1, 1], group = 1, kernel_shape = [3, 3], pads = [1, 1, 1, 1], strides = [1, 1]](%840, %335)
  %842 = Concat[axis = 1](%835, %841)
  %843 = BatchNormalization[epsilon = 9.99999974737875e-06, is_test = 1, momentum = 0.899999976158142](%842, %336, %337, %338, %339)
  %844 = Relu(%843)
  %845 = Conv[dilations = [1, 1], group = 1, kernel_shape = [1, 1], pads = [0, 0, 0, 0], strides = [1, 1]](%844, %340)
  %846 = BatchNormalization[epsilon = 9.99999974737875e-06, is_test = 1, momentum = 0.899999976158142](%845, %341, %342, %343, %344)
  %847 = Relu(%846)
  %848 = Conv[dilations = [1, 1], group = 1, kernel_shape = [3, 3], pads = [1, 1, 1, 1], strides = [1, 1]](%847, %345)
  %849 = Concat[axis = 1](%842, %848)
  %850 = BatchNormalization[epsilon = 9.99999974737875e-06, is_test = 1, momentum = 0.899999976158142](%849, %346, %347, %348, %349)
  %851 = Relu(%850)
  %852 = Conv[dilations = [1, 1], group = 1, kernel_shape = [1, 1], pads = [0, 0, 0, 0], strides = [1, 1]](%851, %350)
  %853 = BatchNormalization[epsilon = 9.99999974737875e-06, is_test = 1, momentum = 0.899999976158142](%852, %351, %352, %353, %354)
  %854 = Relu(%853)
  %855 = Conv[dilations = [1, 1], group = 1, kernel_shape = [3, 3], pads = [1, 1, 1, 1], strides = [1, 1]](%854, %355)
  %856 = Concat[axis = 1](%849, %855)
  %857 = BatchNormalization[epsilon = 9.99999974737875e-06, is_test = 1, momentum = 0.899999976158142](%856, %356, %357, %358, %359)
  %858 = Relu(%857)
  %859 = Conv[dilations = [1, 1], group = 1, kernel_shape = [1, 1], pads = [0, 0, 0, 0], strides = [1, 1]](%858, %360)
  %860 = BatchNormalization[epsilon = 9.99999974737875e-06, is_test = 1, momentum = 0.899999976158142](%859, %361, %362, %363, %364)
  %861 = Relu(%860)
  %862 = Conv[dilations = [1, 1], group = 1, kernel_shape = [3, 3], pads = [1, 1, 1, 1], strides = [1, 1]](%861, %365)
  %863 = Concat[axis = 1](%856, %862)
  %864 = BatchNormalization[epsilon = 9.99999974737875e-06, is_test = 1, momentum = 0.899999976158142](%863, %366, %367, %368, %369)
  %865 = Relu(%864)
  %866 = Conv[dilations = [1, 1], group = 1, kernel_shape = [1, 1], pads = [0, 0, 0, 0], strides = [1, 1]](%865, %370)
  %867 = BatchNormalization[epsilon = 9.99999974737875e-06, is_test = 1, momentum = 0.899999976158142](%866, %371, %372, %373, %374)
  %868 = Relu(%867)
  %869 = Conv[dilations = [1, 1], group = 1, kernel_shape = [3, 3], pads = [1, 1, 1, 1], strides = [1, 1]](%868, %375)
  %870 = Concat[axis = 1](%863, %869)
  %871 = BatchNormalization[epsilon = 9.99999974737875e-06, is_test = 1, momentum = 0.899999976158142](%870, %376, %377, %378, %379)
  %872 = Relu(%871)
  %873 = Conv[dilations = [1, 1], group = 1, kernel_shape = [1, 1], pads = [0, 0, 0, 0], strides = [1, 1]](%872, %380)
  %874 = BatchNormalization[epsilon = 9.99999974737875e-06, is_test = 1, momentum = 0.899999976158142](%873, %381, %382, %383, %384)
  %875 = Relu(%874)
  %876 = Conv[dilations = [1, 1], group = 1, kernel_shape = [3, 3], pads = [1, 1, 1, 1], strides = [1, 1]](%875, %385)
  %877 = Concat[axis = 1](%870, %876)
  %878 = BatchNormalization[epsilon = 9.99999974737875e-06, is_test = 1, momentum = 0.899999976158142](%877, %386, %387, %388, %389)
  %879 = Relu(%878)
  %880 = Conv[dilations = [1, 1], group = 1, kernel_shape = [1, 1], pads = [0, 0, 0, 0], strides = [1, 1]](%879, %390)
  %881 = BatchNormalization[epsilon = 9.99999974737875e-06, is_test = 1, momentum = 0.899999976158142](%880, %391, %392, %393, %394)
  %882 = Relu(%881)
  %883 = Conv[dilations = [1, 1], group = 1, kernel_shape = [3, 3], pads = [1, 1, 1, 1], strides = [1, 1]](%882, %395)
  %884 = Concat[axis = 1](%877, %883)
  %885 = BatchNormalization[epsilon = 9.99999974737875e-06, is_test = 1, momentum = 0.899999976158142](%884, %396, %397, %398, %399)
  %886 = Relu(%885)
  %887 = Conv[dilations = [1, 1], group = 1, kernel_shape = [1, 1], pads = [0, 0, 0, 0], strides = [1, 1]](%886, %400)
  %888 = BatchNormalization[epsilon = 9.99999974737875e-06, is_test = 1, momentum = 0.899999976158142](%887, %401, %402, %403, %404)
  %889 = Relu(%888)
  %890 = Conv[dilations = [1, 1], group = 1, kernel_shape = [3, 3], pads = [1, 1, 1, 1], strides = [1, 1]](%889, %405)
  %891 = Concat[axis = 1](%884, %890)
  %892 = BatchNormalization[epsilon = 9.99999974737875e-06, is_test = 1, momentum = 0.899999976158142](%891, %406, %407, %408, %409)
  %893 = Relu(%892)
  %894 = Conv[dilations = [1, 1], group = 1, kernel_shape = [1, 1], pads = [0, 0, 0, 0], strides = [1, 1]](%893, %410)
  %895 = BatchNormalization[epsilon = 9.99999974737875e-06, is_test = 1, momentum = 0.899999976158142](%894, %411, %412, %413, %414)
  %896 = Relu(%895)
  %897 = Conv[dilations = [1, 1], group = 1, kernel_shape = [3, 3], pads = [1, 1, 1, 1], strides = [1, 1]](%896, %415)
  %898 = Concat[axis = 1](%891, %897)
  %899 = BatchNormalization[epsilon = 9.99999974737875e-06, is_test = 1, momentum = 0.899999976158142](%898, %416, %417, %418, %419)
  %900 = Relu(%899)
  %901 = Conv[dilations = [1, 1], group = 1, kernel_shape = [1, 1], pads = [0, 0, 0, 0], strides = [1, 1]](%900, %420)
  %902 = BatchNormalization[epsilon = 9.99999974737875e-06, is_test = 1, momentum = 0.899999976158142](%901, %421, %422, %423, %424)
  %903 = Relu(%902)
  %904 = Conv[dilations = [1, 1], group = 1, kernel_shape = [3, 3], pads = [1, 1, 1, 1], strides = [1, 1]](%903, %425)
  %905 = Concat[axis = 1](%898, %904)
  %906 = BatchNormalization[epsilon = 9.99999974737875e-06, is_test = 1, momentum = 0.899999976158142](%905, %426, %427, %428, %429)
  %907 = Relu(%906)
  %908 = Conv[dilations = [1, 1], group = 1, kernel_shape = [1, 1], pads = [0, 0, 0, 0], strides = [1, 1]](%907, %430)
  %909 = BatchNormalization[epsilon = 9.99999974737875e-06, is_test = 1, momentum = 0.899999976158142](%908, %431, %432, %433, %434)
  %910 = Relu(%909)
  %911 = Conv[dilations = [1, 1], group = 1, kernel_shape = [3, 3], pads = [1, 1, 1, 1], strides = [1, 1]](%910, %435)
  %912 = Concat[axis = 1](%905, %911)
  %913 = BatchNormalization[epsilon = 9.99999974737875e-06, is_test = 1, momentum = 0.899999976158142](%912, %436, %437, %438, %439)
  %914 = Relu(%913)
  %915 = Conv[dilations = [1, 1], group = 1, kernel_shape = [1, 1], pads = [0, 0, 0, 0], strides = [1, 1]](%914, %440)
  %916 = AveragePool[kernel_shape = [2, 2], pads = [0, 0, 0, 0], strides = [2, 2]](%915)
  %917 = BatchNormalization[epsilon = 9.99999974737875e-06, is_test = 1, momentum = 0.899999976158142](%916, %441, %442, %443, %444)
  %918 = Relu(%917)
  %919 = Conv[dilations = [1, 1], group = 1, kernel_shape = [1, 1], pads = [0, 0, 0, 0], strides = [1, 1]](%918, %445)
  %920 = BatchNormalization[epsilon = 9.99999974737875e-06, is_test = 1, momentum = 0.899999976158142](%919, %446, %447, %448, %449)
  %921 = Relu(%920)
  %922 = Conv[dilations = [1, 1], group = 1, kernel_shape = [3, 3], pads = [1, 1, 1, 1], strides = [1, 1]](%921, %450)
  %923 = Concat[axis = 1](%916, %922)
  %924 = BatchNormalization[epsilon = 9.99999974737875e-06, is_test = 1, momentum = 0.899999976158142](%923, %451, %452, %453, %454)
  %925 = Relu(%924)
  %926 = Conv[dilations = [1, 1], group = 1, kernel_shape = [1, 1], pads = [0, 0, 0, 0], strides = [1, 1]](%925, %455)
  %927 = BatchNormalization[epsilon = 9.99999974737875e-06, is_test = 1, momentum = 0.899999976158142](%926, %456, %457, %458, %459)
  %928 = Relu(%927)
  %929 = Conv[dilations = [1, 1], group = 1, kernel_shape = [3, 3], pads = [1, 1, 1, 1], strides = [1, 1]](%928, %460)
  %930 = Concat[axis = 1](%923, %929)
  %931 = BatchNormalization[epsilon = 9.99999974737875e-06, is_test = 1, momentum = 0.899999976158142](%930, %461, %462, %463, %464)
  %932 = Relu(%931)
  %933 = Conv[dilations = [1, 1], group = 1, kernel_shape = [1, 1], pads = [0, 0, 0, 0], strides = [1, 1]](%932, %465)
  %934 = BatchNormalization[epsilon = 9.99999974737875e-06, is_test = 1, momentum = 0.899999976158142](%933, %466, %467, %468, %469)
  %935 = Relu(%934)
  %936 = Conv[dilations = [1, 1], group = 1, kernel_shape = [3, 3], pads = [1, 1, 1, 1], strides = [1, 1]](%935, %470)
  %937 = Concat[axis = 1](%930, %936)
  %938 = BatchNormalization[epsilon = 9.99999974737875e-06, is_test = 1, momentum = 0.899999976158142](%937, %471, %472, %473, %474)
  %939 = Relu(%938)
  %940 = Conv[dilations = [1, 1], group = 1, kernel_shape = [1, 1], pads = [0, 0, 0, 0], strides = [1, 1]](%939, %475)
  %941 = BatchNormalization[epsilon = 9.99999974737875e-06, is_test = 1, momentum = 0.899999976158142](%940, %476, %477, %478, %479)
  %942 = Relu(%941)
  %943 = Conv[dilations = [1, 1], group = 1, kernel_shape = [3, 3], pads = [1, 1, 1, 1], strides = [1, 1]](%942, %480)
  %944 = Concat[axis = 1](%937, %943)
  %945 = BatchNormalization[epsilon = 9.99999974737875e-06, is_test = 1, momentum = 0.899999976158142](%944, %481, %482, %483, %484)
  %946 = Relu(%945)
  %947 = Conv[dilations = [1, 1], group = 1, kernel_shape = [1, 1], pads = [0, 0, 0, 0], strides = [1, 1]](%946, %485)
  %948 = BatchNormalization[epsilon = 9.99999974737875e-06, is_test = 1, momentum = 0.899999976158142](%947, %486, %487, %488, %489)
  %949 = Relu(%948)
  %950 = Conv[dilations = [1, 1], group = 1, kernel_shape = [3, 3], pads = [1, 1, 1, 1], strides = [1, 1]](%949, %490)
  %951 = Concat[axis = 1](%944, %950)
  %952 = BatchNormalization[epsilon = 9.99999974737875e-06, is_test = 1, momentum = 0.899999976158142](%951, %491, %492, %493, %494)
  %953 = Relu(%952)
  %954 = Conv[dilations = [1, 1], group = 1, kernel_shape = [1, 1], pads = [0, 0, 0, 0], strides = [1, 1]](%953, %495)
  %955 = BatchNormalization[epsilon = 9.99999974737875e-06, is_test = 1, momentum = 0.899999976158142](%954, %496, %497, %498, %499)
  %956 = Relu(%955)
  %957 = Conv[dilations = [1, 1], group = 1, kernel_shape = [3, 3], pads = [1, 1, 1, 1], strides = [1, 1]](%956, %500)
  %958 = Concat[axis = 1](%951, %957)
  %959 = BatchNormalization[epsilon = 9.99999974737875e-06, is_test = 1, momentum = 0.899999976158142](%958, %501, %502, %503, %504)
  %960 = Relu(%959)
  %961 = Conv[dilations = [1, 1], group = 1, kernel_shape = [1, 1], pads = [0, 0, 0, 0], strides = [1, 1]](%960, %505)
  %962 = BatchNormalization[epsilon = 9.99999974737875e-06, is_test = 1, momentum = 0.899999976158142](%961, %506, %507, %508, %509)
  %963 = Relu(%962)
  %964 = Conv[dilations = [1, 1], group = 1, kernel_shape = [3, 3], pads = [1, 1, 1, 1], strides = [1, 1]](%963, %510)
  %965 = Concat[axis = 1](%958, %964)
  %966 = BatchNormalization[epsilon = 9.99999974737875e-06, is_test = 1, momentum = 0.899999976158142](%965, %511, %512, %513, %514)
  %967 = Relu(%966)
  %968 = Conv[dilations = [1, 1], group = 1, kernel_shape = [1, 1], pads = [0, 0, 0, 0], strides = [1, 1]](%967, %515)
  %969 = BatchNormalization[epsilon = 9.99999974737875e-06, is_test = 1, momentum = 0.899999976158142](%968, %516, %517, %518, %519)
  %970 = Relu(%969)
  %971 = Conv[dilations = [1, 1], group = 1, kernel_shape = [3, 3], pads = [1, 1, 1, 1], strides = [1, 1]](%970, %520)
  %972 = Concat[axis = 1](%965, %971)
  %973 = BatchNormalization[epsilon = 9.99999974737875e-06, is_test = 1, momentum = 0.899999976158142](%972, %521, %522, %523, %524)
  %974 = Relu(%973)
  %975 = Conv[dilations = [1, 1], group = 1, kernel_shape = [1, 1], pads = [0, 0, 0, 0], strides = [1, 1]](%974, %525)
  %976 = BatchNormalization[epsilon = 9.99999974737875e-06, is_test = 1, momentum = 0.899999976158142](%975, %526, %527, %528, %529)
  %977 = Relu(%976)
  %978 = Conv[dilations = [1, 1], group = 1, kernel_shape = [3, 3], pads = [1, 1, 1, 1], strides = [1, 1]](%977, %530)
  %979 = Concat[axis = 1](%972, %978)
  %980 = BatchNormalization[epsilon = 9.99999974737875e-06, is_test = 1, momentum = 0.899999976158142](%979, %531, %532, %533, %534)
  %981 = Relu(%980)
  %982 = Conv[dilations = [1, 1], group = 1, kernel_shape = [1, 1], pads = [0, 0, 0, 0], strides = [1, 1]](%981, %535)
  %983 = BatchNormalization[epsilon = 9.99999974737875e-06, is_test = 1, momentum = 0.899999976158142](%982, %536, %537, %538, %539)
  %984 = Relu(%983)
  %985 = Conv[dilations = [1, 1], group = 1, kernel_shape = [3, 3], pads = [1, 1, 1, 1], strides = [1, 1]](%984, %540)
  %986 = Concat[axis = 1](%979, %985)
  %987 = BatchNormalization[epsilon = 9.99999974737875e-06, is_test = 1, momentum = 0.899999976158142](%986, %541, %542, %543, %544)
  %988 = Relu(%987)
  %989 = Conv[dilations = [1, 1], group = 1, kernel_shape = [1, 1], pads = [0, 0, 0, 0], strides = [1, 1]](%988, %545)
  %990 = BatchNormalization[epsilon = 9.99999974737875e-06, is_test = 1, momentum = 0.899999976158142](%989, %546, %547, %548, %549)
  %991 = Relu(%990)
  %992 = Conv[dilations = [1, 1], group = 1, kernel_shape = [3, 3], pads = [1, 1, 1, 1], strides = [1, 1]](%991, %550)
  %993 = Concat[axis = 1](%986, %992)
  %994 = BatchNormalization[epsilon = 9.99999974737875e-06, is_test = 1, momentum = 0.899999976158142](%993, %551, %552, %553, %554)
  %995 = Relu(%994)
  %996 = Conv[dilations = [1, 1], group = 1, kernel_shape = [1, 1], pads = [0, 0, 0, 0], strides = [1, 1]](%995, %555)
  %997 = BatchNormalization[epsilon = 9.99999974737875e-06, is_test = 1, momentum = 0.899999976158142](%996, %556, %557, %558, %559)
  %998 = Relu(%997)
  %999 = Conv[dilations = [1, 1], group = 1, kernel_shape = [3, 3], pads = [1, 1, 1, 1], strides = [1, 1]](%998, %560)
  %1000 = Concat[axis = 1](%993, %999)
  %1001 = BatchNormalization[epsilon = 9.99999974737875e-06, is_test = 1, momentum = 0.899999976158142](%1000, %561, %562, %563, %564)
  %1002 = Relu(%1001)
  %1003 = Conv[dilations = [1, 1], group = 1, kernel_shape = [1, 1], pads = [0, 0, 0, 0], strides = [1, 1]](%1002, %565)
  %1004 = BatchNormalization[epsilon = 9.99999974737875e-06, is_test = 1, momentum = 0.899999976158142](%1003, %566, %567, %568, %569)
  %1005 = Relu(%1004)
  %1006 = Conv[dilations = [1, 1], group = 1, kernel_shape = [3, 3], pads = [1, 1, 1, 1], strides = [1, 1]](%1005, %570)
  %1007 = Concat[axis = 1](%1000, %1006)
  %1008 = BatchNormalization[epsilon = 9.99999974737875e-06, is_test = 1, momentum = 0.899999976158142](%1007, %571, %572, %573, %574)
  %1009 = Relu(%1008)
  %1010 = Conv[dilations = [1, 1], group = 1, kernel_shape = [1, 1], pads = [0, 0, 0, 0], strides = [1, 1]](%1009, %575)
  %1011 = BatchNormalization[epsilon = 9.99999974737875e-06, is_test = 1, momentum = 0.899999976158142](%1010, %576, %577, %578, %579)
  %1012 = Relu(%1011)
  %1013 = Conv[dilations = [1, 1], group = 1, kernel_shape = [3, 3], pads = [1, 1, 1, 1], strides = [1, 1]](%1012, %580)
  %1014 = Concat[axis = 1](%1007, %1013)
  %1015 = BatchNormalization[epsilon = 9.99999974737875e-06, is_test = 1, momentum = 0.899999976158142](%1014, %581, %582, %583, %584)
  %1016 = Relu(%1015)
  %1017 = Conv[dilations = [1, 1], group = 1, kernel_shape = [1, 1], pads = [0, 0, 0, 0], strides = [1, 1]](%1016, %585)
  %1018 = BatchNormalization[epsilon = 9.99999974737875e-06, is_test = 1, momentum = 0.899999976158142](%1017, %586, %587, %588, %589)
  %1019 = Relu(%1018)
  %1020 = Conv[dilations = [1, 1], group = 1, kernel_shape = [3, 3], pads = [1, 1, 1, 1], strides = [1, 1]](%1019, %590)
  %1021 = Concat[axis = 1](%1014, %1020)
  %1022 = BatchNormalization[epsilon = 9.99999974737875e-06, is_test = 1, momentum = 0.899999976158142](%1021, %591, %592, %593, %594)
  %1023 = Relu(%1022)
  %1024 = Conv[dilations = [1, 1], group = 1, kernel_shape = [1, 1], pads = [0, 0, 0, 0], strides = [1, 1]](%1023, %595)
  %1025 = BatchNormalization[epsilon = 9.99999974737875e-06, is_test = 1, momentum = 0.899999976158142](%1024, %596, %597, %598, %599)
  %1026 = Relu(%1025)
  %1027 = Conv[dilations = [1, 1], group = 1, kernel_shape = [3, 3], pads = [1, 1, 1, 1], strides = [1, 1]](%1026, %600)
  %1028 = Concat[axis = 1](%1021, %1027)
  %1029 = BatchNormalization[epsilon = 9.99999974737875e-06, is_test = 1, momentum = 0.899999976158142](%1028, %601, %602, %603, %604)
  %1030 = Relu(%1029)
  %1031 = AveragePool[kernel_shape = [7, 7], pads = [0, 0, 0, 0], strides = [7, 7]](%1030)
  %1032 = Flatten[axis = 1](%1031)
  %1033 = Gemm[alpha = 1, beta = 1, broadcast = 1, transB = 1](%1032, %605, %606)
  return %1033
}