producer_name: "pytorch"
producer_version: "0.3"
graph {
  node {
    input: "x.1"
    input: "x.1"
    output: "3"
    op_type: "Add"
    doc_string: "@torch.jit.script_method\ndef forward(self, x):\n    x += x\n    ~~~~~~ <--- HERE\n    if True:\n        if True:\n            y = self.m(x)\n        else:\n            y = self.m(x)\n    else:\n        y = self.m(x)\n    return y\n"
  }
  node {
    output: "4"
    op_type: "Constant"
    attribute {
      name: "value"
      t {
        data_type: UINT8
        raw_data: "\001\000\000\000"
      }
      type: TENSOR
    }
    doc_string: "@torch.jit.script_method\ndef forward(self, x):\n    x += x\n    if True:\n       ~~~~ <--- HERE\n        if True:\n            y = self.m(x)\n        else:\n            y = self.m(x)\n    else:\n        y = self.m(x)\n    return y\n"
  }
  node {
    input: "4"
    output: "5"
    op_type: "If"
    attribute {
      name: "then_branch"
      g {
        node {
          output: "6"
          op_type: "Constant"
          attribute {
            name: "value"
            t {
              data_type: UINT8
              raw_data: "\001\000\000\000"
            }
            type: TENSOR
          }
          doc_string: "@torch.jit.script_method\ndef forward(self, x):\n    x += x\n    if True:\n        if True:\n           ~~~~ <--- HERE\n            y = self.m(x)\n        else:\n            y = self.m(x)\n    else:\n        y = self.m(x)\n    return y\n"
        }
        node {
          input: "6"
          output: "7"
          op_type: "If"
          attribute {
            name: "then_branch"
            g {
              node {
                input: "3"
                input: "1"
                input: "2"
                output: "8"
                op_type: "Gemm"
                attribute {
                  name: "alpha"
                  f: 1
                  type: FLOAT
                }
                attribute {
                  name: "beta"
                  f: 1
                  type: FLOAT
                }
                attribute {
                  name: "broadcast"
                  i: 1
                  type: INT
                }
                attribute {
                  name: "transB"
                  i: 1
                  type: INT
                }
                doc_string: "/data/users/royboy/pytorch/pytorch/torch/nn/functional.py(999): linear\n/data/users/royboy/pytorch/pytorch/torch/nn/modules/linear.py(55): forward\n/data/users/royboy/pytorch/pytorch/torch/nn/modules/module.py(468): __call__\n/data/users/royboy/pytorch/pytorch/torch/jit/__init__.py(305): wrapper\ntest/test_jit.py(2722): test_onnx_export_speculate\n/home/royboy/local/miniconda/lib/python3.6/unittest/case.py(605): run\n/home/royboy/local/miniconda/lib/python3.6/unittest/case.py(653): __call__\n/home/royboy/local/miniconda/lib/python3.6/unittest/suite.py(122): run\n/home/royboy/local/miniconda/lib/python3.6/unittest/suite.py(84): __call__\n/home/royboy/local/miniconda/lib/python3.6/unittest/suite.py(122): run\n/home/royboy/local/miniconda/lib/python3.6/unittest/suite.py(84): __call__\n/home/royboy/local/miniconda/lib/python3.6/unittest/runner.py(176): run\n/home/royboy/local/miniconda/lib/python3.6/unittest/main.py(256): runTests\n/home/royboy/local/miniconda/lib/python3.6/unittest/main.py(95): __init__\n/data/users/royboy/pytorch/pytorch/test/common.py(50): run_tests\ntest/test_jit.py(3086): <module>\n"
              }
              name: "torch-jit-export2"
              output {
                name: "8"
                type {
                  tensor_type {
                    elem_type: FLOAT
                    shape {
                      dim {
                        dim_value: 1
                      }
                      dim {
                        dim_value: 20
                      }
                    }
                  }
                }
              }
            }
            type: GRAPH
          }
          attribute {
            name: "else_branch"
            g {
              node {
                input: "3"
                input: "1"
                input: "2"
                output: "9"
                op_type: "Gemm"
                attribute {
                  name: "alpha"
                  f: 1
                  type: FLOAT
                }
                attribute {
                  name: "beta"
                  f: 1
                  type: FLOAT
                }
                attribute {
                  name: "broadcast"
                  i: 1
                  type: INT
                }
                attribute {
                  name: "transB"
                  i: 1
                  type: INT
                }
                doc_string: "/data/users/royboy/pytorch/pytorch/torch/nn/functional.py(999): linear\n/data/users/royboy/pytorch/pytorch/torch/nn/modules/linear.py(55): forward\n/data/users/royboy/pytorch/pytorch/torch/nn/modules/module.py(468): __call__\n/data/users/royboy/pytorch/pytorch/torch/jit/__init__.py(305): wrapper\ntest/test_jit.py(2722): test_onnx_export_speculate\n/home/royboy/local/miniconda/lib/python3.6/unittest/case.py(605): run\n/home/royboy/local/miniconda/lib/python3.6/unittest/case.py(653): __call__\n/home/royboy/local/miniconda/lib/python3.6/unittest/suite.py(122): run\n/home/royboy/local/miniconda/lib/python3.6/unittest/suite.py(84): __call__\n/home/royboy/local/miniconda/lib/python3.6/unittest/suite.py(122): run\n/home/royboy/local/miniconda/lib/python3.6/unittest/suite.py(84): __call__\n/home/royboy/local/miniconda/lib/python3.6/unittest/runner.py(176): run\n/home/royboy/local/miniconda/lib/python3.6/unittest/main.py(256): runTests\n/home/royboy/local/miniconda/lib/python3.6/unittest/main.py(95): __init__\n/data/users/royboy/pytorch/pytorch/test/common.py(50): run_tests\ntest/test_jit.py(3086): <module>\n"
              }
              name: "torch-jit-export3"
              output {
                name: "9"
                type {
                  tensor_type {
                    elem_type: FLOAT
                    shape {
                      dim {
                        dim_value: 1
                      }
                      dim {
                        dim_value: 20
                      }
                    }
                  }
                }
              }
            }
            type: GRAPH
          }
          doc_string: "@torch.jit.script_method\ndef forward(self, x):\n    x += x\n    if True:\n        if True:\n        ~~~~~~~~...  <--- HERE\n            y = self.m(x)\n        else:\n            y = self.m(x)\n    else:\n        y = self.m(x)\n    return y\n"
        }
        name: "torch-jit-export1"
        output {
          name: "7"
          type {
            tensor_type {
              elem_type: FLOAT
              shape {
                dim {
                  dim_value: 1
                }
                dim {
                  dim_value: 20
                }
              }
            }
          }
        }
      }
      type: GRAPH
    }
    attribute {
      name: "else_branch"
      g {
        node {
          input: "3"
          input: "1"
          input: "2"
          output: "10"
          op_type: "Gemm"
          attribute {
            name: "alpha"
            f: 1
            type: FLOAT
          }
          attribute {
            name: "beta"
            f: 1
            type: FLOAT
          }
          attribute {
            name: "broadcast"
            i: 1
            type: INT
          }
          attribute {
            name: "transB"
            i: 1
            type: INT
          }
          doc_string: "/data/users/royboy/pytorch/pytorch/torch/nn/functional.py(999): linear\n/data/users/royboy/pytorch/pytorch/torch/nn/modules/linear.py(55): forward\n/data/users/royboy/pytorch/pytorch/torch/nn/modules/module.py(468): __call__\n/data/users/royboy/pytorch/pytorch/torch/jit/__init__.py(305): wrapper\ntest/test_jit.py(2722): test_onnx_export_speculate\n/home/royboy/local/miniconda/lib/python3.6/unittest/case.py(605): run\n/home/royboy/local/miniconda/lib/python3.6/unittest/case.py(653): __call__\n/home/royboy/local/miniconda/lib/python3.6/unittest/suite.py(122): run\n/home/royboy/local/miniconda/lib/python3.6/unittest/suite.py(84): __call__\n/home/royboy/local/miniconda/lib/python3.6/unittest/suite.py(122): run\n/home/royboy/local/miniconda/lib/python3.6/unittest/suite.py(84): __call__\n/home/royboy/local/miniconda/lib/python3.6/unittest/runner.py(176): run\n/home/royboy/local/miniconda/lib/python3.6/unittest/main.py(256): runTests\n/home/royboy/local/miniconda/lib/python3.6/unittest/main.py(95): __init__\n/data/users/royboy/pytorch/pytorch/test/common.py(50): run_tests\ntest/test_jit.py(3086): <module>\n"
        }
        name: "torch-jit-export4"
        output {
          name: "10"
          type {
            tensor_type {
              elem_type: FLOAT
              shape {
                dim {
                  dim_value: 1
                }
                dim {
                  dim_value: 20
                }
              }
            }
          }
        }
      }
      type: GRAPH
    }
    doc_string: "@torch.jit.script_method\ndef forward(self, x):\n    x += x\n    if True:\n    ~~~~~~~~...  <--- HERE\n        if True:\n            y = self.m(x)\n        else:\n            y = self.m(x)\n    else:\n        y = self.m(x)\n    return y\n"
  }
  name: "torch-jit-export"
  initializer {
    dims: 20
    dims: 10
    data_type: FLOAT
    name: "1"
    raw_data: "…"
  }
  initializer {
    dims: 20
    data_type: FLOAT
    name: "2"
    raw_data: "…"
  }
  input {
    name: "x.1"
    type {
      tensor_type {
        elem_type: FLOAT
        shape {
          dim {
            dim_value: 1
          }
          dim {
            dim_value: 10
          }
        }
      }
    }
  }
  input {
    name: "1"
    type {
      tensor_type {
        elem_type: FLOAT
        shape {
          dim {
            dim_value: 20
          }
          dim {
            dim_value: 10
          }
        }
      }
    }
  }
  input {
    name: "2"
    type {
      tensor_type {
        elem_type: FLOAT
        shape {
          dim {
            dim_value: 20
          }
        }
      }
    }
  }
  output {
    name: "5"
    type {
      tensor_type {
        elem_type: FLOAT
        shape {
          dim {
            dim_value: 1
          }
          dim {
            dim_value: 20
          }
        }
      }
    }
  }
}
opset_import {
  version: 6
}
