graph torch-jit-export (
  %0[FLOAT, 2x3x224x224]
  %1[FLOAT, 3]
  %2[FLOAT, 3]
  %3[FLOAT, 3]
  %4[FLOAT, 3]
) {
  %5 = LeakyRelu[alpha = 0.0199999995529652](%0)
  %6 = BatchNormalization[epsilon = 9.99999974737875e-06, is_test = 1, momentum = 0.899999976158142](%5, %1, %2, %3, %4)
  %7 = AveragePool[kernel_shape = [3, 3], pads = [1, 1, 1, 1], strides = [2, 2]](%6)
  %8 = Constant[value = <Tensor>]()
  %9 = Reshape(%7, %8)
  %10 = Squeeze[axes = [1]](%9)
  return %10
}