ir_version: 1
producer_name: "pytorch"
producer_version: "0.2"
domain: "com.facebook"
graph {
  node {
    input: "1"
    input: "2"
    output: "3"
    op_type: "Add"
  }
  node {
    input: "1"
    input: "3"
    output: "4"
    op_type: "Mul"
  }
  node {
    input: "4"
    output: "5"
    op_type: "Tanh"
  }
  node {
    input: "5"
    output: "6"
    op_type: "Sigmoid"
  }
  node {
    input: "6"
    output: "7"
    op_type: "Scale"
    attribute {
      name: "scale"
      f: -1
    }
  }
  name: "torch-jit-export"
  initializer {
    dims: 2
    dims: 2
    data_type: DOUBLE
    name: "2"
    raw_data: "…"
  }
  input {
    name: "1"
    type {
      tensor_type {
        elem_type: DOUBLE
        shape {
          dim {
            dim_value: 2
          }
          dim {
            dim_value: 2
          }
        }
      }
    }
  }
  input {
    name: "2"
    type {
      tensor_type {
        elem_type: DOUBLE
        shape {
          dim {
            dim_value: 2
          }
          dim {
            dim_value: 2
          }
        }
      }
    }
  }
  output {
    name: "7"
    type {
      tensor_type {
        elem_type: DOUBLE
        shape {
          dim {
            dim_value: 2
          }
          dim {
            dim_value: 2
          }
        }
      }
    }
  }
}
