ir_version: 6
producer_name: "pytorch"
producer_version: "CURRENT_VERSION"
graph {
  node {
    input: "0"
    output: "1"
    name: "Shape_0"
    op_type: "Shape"
  }
  node {
    output: "2"
    name: "Constant_1"
    op_type: "Constant"
    attribute {
      name: "value"
      t {
        data_type: 7
        raw_data: "\000\000\000\000\000\000\000\000"
      }
      type: TENSOR
    }
  }
  node {
    input: "1"
    input: "2"
    output: "3"
    name: "Gather_2"
    op_type: "Gather"
    attribute {
      name: "axis"
      i: 0
      type: INT
    }
  }
  node {
    input: "0"
    output: "4"
    name: "Shape_3"
    op_type: "Shape"
  }
  node {
    output: "5"
    name: "Constant_4"
    op_type: "Constant"
    attribute {
      name: "value"
      t {
        data_type: 7
        raw_data: "\000\000\000\000\000\000\000\000"
      }
      type: TENSOR
    }
  }
  node {
    input: "4"
    input: "5"
    output: "6"
    name: "Gather_5"
    op_type: "Gather"
    attribute {
      name: "axis"
      i: 0
      type: INT
    }
  }
  node {
    input: "6"
    output: "9"
    name: "Cast_6"
    op_type: "Cast"
    attribute {
      name: "to"
      i: 1
      type: INT
    }
  }
  node {
    input: "9"
    output: "11"
    name: "Cast_7"
    op_type: "Cast"
    attribute {
      name: "to"
      i: 1
      type: INT
    }
  }
  node {
    input: "20"
    input: "11"
    output: "12"
    name: "Div_8"
    op_type: "Div"
  }
  node {
    input: "12"
    output: "13"
    name: "Floor_9"
    op_type: "Floor"
  }
  node {
    input: "13"
    output: "14"
    name: "Cast_10"
    op_type: "Cast"
    attribute {
      name: "to"
      i: 7
      type: INT
    }
  }
  node {
    input: "3"
    output: "15"
    name: "Unsqueeze_11"
    op_type: "Unsqueeze"
    attribute {
      name: "axes"
      ints: 0
      type: INTS
    }
  }
  node {
    input: "14"
    output: "16"
    name: "Unsqueeze_12"
    op_type: "Unsqueeze"
    attribute {
      name: "axes"
      ints: 0
      type: INTS
    }
  }
  node {
    input: "15"
    input: "16"
    output: "17"
    name: "Concat_13"
    op_type: "Concat"
    attribute {
      name: "axis"
      i: 0
      type: INT
    }
  }
  node {
    input: "0"
    input: "17"
    output: "18"
    name: "Reshape_14"
    op_type: "Reshape"
  }
  name: "torch-jit-export"
  initializer {
    data_type: 1
    name: "20"
    raw_data: "\000\000\300A"
  }
  input {
    name: "0"
    type {
      tensor_type {
        elem_type: 1
        shape {
          dim {
            dim_value: 1
          }
          dim {
            dim_value: 2
          }
          dim {
            dim_value: 3
          }
          dim {
            dim_value: 4
          }
        }
      }
    }
  }
  output {
    name: "18"
    type {
      tensor_type {
        elem_type: 1
        shape {
          dim {
            dim_value: 1
          }
          dim {
            dim_value: 24
          }
        }
      }
    }
  }
}
opset_import {
  version: 9
}
