ir_version: 4
producer_name: "pytorch"
producer_version: "1.3"
graph {
  node {
    output: "1"
    op_type: "Constant"
    attribute {
      name: "value"
      t {
        data_type: 7
        raw_data: "\000\000\000\000\000\000\000\000"
      }
      type: TENSOR
    }
  }
  node {
    input: "0"
    output: "2"
    op_type: "Shape"
  }
  node {
    input: "2"
    input: "1"
    output: "3"
    op_type: "Gather"
    attribute {
      name: "axis"
      i: 0
      type: INT
    }
  }
  node {
    output: "4"
    op_type: "Constant"
    attribute {
      name: "value"
      t {
        data_type: 7
        raw_data: "\000\000\000\000\000\000\000\000"
      }
      type: TENSOR
    }
  }
  node {
    input: "0"
    output: "5"
    op_type: "Shape"
  }
  node {
    input: "5"
    input: "4"
    output: "6"
    op_type: "Gather"
    attribute {
      name: "axis"
      i: 0
      type: INT
    }
  }
  node {
    output: "7"
    op_type: "Constant"
    attribute {
      name: "value"
      t {
        data_type: 7
        raw_data: "\005\000\000\000\000\000\000\000"
      }
      type: TENSOR
    }
  }
  node {
    input: "6"
    input: "7"
    output: "8"
    op_type: "Add"
  }
  node {
    output: "9"
    op_type: "Constant"
    attribute {
      name: "value"
      t {
        data_type: 11
        raw_data: "\000\000\000\000\000\000\340?"
      }
      type: TENSOR
    }
  }
  node {
    input: "9"
    output: "10"
    op_type: "Cast"
    attribute {
      name: "to"
      i: 1
      type: INT
    }
  }
  node {
    input: "3"
    input: "8"
    input: "10"
    output: "11"
    op_type: "Range"
  }
  node {
    input: "11"
    output: "12"
    op_type: "Cast"
    attribute {
      name: "to"
      i: 1
      type: INT
    }
  }
  name: "torch-jit-export"
  input {
    name: "0"
    type {
      tensor_type {
        elem_type: 1
        shape {
          dim {
            dim_value: 5
          }
          dim {
            dim_value: 3
          }
          dim {
            dim_value: 2
          }
        }
      }
    }
  }
  output {
    name: "12"
    type {
      tensor_type {
        elem_type: 1
        shape {
          dim {
            dim_value: 10
          }
        }
      }
    }
  }
}
opset_import {
  version: 11
}
