ir_version: 4
producer_name: "pytorch"
producer_version: "1.2"
graph {
  node {
    input: "1"
    input: "2"
    output: "3"
    op_type: "MatMul"
  }
  node {
    output: "4"
    op_type: "Constant"
    attribute {
      name: "value"
      t {
        data_type: 7
        raw_data: "\001\000\000\000\000\000\000\000"
      }
      type: TENSOR
    }
  }
  node {
    input: "4"
    output: "5"
    op_type: "Cast"
    attribute {
      name: "to"
      i: 1
      type: INT
    }
  }
  node {
    input: "3"
    input: "5"
    output: "6"
    op_type: "Mul"
  }
  node {
    output: "7"
    op_type: "Constant"
    attribute {
      name: "value"
      t {
        data_type: 7
        raw_data: "\001\000\000\000\000\000\000\000"
      }
      type: TENSOR
    }
  }
  node {
    input: "7"
    output: "8"
    op_type: "Cast"
    attribute {
      name: "to"
      i: 1
      type: INT
    }
  }
  node {
    input: "0"
    input: "8"
    output: "9"
    op_type: "Mul"
  }
  node {
    input: "6"
    input: "9"
    output: "10"
    op_type: "Add"
  }
  name: "torch-jit-export"
  input {
    name: "0"
    type {
      tensor_type {
        elem_type: 1
        shape {
          dim {
            dim_value: 10
          }
          dim {
            dim_value: 3
          }
          dim {
            dim_value: 5
          }
        }
      }
    }
  }
  input {
    name: "1"
    type {
      tensor_type {
        elem_type: 1
        shape {
          dim {
            dim_value: 10
          }
          dim {
            dim_value: 3
          }
          dim {
            dim_value: 4
          }
        }
      }
    }
  }
  input {
    name: "2"
    type {
      tensor_type {
        elem_type: 1
        shape {
          dim {
            dim_value: 10
          }
          dim {
            dim_value: 4
          }
          dim {
            dim_value: 5
          }
        }
      }
    }
  }
  output {
    name: "10"
    type {
      tensor_type {
        elem_type: 1
        shape {
          dim {
            dim_value: 10
          }
          dim {
            dim_value: 3
          }
          dim {
            dim_value: 5
          }
        }
      }
    }
  }
}
opset_import {
  version: 9
}
