ir_version: 8
producer_name: "pytorch"
producer_version: "CURRENT_VERSION"
graph {
  node {
    output: "onnx::Tile_1"
    name: "Constant_0"
    op_type: "Constant"
    attribute {
      name: "value"
      t {
        dims: 4
        data_type: 7
        raw_data: "…"
      }
      type: TENSOR
    }
  }
  node {
    output: "onnx::ConstantOfShape_6"
    name: "Constant_1"
    op_type: "Constant"
    attribute {
      name: "value"
      t {
        dims: 1
        data_type: 7
        raw_data: "\004\000\000\000\000\000\000\000"
      }
      type: TENSOR
    }
  }
  node {
    input: "onnx::ConstantOfShape_6"
    output: "onnx::Expand_3"
    name: "ConstantOfShape_2"
    op_type: "ConstantOfShape"
    attribute {
      name: "value"
      t {
        dims: 1
        data_type: 7
        raw_data: "\001\000\000\000\000\000\000\000"
      }
      type: TENSOR
    }
  }
  node {
    input: "onnx::Expand_0"
    input: "onnx::Expand_3"
    output: "onnx::Tile_4"
    name: "Expand_3"
    op_type: "Expand"
  }
  node {
    input: "onnx::Tile_4"
    input: "onnx::Tile_1"
    output: "5"
    name: "Tile_4"
    op_type: "Tile"
  }
  name: "main_graph"
  input {
    name: "onnx::Expand_0"
    type {
      tensor_type {
        elem_type: 1
        shape {
          dim {
            dim_value: 1
          }
          dim {
            dim_value: 2
          }
        }
      }
    }
  }
  output {
    name: "5"
    type {
      tensor_type {
        elem_type: 1
        shape {
          dim {
            dim_value: 1
          }
          dim {
            dim_value: 2
          }
          dim {
            dim_value: 3
          }
          dim {
            dim_value: 8
          }
        }
      }
    }
  }
}
opset_import {
  version: 17
}
