ir_version: 6
producer_name: "pytorch"
producer_version: "1.5"
graph {
  node {
    input: "0"
    input: "params.0"
    output: "2"
    name: "Add_0"
    op_type: "Add"
  }
  node {
    input: "0"
    input: "2"
    output: "3"
    name: "Mul_1"
    op_type: "Mul"
  }
  node {
    input: "3"
    output: "4"
    name: "Tanh_2"
    op_type: "Tanh"
  }
  node {
    input: "4"
    output: "5"
    name: "Sigmoid_3"
    op_type: "Sigmoid"
  }
  node {
    input: "5"
    output: "6"
    name: "Neg_4"
    op_type: "Neg"
  }
  name: "torch-jit-export"
  initializer {
    dims: 2
    dims: 2
    data_type: 1
    name: "params.0"
    raw_data: "\000\000\200?\000\000\000@\000\000@@\000\000\200@"
  }
  input {
    name: "0"
    type {
      tensor_type {
        elem_type: 1
        shape {
          dim {
            dim_value: 2
          }
          dim {
            dim_value: 2
          }
        }
      }
    }
  }
  input {
    name: "params.0"
    type {
      tensor_type {
        elem_type: 1
        shape {
          dim {
            dim_value: 2
          }
          dim {
            dim_value: 2
          }
        }
      }
    }
  }
  output {
    name: "6"
    type {
      tensor_type {
        elem_type: 1
        shape {
          dim {
            dim_value: 2
          }
          dim {
            dim_value: 2
          }
        }
      }
    }
  }
}
opset_import {
  version: 9
}
