ir_version: 6
producer_name: "pytorch"
producer_version: "CURRENT_VERSION"
graph {
  node {
    output: "1"
    name: "Constant_0"
    op_type: "Constant"
    attribute {
      name: "value"
      t {
        dims: 1
        data_type: 7
        raw_data: "\000\000\000\000\000\000\000\000"
      }
      type: TENSOR
    }
  }
  node {
    output: "2"
    name: "Constant_1"
    op_type: "Constant"
    attribute {
      name: "value"
      t {
        dims: 1
        data_type: 7
        raw_data: "\003\000\000\000\000\000\000\000"
      }
      type: TENSOR
    }
  }
  node {
    output: "3"
    name: "Constant_2"
    op_type: "Constant"
    attribute {
      name: "value"
      t {
        dims: 1
        data_type: 7
        raw_data: "\377\377\377\377\377\377\377\177"
      }
      type: TENSOR
    }
  }
  node {
    output: "4"
    name: "Constant_3"
    op_type: "Constant"
    attribute {
      name: "value"
      t {
        dims: 1
        data_type: 7
        raw_data: "\001\000\000\000\000\000\000\000"
      }
      type: TENSOR
    }
  }
  node {
    input: "0"
    input: "2"
    input: "3"
    input: "1"
    input: "4"
    output: "5"
    name: "Slice_4"
    op_type: "Slice"
  }
  node {
    output: "6"
    name: "Constant_5"
    op_type: "Constant"
    attribute {
      name: "value"
      t {
        data_type: 7
        raw_data: "\001\000\000\000\000\000\000\000"
      }
      type: TENSOR
    }
  }
  node {
    input: "5"
    input: "6"
    output: "7"
    name: "Gather_6"
    op_type: "Gather"
    attribute {
      name: "axis"
      i: 1
      type: INT
    }
  }
  name: "torch-jit-export"
  input {
    name: "0"
    type {
      tensor_type {
        elem_type: 1
        shape {
          dim {
            dim_value: 3
          }
          dim {
            dim_value: 4
          }
        }
      }
    }
  }
  output {
    name: "7"
    type {
      tensor_type {
        elem_type: 1
        shape {
          dim {
            dim_value: 0
          }
        }
      }
    }
  }
}
opset_import {
  version: 10
}
