ir_version: 3
producer_name: "pytorch"
producer_version: "0.3"
graph {
  node {
    input: "3"
    input: "4"
    output: "6"
    op_type: "Concat"
    attribute {
      name: "axis"
      i: 0
      type: INT
    }
  }
  node {
    input: "0"
    output: "7"
    op_type: "Shape"
  }
  node {
    output: "8"
    op_type: "Constant"
    attribute {
      name: "value"
      t {
        data_type: INT64
        raw_data: "\001\000\000\000\000\000\000\000"
      }
      type: TENSOR
    }
  }
  node {
    input: "7"
    input: "8"
    output: "9"
    op_type: "Gather"
  }
  node {
    input: "9"
    output: "10"
    op_type: "Unsqueeze"
    attribute {
      name: "axes"
      ints: 0
      type: INTS
    }
  }
  node {
    output: "11"
    op_type: "Constant"
    attribute {
      name: "value"
      t {
        dims: 1
        data_type: INT64
        raw_data: "\024\000\000\000\000\000\000\000"
      }
      type: TENSOR
    }
  }
  node {
    output: "12"
    op_type: "Constant"
    attribute {
      name: "value"
      t {
        data_type: INT64
        raw_data: "\001\000\000\000\000\000\000\000"
      }
      type: TENSOR
    }
  }
  node {
    input: "12"
    output: "13"
    op_type: "Unsqueeze"
    attribute {
      name: "axes"
      ints: 0
      type: INTS
    }
  }
  node {
    input: "13"
    input: "10"
    input: "11"
    output: "14"
    op_type: "Concat"
    attribute {
      name: "axis"
      i: 0
      type: INT
    }
  }
  node {
    input: "14"
    output: "15"
    op_type: "ConstantFill"
    attribute {
      name: "input_as_shape"
      i: 1
      type: INT
    }
  }
  node {
    input: "0"
    input: "1"
    input: "2"
    input: "6"
    input: ""
    input: "15"
    output: "16"
    output: "17"
    op_type: "RNN"
    attribute {
      name: "activations"
      strings: "relu"
      type: STRINGS
    }
    attribute {
      name: "hidden_size"
      i: 20
      type: INT
    }
  }
  name: "torch-jit-export"
  initializer {
    dims: 20
    dims: 10
    data_type: FLOAT
    name: "1"
    raw_data: "…"
  }
  initializer {
    dims: 20
    dims: 20
    data_type: FLOAT
    name: "2"
    raw_data: "…"
  }
  initializer {
    dims: 20
    data_type: FLOAT
    name: "3"
    raw_data: "…"
  }
  initializer {
    dims: 20
    data_type: FLOAT
    name: "4"
    raw_data: "…"
  }
  input {
    name: "0"
    type {
      tensor_type {
        elem_type: FLOAT
        shape {
          dim {
            dim_value: 5
          }
          dim {
            dim_value: 3
          }
          dim {
            dim_value: 10
          }
        }
      }
    }
  }
  input {
    name: "1"
    type {
      tensor_type {
        elem_type: FLOAT
        shape {
          dim {
            dim_value: 20
          }
          dim {
            dim_value: 10
          }
        }
      }
    }
  }
  input {
    name: "2"
    type {
      tensor_type {
        elem_type: FLOAT
        shape {
          dim {
            dim_value: 20
          }
          dim {
            dim_value: 20
          }
        }
      }
    }
  }
  input {
    name: "3"
    type {
      tensor_type {
        elem_type: FLOAT
        shape {
          dim {
            dim_value: 20
          }
        }
      }
    }
  }
  input {
    name: "4"
    type {
      tensor_type {
        elem_type: FLOAT
        shape {
          dim {
            dim_value: 20
          }
        }
      }
    }
  }
  output {
    name: "16"
    type {
      tensor_type {
        elem_type: FLOAT
        shape {
          dim {
            dim_value: 5
          }
          dim {
            dim_value: 3
          }
          dim {
            dim_value: 20
          }
        }
      }
    }
  }
  output {
    name: "17"
    type {
      tensor_type {
        elem_type: FLOAT
        shape {
          dim {
            dim_value: 1
          }
          dim {
            dim_value: 3
          }
          dim {
            dim_value: 20
          }
        }
      }
    }
  }
}
opset_import {
  version: 6
}
