ir_version: 3
producer_name: "pytorch"
producer_version: "0.3"
graph {
  node {
    input: "3"
    input: "4"
    output: "10"
    op_type: "Concat"
    attribute {
      name: "axis"
      i: 0
      type: INT
    }
  }
  node {
    input: "0"
    output: "11"
    op_type: "Shape"
  }
  node {
    output: "12"
    op_type: "Constant"
    attribute {
      name: "value"
      t {
        data_type: INT64
        raw_data: "\001\000\000\000\000\000\000\000"
      }
      type: TENSOR
    }
  }
  node {
    input: "11"
    input: "12"
    output: "13"
    op_type: "Gather"
  }
  node {
    input: "13"
    output: "14"
    op_type: "Unsqueeze"
    attribute {
      name: "axes"
      ints: 0
      type: INTS
    }
  }
  node {
    output: "15"
    op_type: "Constant"
    attribute {
      name: "value"
      t {
        dims: 1
        data_type: INT64
        raw_data: "\024\000\000\000\000\000\000\000"
      }
      type: TENSOR
    }
  }
  node {
    output: "16"
    op_type: "Constant"
    attribute {
      name: "value"
      t {
        data_type: INT64
        raw_data: "\001\000\000\000\000\000\000\000"
      }
      type: TENSOR
    }
  }
  node {
    input: "16"
    output: "17"
    op_type: "Unsqueeze"
    attribute {
      name: "axes"
      ints: 0
      type: INTS
    }
  }
  node {
    input: "17"
    input: "14"
    input: "15"
    output: "18"
    op_type: "Concat"
    attribute {
      name: "axis"
      i: 0
      type: INT
    }
  }
  node {
    input: "18"
    output: "19"
    op_type: "ConstantFill"
    attribute {
      name: "input_as_shape"
      i: 1
      type: INT
    }
  }
  node {
    input: "0"
    input: "1"
    input: "2"
    input: "10"
    input: ""
    input: "19"
    output: "20"
    output: "21"
    op_type: "RNN"
    attribute {
      name: "activations"
      strings: "tanh"
      type: STRINGS
    }
    attribute {
      name: "hidden_size"
      i: 20
      type: INT
    }
  }
  node {
    input: "7"
    input: "8"
    output: "22"
    op_type: "Concat"
    attribute {
      name: "axis"
      i: 0
      type: INT
    }
  }
  node {
    input: "20"
    output: "23"
    op_type: "Shape"
  }
  node {
    output: "24"
    op_type: "Constant"
    attribute {
      name: "value"
      t {
        data_type: INT64
        raw_data: "\001\000\000\000\000\000\000\000"
      }
      type: TENSOR
    }
  }
  node {
    input: "23"
    input: "24"
    output: "25"
    op_type: "Gather"
  }
  node {
    input: "25"
    output: "26"
    op_type: "Unsqueeze"
    attribute {
      name: "axes"
      ints: 0
      type: INTS
    }
  }
  node {
    output: "27"
    op_type: "Constant"
    attribute {
      name: "value"
      t {
        dims: 1
        data_type: INT64
        raw_data: "\024\000\000\000\000\000\000\000"
      }
      type: TENSOR
    }
  }
  node {
    output: "28"
    op_type: "Constant"
    attribute {
      name: "value"
      t {
        data_type: INT64
        raw_data: "\001\000\000\000\000\000\000\000"
      }
      type: TENSOR
    }
  }
  node {
    input: "28"
    output: "29"
    op_type: "Unsqueeze"
    attribute {
      name: "axes"
      ints: 0
      type: INTS
    }
  }
  node {
    input: "29"
    input: "26"
    input: "27"
    output: "30"
    op_type: "Concat"
    attribute {
      name: "axis"
      i: 0
      type: INT
    }
  }
  node {
    input: "30"
    output: "31"
    op_type: "ConstantFill"
    attribute {
      name: "input_as_shape"
      i: 1
      type: INT
    }
  }
  node {
    input: "20"
    input: "5"
    input: "6"
    input: "22"
    input: ""
    input: "31"
    output: "32"
    output: "33"
    op_type: "RNN"
    attribute {
      name: "activations"
      strings: "tanh"
      type: STRINGS
    }
    attribute {
      name: "hidden_size"
      i: 20
      type: INT
    }
  }
  node {
    input: "21"
    input: "33"
    output: "34"
    op_type: "Concat"
    attribute {
      name: "axis"
      i: 0
      type: INT
    }
  }
  name: "torch-jit-export"
  initializer {
    dims: 20
    dims: 10
    data_type: FLOAT
    name: "1"
    raw_data: "…"
  }
  initializer {
    dims: 20
    dims: 20
    data_type: FLOAT
    name: "2"
    raw_data: "…"
  }
  initializer {
    dims: 20
    data_type: FLOAT
    name: "3"
    raw_data: "…"
  }
  initializer {
    dims: 20
    data_type: FLOAT
    name: "4"
    raw_data: "…"
  }
  initializer {
    dims: 20
    dims: 20
    data_type: FLOAT
    name: "5"
    raw_data: "…"
  }
  initializer {
    dims: 20
    dims: 20
    data_type: FLOAT
    name: "6"
    raw_data: "…"
  }
  initializer {
    dims: 20
    data_type: FLOAT
    name: "7"
    raw_data: "…"
  }
  initializer {
    dims: 20
    data_type: FLOAT
    name: "8"
    raw_data: "…"
  }
  input {
    name: "0"
    type {
      tensor_type {
        elem_type: FLOAT
        shape {
          dim {
            dim_value: 5
          }
          dim {
            dim_value: 3
          }
          dim {
            dim_value: 10
          }
        }
      }
    }
  }
  input {
    name: "1"
    type {
      tensor_type {
        elem_type: FLOAT
        shape {
          dim {
            dim_value: 20
          }
          dim {
            dim_value: 10
          }
        }
      }
    }
  }
  input {
    name: "2"
    type {
      tensor_type {
        elem_type: FLOAT
        shape {
          dim {
            dim_value: 20
          }
          dim {
            dim_value: 20
          }
        }
      }
    }
  }
  input {
    name: "3"
    type {
      tensor_type {
        elem_type: FLOAT
        shape {
          dim {
            dim_value: 20
          }
        }
      }
    }
  }
  input {
    name: "4"
    type {
      tensor_type {
        elem_type: FLOAT
        shape {
          dim {
            dim_value: 20
          }
        }
      }
    }
  }
  input {
    name: "5"
    type {
      tensor_type {
        elem_type: FLOAT
        shape {
          dim {
            dim_value: 20
          }
          dim {
            dim_value: 20
          }
        }
      }
    }
  }
  input {
    name: "6"
    type {
      tensor_type {
        elem_type: FLOAT
        shape {
          dim {
            dim_value: 20
          }
          dim {
            dim_value: 20
          }
        }
      }
    }
  }
  input {
    name: "7"
    type {
      tensor_type {
        elem_type: FLOAT
        shape {
          dim {
            dim_value: 20
          }
        }
      }
    }
  }
  input {
    name: "8"
    type {
      tensor_type {
        elem_type: FLOAT
        shape {
          dim {
            dim_value: 20
          }
        }
      }
    }
  }
  output {
    name: "32"
    type {
      tensor_type {
        elem_type: FLOAT
        shape {
          dim {
            dim_value: 5
          }
          dim {
            dim_value: 3
          }
          dim {
            dim_value: 20
          }
        }
      }
    }
  }
  output {
    name: "34"
    type {
      tensor_type {
        elem_type: FLOAT
        shape {
          dim {
            dim_value: 2
          }
          dim {
            dim_value: 3
          }
          dim {
            dim_value: 20
          }
        }
      }
    }
  }
}
opset_import {
  version: 6
}
