ir_version: 7
producer_name: "pytorch"
producer_version: "CURRENT_VERSION"
graph {
  node {
    input: "onnx::Cast_0"
    output: "onnx::Div_2"
    name: "Cast_0"
    op_type: "Cast"
    attribute {
      name: "to"
      i: 1
      type: INT
    }
  }
  node {
    input: "onnx::Cast_1"
    output: "onnx::Div_3"
    name: "Cast_1"
    op_type: "Cast"
    attribute {
      name: "to"
      i: 1
      type: INT
    }
  }
  node {
    input: "onnx::Div_2"
    input: "onnx::Div_3"
    output: "onnx::Cast_4"
    name: "Div_2"
    op_type: "Div"
  }
  node {
    input: "onnx::Cast_4"
    output: "onnx::Floor_5"
    name: "Cast_3"
    op_type: "Cast"
    attribute {
      name: "to"
      i: 1
      type: INT
    }
  }
  node {
    input: "onnx::Floor_5"
    output: "onnx::Cast_6"
    name: "Floor_4"
    op_type: "Floor"
  }
  node {
    input: "onnx::Cast_6"
    output: "onnx::Mul_7"
    name: "Cast_5"
    op_type: "Cast"
    attribute {
      name: "to"
      i: 1
      type: INT
    }
  }
  node {
    input: "onnx::Mul_7"
    input: "onnx::Cast_1"
    output: "onnx::Sub_8"
    name: "Mul_6"
    op_type: "Mul"
  }
  node {
    input: "onnx::Cast_0"
    input: "onnx::Sub_8"
    output: "9"
    name: "Sub_7"
    op_type: "Sub"
  }
  name: "torch_jit"
  input {
    name: "onnx::Cast_0"
    type {
      tensor_type {
        elem_type: 1
        shape {
          dim {
            dim_value: 2
          }
          dim {
            dim_value: 3
          }
          dim {
            dim_value: 4
          }
        }
      }
    }
  }
  input {
    name: "onnx::Cast_1"
    type {
      tensor_type {
        elem_type: 1
        shape {
          dim {
            dim_value: 2
          }
          dim {
            dim_value: 1
          }
          dim {
            dim_value: 4
          }
        }
      }
    }
  }
  output {
    name: "9"
    type {
      tensor_type {
        elem_type: 1
        shape {
          dim {
            dim_value: 2
          }
          dim {
            dim_value: 3
          }
          dim {
            dim_value: 4
          }
        }
      }
    }
  }
}
opset_import {
  version: 14
}
