ir_version: 4
producer_name: "pytorch"
producer_version: "CURRENT_VERSION"
graph {
  node {
    input: "onnx::Shape_0"
    output: "onnx::Slice_1"
    name: "Shape_0"
    op_type: "Shape"
  }
  node {
    input: "onnx::Slice_1"
    output: "onnx::Concat_2"
    name: "Slice_1"
    op_type: "Slice"
    attribute {
      name: "axes"
      ints: 0
      type: INTS
    }
    attribute {
      name: "ends"
      ints: 0
      type: INTS
    }
    attribute {
      name: "starts"
      ints: 0
      type: INTS
    }
  }
  node {
    output: "onnx::Concat_3"
    name: "Constant_2"
    op_type: "Constant"
    attribute {
      name: "value"
      t {
        dims: 1
        data_type: 7
        raw_data: "\377\377\377\377\377\377\377\377"
      }
      type: TENSOR
    }
  }
  node {
    input: "onnx::Concat_2"
    input: "onnx::Concat_3"
    output: "onnx::Reshape_4"
    name: "Concat_3"
    op_type: "Concat"
    attribute {
      name: "axis"
      i: 0
      type: INT
    }
  }
  node {
    input: "onnx::Shape_0"
    input: "onnx::Reshape_4"
    output: "5"
    name: "Reshape_4"
    op_type: "Reshape"
  }
  name: "torch_jit"
  input {
    name: "onnx::Shape_0"
    type {
      tensor_type {
        elem_type: 1
        shape {
          dim {
            dim_value: 1
          }
          dim {
            dim_value: 2
          }
          dim {
            dim_value: 3
          }
          dim {
            dim_value: 4
          }
        }
      }
    }
  }
  output {
    name: "5"
    type {
      tensor_type {
        elem_type: 1
        shape {
          dim {
            dim_value: 24
          }
        }
      }
    }
  }
}
opset_import {
  version: 9
}
