ir_version: 6
producer_name: "pytorch"
producer_version: "1.7"
graph {
  node {
    input: "0"
    output: "1"
    name: "Shape_0"
    op_type: "Shape"
  }
  node {
    input: "1"
    output: "2"
    name: "Slice_1"
    op_type: "Slice"
    attribute {
      name: "axes"
      ints: 0
      type: INTS
    }
    attribute {
      name: "ends"
      ints: 0
      type: INTS
    }
    attribute {
      name: "starts"
      ints: 0
      type: INTS
    }
  }
  node {
    input: "1"
    output: "3"
    name: "Slice_2"
    op_type: "Slice"
    attribute {
      name: "axes"
      ints: 0
      type: INTS
    }
    attribute {
      name: "ends"
      ints: 4
      type: INTS
    }
    attribute {
      name: "starts"
      ints: 0
      type: INTS
    }
  }
  node {
    input: "3"
    output: "4"
    name: "ReduceProd_3"
    op_type: "ReduceProd"
  }
  node {
    input: "2"
    input: "4"
    output: "5"
    name: "Concat_4"
    op_type: "Concat"
    attribute {
      name: "axis"
      i: 0
      type: INT
    }
  }
  node {
    input: "0"
    input: "5"
    output: "6"
    name: "Reshape_5"
    op_type: "Reshape"
  }
  name: "torch-jit-export"
  input {
    name: "0"
    type {
      tensor_type {
        elem_type: 1
        shape {
          dim {
            dim_value: 1
          }
          dim {
            dim_value: 2
          }
          dim {
            dim_value: 3
          }
          dim {
            dim_value: 4
          }
        }
      }
    }
  }
  output {
    name: "6"
    type {
      tensor_type {
        elem_type: 1
        shape {
          dim {
            dim_value: 24
          }
        }
      }
    }
  }
}
opset_import {
  version: 9
}
