ir_version: 6
producer_name: "pytorch"
producer_version: "1.5"
graph {
  node {
    input: "0"
    output: "1"
    name: "Shape_0"
    op_type: "Shape"
  }
  node {
    output: "2"
    name: "Constant_1"
    op_type: "Constant"
    attribute {
      name: "value"
      t {
        data_type: 7
        raw_data: "\000\000\000\000\000\000\000\000"
      }
      type: TENSOR
    }
  }
  node {
    input: "1"
    input: "2"
    output: "3"
    name: "Gather_2"
    op_type: "Gather"
    attribute {
      name: "axis"
      i: 0
      type: INT
    }
  }
  node {
    input: "0"
    output: "4"
    name: "Shape_3"
    op_type: "Shape"
  }
  node {
    output: "5"
    name: "Constant_4"
    op_type: "Constant"
    attribute {
      name: "value"
      t {
        data_type: 7
        raw_data: "\000\000\000\000\000\000\000\000"
      }
      type: TENSOR
    }
  }
  node {
    input: "4"
    input: "5"
    output: "6"
    name: "Gather_5"
    op_type: "Gather"
    attribute {
      name: "axis"
      i: 0
      type: INT
    }
  }
  node {
    input: "6"
    output: "7"
    name: "Cast_6"
    op_type: "Cast"
    attribute {
      name: "to"
      i: 11
      type: INT
    }
  }
  node {
    output: "8"
    name: "Constant_7"
    op_type: "Constant"
    attribute {
      name: "value"
      t {
        data_type: 11
        raw_data: "\000\000\000\000\000\000\360?"
      }
      type: TENSOR
    }
  }
  node {
    input: "8"
    input: "7"
    output: "9"
    name: "Div_8"
    op_type: "Div"
  }
  node {
    output: "10"
    name: "Constant_9"
    op_type: "Constant"
    attribute {
      name: "value"
      t {
        data_type: 11
        raw_data: "\000\000\000\000\000\0008@"
      }
      type: TENSOR
    }
  }
  node {
    input: "9"
    input: "10"
    output: "11"
    name: "Mul_10"
    op_type: "Mul"
  }
  node {
    input: "11"
    output: "12"
    name: "Cast_11"
    op_type: "Cast"
    attribute {
      name: "to"
      i: 7
      type: INT
    }
  }
  node {
    input: "3"
    output: "13"
    name: "Unsqueeze_12"
    op_type: "Unsqueeze"
    attribute {
      name: "axes"
      ints: 0
      type: INTS
    }
  }
  node {
    input: "12"
    output: "14"
    name: "Unsqueeze_13"
    op_type: "Unsqueeze"
    attribute {
      name: "axes"
      ints: 0
      type: INTS
    }
  }
  node {
    input: "13"
    input: "14"
    output: "15"
    name: "Concat_14"
    op_type: "Concat"
    attribute {
      name: "axis"
      i: 0
      type: INT
    }
  }
  node {
    input: "0"
    input: "15"
    output: "16"
    name: "Reshape_15"
    op_type: "Reshape"
  }
  name: "torch-jit-export"
  input {
    name: "0"
    type {
      tensor_type {
        elem_type: 1
        shape {
          dim {
            dim_value: 1
          }
          dim {
            dim_value: 2
          }
          dim {
            dim_value: 3
          }
          dim {
            dim_value: 4
          }
        }
      }
    }
  }
  output {
    name: "16"
    type {
      tensor_type {
        elem_type: 1
        shape {
          dim {
            dim_value: 1
          }
          dim {
            dim_value: 24
          }
        }
      }
    }
  }
}
opset_import {
  version: 9
}
